abalone/abalone_60_ffastSHAP.pt (torch, 86655 bytes, 6 tensors)

weight f4 [128, 12]
0.093115844 0.24296114 0.20043309 -0.06418094 0.25170678 -0.0055952114 -0.1622877 0.08656137
0.018833634 -0.1742496 0.01230371 0.2492752 0.06416235 0.051601455 -0.17461318 -0.016786212
0.18777671 -0.2168703 -0.060311716 -0.047374163 -0.119145334 -0.27513808 -0.05302769 0.0011267704
0.2025729 0.27462703 0.03672225 -0.06360671 -0.06893966 -0.02732736 0.077408396 -0.18711656
0.045593332 0.22385575 -0.18704434 -0.14120612 0.12520556 0.12523356 -0.07708022 0.0847803
0.26111302 0.118358195 0.039621916 0.1012055 -0.17862487 0.30482683 -0.013649824 -0.23258494
-0.17582129 0.039507683 -0.19734009 0.17739883 -0.37149277 -0.11606239 -0.16478764 0.12699112
-0.15045714 0.08535433 0.037274037 0.061825722 -0.25469208 0.2022314 0.054446846 0.16726513
-0.26150775 -0.0070058205 -0.10792556 0.20084047 0.080359705 0.2446563 0.2457319 0.045964856
-0.03373629 0.085242465 0.04420607 -0.2231453 -0.22558588 -0.0031559034 0.13838148 -0.00047092102
0.0106254015 -0.144548 -0.2068799 0.030355526 0.118371285 0.3344792 0.116250016 -0.19476648
-0.393502 -0.12724996 -0.20095429 0.0024910492 0.082941145 -2.4751105e-05 0.28767702 -0.18634094
0.12165573 -0.077648334 0.160008 -0.10070834 -0.30858335 0.008139405 -0.117146865 -0.10998899
-0.27938816 -0.27032557 -0.10508177 0.058316786 -0.042493757 0.029287882 0.004191757 -0.33115387
0.28833562 -0.31939998 0.22289705 -0.2120331 -0.17560004 -0.23601922 0.019738793 -0.062322818
-0.073742315 -0.11891145 0.03887266 0.026707537 0.21833228 -0.10276358 -0.062455844 0.18795983
-0.14635733 -0.01428773 -0.32906738 0.17058565 -0.05743234 -0.2616136 0.05001012 -0.21736272
-0.13323653 -0.06121886 0.0944049 0.04533492 0.07800411 0.08489074 -0.22088067 -0.18177927
-0.048414443 -0.22837257 0.12840128 -0.30534005 -0.028896345 0.14466155 0.11140639 0.15763786
0.10788712 -0.1556635 0.3008534 -0.36936924 0.12840985 0.15742245 0.11775857 -0.25967905
0.25130928 0.14884543 -0.12409106 0.048692048 -0.09333835 0.1609186 -0.0917309 0.013359666
-0.085354105 -0.09388274 -0.021136045 0.2470608 0.0032222732 -0.03686987 0.3646948 -0.20622899
-0.19096404 -0.070076816 -0.07462965 -0.20729275 0.11356078 -0.30128452 0.02579895 0.16697289
-0.07278989 -0.1883861 0.022928817 0.017608289 -0.07852753 -0.22048086 -0.31050938 0.06650822
0.041670546 -0.13514327 -0.10425206 -0.13869303 0.051146843 0.08045392 -0.34682113 -0.24338824
0.14059317 -0.0618965 -0.100463666 -0.051910296 -0.09409023 0.07810745 -0.008646743 0.092455894
-0.53989726 0.08664927 -0.0659464 0.3115024 -0.037692387 0.20652458 0.09697894 -0.07152523
-0.2214101 -0.28116262 -0.02405129 -0.118898414 -0.06812922 -0.070389725 -0.03895998 0.10028751
0.050061245 0.008834009 -0.01738762 0.1708789 0.01945277 0.0917612 -0.2088359 0.02176544
0.27183187 0.23371619 -0.2591648 -0.21659045 -0.21644747 -0.27416578 -0.1122599 0.038379483
0.29085505 0.18403618 -0.123819016 -0.33007964 -0.3403574 -0.16651216 0.21946846 -0.2093208
-0.1477282 0.015980035 0.1395036 0.08841475 -0.08176269 0.08616081 0.13206598 0.112498686
00000000: 85b3 be3d ceca 783e 553e 4d3e 4c71 83bd
00000010: b6df 803e 0958 b7bb bf2e 26be 1647 b13d
00000020: fe48 9a3c 7d6e 32be 8095 493c ff41 7f3e
00000030: 8d67 833d 0c5c 533d cccd 32be 3d83 89bc
00000040: 8a48 403e 3f13 5ebe 6b09 77bd 690b 42bd
00000050: 7802 f4bd e6de 8cbe 9033 59bd 24b0 933a
00000060: 456f 4f3e ea9b 8c3e 126a 163d 3c44 82bd
00000070: 3d30 8dbd a1dd dfbc 4b88 9e3d 7c9b 3fbe
00000080: 13c0 3a3d 713a 653e 8d88 3fbe 5698 10be
00000090: e335 003e 3a3d 003e 3cdc 9dbd 4ba1 ad3d
000000a0: 9bb0 853e c865 f23d 974a 223d d444 cf3d
000000b0: 70e9 36be 4312 9c3e 83a3 5fbc bf2a 6ebe
000000c0: 7f0a 34be cfd2 213d 8513 4abe 0aa8 353e
000000d0: 4d34 bebe 1eb2 edbd 17be 28be f609 023e
000000e0: 7011 1abe 40ce ae3d a9ac 183d f83c 7d3d
000000f0: 0067 82be c015 4f3e a803 5f3d 8d47 2b3e
00000100: 58e4 85be 1591 e5bb 1308 ddbd 20a9 4d3e
00000110: a193 a43d 2e87 7a3e 25a1 7b3e a545 3c3d
00000120: 102f 0abd 9a93 ae3d 6d11 353d 3480 64be
00000130: fcff 66be 46d3 4ebb e0b3 0d3e f3e5 f6b9
00000140: 2a16 2e3c 6404 14be 53d8 53be 27ac f83c
00000150: a56c f23d dc40 ab3e 7d14 ee3d dd70 47be
00000160: 1879 c9be d04d 02be f6c6 4dbe df40 233b
00000170: 0cdd a93d 98a0 cfb7 674a 933e 29d0 3ebe
00000180: a426 f93d 1706 9fbd 23d9 233e 2d40 cebd
00000190: a3fe 9dbe 245b 053c b2ea efbd e841 e1bd
000001a0: f70b 8fbe 1d68 8abe 1c35 d7bd 95dd 6e3d
000001b0: ef0d 2ebd 24ed ef3c 025b 893b 008d a9be
000001c0: baa0 933e 6588 a3be 203f 643e 341f 59be
000001d0: 7fd0 33be 06af 71be 40b3 a13c 3646 7fbd
000001e0: 3606 97bd d987 f3bd f038 1f3d c4c9 da3c
000001f0: 7f92 5f3e b675 d2bd b3d1 7fbd 8b78 403e
00000200: b2de 15be 1517 6abc 857b a8be 01ae 2e3e
00000210: 2c3e 6bbd 38f2 85be 69d7 4c3d 5594 5ebe
00000220: 286f 08be a1c0 7abd 5b57 c13d 1cb1 393d
00000230: 9ec0 9f3d 32db ad3d 8b2e 62be 5824 3abe
00000240: 394e 46bd 80da 69be a07b 033e 8855 9cbe
00000250: 07b8 ecbc 2822 143e 0929 e43d d26b 213e
00000260: ecf3 dc3d 4166 1fbe 7509 9a3e f71d bdbe
00000270: df7d 033e 5a33 213e 682b f13d a7f4 84be
00000280: 9cab 803e f06a 183e 7423 febd 5071 473d
00000290: 2d28 bfbd d8c7 243e 69dd bbbd 80e2 5a3c
000002a0: 22ce aebd 9845 c0bd 8025 adbc 82fd 7c3e
000002b0: c62c 533b dc04 17bd 47b9 ba3e b12d 53be
000002c0: 148c 43be 6f84 8fbd 6ed7 98bd 8d44 54be
000002d0: 8e92 e83d f741 9abe 5258 d33c f1fa 2a3e
000002e0: de12 95bd 49e8 40be 37d5 bb3c 423f 903c
000002f0: 0bd3 a0bd bcc5 61be 16fb 9ebe 7635 883d
00000300: bcae 2a3d ff62 0abe 1b82 d5bd 8c05 0ebe
00000310: 5a7f 513d 06c5 a43d 8a92 b1be c43a 79be
00000320: a8f7 0f3e 2f87 7dbd e5bf cdbd e49f 54bd
00000330: 61b2 c0bd ccf6 9f3d 12ab 0dbc 8459 bd3d
00000340: b536 0abf 2c75 b13d e80e 87bd 3e7d 9f3e
00000350: 5563 1abd 2e7b 533e e59c c63d d27b 92bd
00000360: 54b9 62be 8cf4 8fbe 3607 c5bc 0381 f3bd
00000370: 5587 8bbd 7d28 90bd 8094 1fbd 8a63 cd3d
00000380: 050d 4d3d 85bc 103c 7b70 8ebc e1fa 2e3e
00000390: 6a5b 9f3c 4ced bb3d 14d9 55be 704d b23c
000003a0: 8c2d 8b3e 4c53 6f3e 40b1 84be e3c9 5dbe
000003b0: 68a4 5dbe 755f 8cbe 85e8 e5bd ce33 1d3d
000003c0: f4ea 943e fb73 3c3e d394 fdbd 3300 a9be
000003d0: 5343 aebe 2a82 2abe 57bc 603e 3158 56be
000003e0: 1046 17be 90e8 823c 08da 0e3e cb12 b53d
000003f0: 3273 a7bd 1475 b03d 4e3c 073e b665 e63d

bias f4 [128]
0.00043160873 -0.07363256 -0.045172937 0.13074617 0.20384365 0.14061292 0.09882269 -0.10797214
0.19810276 0.06054381 0.04921009 -0.21906509 0.1270103 0.23745619 -0.29164177 0.2469904
-0.28505537 -0.31530958 -0.23361632 -0.1129808 0.022530593 0.06522769 -0.064695865 -0.17391378
0.028328292 -0.19170822 0.14944477 -0.34873563 0.04729897 -0.10066926 0.013564224 0.2650247
-6.17767e-05 -0.038452134 0.013609445 0.13187642 -0.13253762 0.098185465 0.19848534 -0.08926101
-0.17098378 -0.018633327 -0.02574116 0.06161976 0.036783747 -0.24224491 -0.17647459 -0.048479103
-0.18826106 0.15008378 -0.11037354 0.17807542 -0.12680718 -0.13019674 0.030853014 0.14747761
-0.022991095 -0.17908102 -0.2651078 -0.24750991 0.10941839 -0.25331414 0.14277859 -0.037726063
0.024746861 0.14043619 -0.1416105 -0.108707346 -0.34059313 0.05830378 0.1122922 -0.067688845
-0.28368035 -0.04566044 0.17345372 0.044902563 -0.024748702 -0.23342785 0.1817365 -0.21908219
-0.12198687 -0.17530145 0.09121009 0.038335014 -0.2364248 -0.22798716 -0.0075559714 -0.008092087
-0.2347701 0.15157138 -0.12911153 -0.03506198 -0.2238015 -0.013569333 0.14088285 0.06295335
-0.11158976 0.2014035 -0.20473237 -0.04448279 -0.2143829 -0.22206716 0.09803733 0.12950039
-0.10096221 0.15941715 -0.25964582 0.020305144 -0.23919727 -0.20975211 -0.030532865 -0.25608188
-0.00851032 0.09053988 0.13801774 0.053219594 0.041729156 0.16071126 -0.17931686 -0.21678852
-0.24794383 -0.17479905 -0.115350045 -0.2604813 -0.13746086 0.2307858 0.20778191 -0.1463691
00000000: 8b49 e239 abcc 96bd 4207 39bd 53e2 053e
00000010: 64bc 503e d5fc 0f3e 8d63 ca3d 7f20 ddbd
00000020: 73db 4a3e c9fc 773d 8590 493d 9952 60be
00000030: fd0e 023e b727 733e 1252 95be 0deb 7c3e
00000040: c7f2 91be 4270 a1be 1e39 6fbe 7a62 e7bd
00000050: 1492 b83c 1896 853d 447f 84bd 7416 32be
00000060: bc10 e83c 294f 44be 0d08 193e 7a8d b2be
00000070: 91bc 413d af2b cebd 7b3c 5e3c 51b1 873e
00000080: 1d8e 81b8 fc7f 1dbd 26fa 5e3c 9d0a 073e
00000090: f1b7 07be 7615 c93d be3f 4b3e 7ace b6bd
000000a0: 5f16 2fbe eba4 98bc 20df d2bc 0065 7c3d
000000b0: 8eaa 163d 0d0f 78be c1b5 34be 0692 46bd
000000c0: 82c7 40be 90af 193e 860b e2bd 6759 363e
000000d0: bed9 01be 4b52 05be 76bf fc3c 5f04 173e
000000e0: d257 bcbc 0461 37be 36bc 87be 3d73 7dbe
000000f0: c016 e03d 64b2 81be 8d34 123e a586 1abd
00000100: eeb9 ca3c 81ce 0f3e 5802 11be f5a1 debd
00000110: 3962 aebe f2cf 6e3d 74f9 e53d 73a0 8abd
00000120: 8d3e 91be 7106 3bbd da9d 313e c0eb 373d
00000130: cabd cabc b607 6fbe 2219 3a3e 1557 60be
00000140: 41d4 f9bd 3982 33be 5bcc ba3d 2d05 1d3d
00000150: 5819 72be 7775 69be 1598 f7bb ac94 04bc
00000160: 9367 70be 8735 1b3e d035 04be 279d 0fbd
00000170: 382c 65be e851 5ebc 9843 103e b0ed 803d
00000180: 2c89 e4bd b83c 4e3e 5da5 51be 9633 36bd
00000190: 3187 5bbe 9365 63be ccc7 c83d c09b 043e
000001a0: 46c5 cebd 403e 233e 4cf0 84be f956 a63c
000001b0: 21f0 74be 42c9 56be 0f20 fabc 2a1d 83be
000001c0: df6e 0bbc f96c b93d 8654 0d3e cafc 593d
000001d0: 31ec 2a3d 7e91 243e d79e 37be cffd 5dbe
000001e0: fde4 7dbe 86fe 32be a53c ecbd ce5d 85be
000001f0: 8ac2 0cbe 1d53 6c3e c8c4 543e c8e1 15be

weight f4 [128, 128]
-0.07287009 -0.00083071267 0.0011531543 0.11491213 0.00500694 0.061408564 -0.01674098 0.114158
-0.022063954 0.16297466 -0.108624324 -0.08033313 0.132501 0.019753775 -0.15421866 -0.0037455999
-0.015565863 0.047532935 -0.10359 -0.13950148 -0.030248264 0.022986533 0.00721262 0.008137485
0.045095123 -0.04627053 0.0010774289 0.049921516 0.11123125 -0.09482733 -0.035734214 0.034748614
-0.008896665 0.05708928 -0.0014573383 0.010401406 -0.12157445 -0.07311426 0.07058 -0.04172523
-0.021669898 0.0015856816 0.031481538 -0.06782092 0.049127672 0.10693788 0.026611619 0.07166214
-0.0688048 0.056162138 -0.035418842 0.016352458 0.055978227 0.00032719455 -0.0722122 0.034120474
0.035263974 -0.07109942 -0.07320479 -0.08125111 -0.024634043 -0.033759948 0.016943447 0.038596556
-0.053549882 0.0032539133 -0.02647997 0.06989957 0.10400765 0.047292512 -0.05168295 0.00012276684
-0.038291823 0.00044886925 -0.13232088 0.036768664 0.0640401 -0.0029437428 0.0031861968 -0.014472447
0.026955556 -0.04893187 0.040243965 0.009625253 0.051785592 -0.19134502 -0.03864257 0.017432973
0.0048981667 -0.04342039 0.09165002 0.0022437535 -0.04708215 -0.026540063 -0.0008378667 0.008308708
0.009671755 -0.026513763 0.029988045 -0.13768251 0.016425572 -0.0729949 -0.060765736 0.055097196
0.12511413 0.07283788 0.13186944 0.08658422 -0.029570024 -0.04165185 0.01144289 -0.030436411
0.034318306 0.07345945 0.089738265 -0.048471488 0.09947399 -0.054392215 -0.018604599 0.038020283
0.07337378 -0.107347555 -0.09654562 0.08728605 -0.054434747 0.005030471 0.1274577 -0.007408066
-0.04724353 0.07182633 0.012329702 0.019905165 0.030575544 -0.06704275 -0.037032 0.034809135
-0.08527686 -0.0178236 0.057461448 -0.012253061 0.060940415 -0.063864976 -0.064660326 -0.08036097
0.04184813 0.07564894 0.048635043 -0.0620993 -0.058661174 0.0075608264 0.08620226 -0.0746457
-0.038426235 -0.06426246 0.026215993 -0.054798596 -0.046395376 0.030081883 -0.0019477829 -0.026296405
-0.07290818 0.019676782 -0.08128553 -0.044201106 0.051790677 0.00862851 -0.0871194 -0.09460607
0.06644935 -0.07788725 -0.048636176 0.05959046 0.06728562 0.071457535 0.0006473145 -0.0073539163
-0.086245246 -0.022594929 0.06847563 -0.04300715 -0.06455822 0.014207363 -0.03341122 -0.049861867
-0.02229864 -0.08237387 0.04969258 -0.028553018 0.020000434 -0.0150690535 -0.0030213855 0.0006132995
0.046207014 -0.0059529245 -0.077857934 0.033186276 -0.04962338 -0.0335718 -0.067134656 0.07147754
-0.0025556653 -0.02752281 0.029174194 0.077384464 -0.038450923 -0.083811834 0.06431333 -0.05771742
0.007084713 0.08834212 -0.035013523 0.049755864 0.037051577 -0.047591273 0.06896108 0.00032421606
0.004996501 0.05598008 0.0020212978 -0.08246723 -0.07384007 -0.013816379 0.03528808 0.08305024
-0.076095 -0.03883312 0.009973699 -0.035711214 -0.08248403 -0.027772522 -0.055846374 -0.0791924
-0.04702858 0.029496863 0.06274549 0.012834087 -0.065896854 -0.073344566 -0.03480362 0.038673796
-0.019650146 -0.024640124 -0.07182242 0.0068612834 -0.039391372 0.018278576 0.022838727 -0.027384989
0.039646763 -0.008142193 0.017778985 0.019333934 -0.009000942 -0.054444823 -0.03503435 -0.058925137
00000000: ea3c 95bd 2fc4 59ba 7025 973a 0d57 eb3d
00000010: 4211 a43b 8c87 7b3d 6124 89bc abcb e93d
00000020: 77bf b4bc d4e2 263e 6e76 debd b285 a4bd
00000030: 58ae 073e abd2 a13c 7feb 1dbe bd78 75bb
00000040: f607 7fbc e5b1 423d fe26 d4bd 7ad9 0ebe
00000050: 35cb f7bc 414e bc3c d857 ec3b 1653 053c
00000060: aab5 383d 2b86 3dbd 8438 8d3a 817a 4c3d
00000070: 36cd e33d d534 c2bd 0a5e 12bd 9054 0e3d
00000080: 51c3 11bc 73d6 693d 2904 bfba a96a 2a3c
00000090: 06fc f8bd eebc 95bd 3f8c 903d 13e8 2abd
000000a0: 1285 b1bc a5d6 cf3a c9f2 003d b2e5 8abd
000000b0: 193a 493d 3f02 db3d 9c00 da3c 9ac3 923d
000000c0: 88e9 8cbd 450a 663d 5913 11bd 97f5 853c
000000d0: 6d49 653d 4f8b ab39 fde3 93bd e9c1 0b3d
000000e0: f570 103d 939c 91bd 65ec 95bd fb66 a6bd
000000f0: 55cd c9bc df47 0abd fccc 8a3c 6c17 1e3d
00000100: 1f57 5bbd 9b3f 553b 86ec d8bc 8127 8f3d
00000110: f601 d53d cbb5 413d 80b1 53bd f9ba 0039
00000120: e3d7 1cbd 3656 eb39 207f 07be bd9a 163d
00000130: 7527 833d cfeb 40bb 83cf 503b d81d 6dbc
00000140: e6d1 dc3c c96c 48bd dbd6 243d 3db3 1d3c
00000150: 211d 543d f3ef 43be ac47 1ebd 98cf 8e3c
00000160: cd80 a03b 94d9 31bd 01b3 bb3d f00b 133b
00000170: 36d9 40bd 8c6a d9bc 48a4 5bba 3f21 083c
00000180: 4876 1e3c 6433 d9bc 7da9 f53c a5fc 0cbe
00000190: ec8e 863c 5a7e 95bd 7ee5 78bd 99ad 613d
000001a0: eb1d 003e 072c 953d c808 073e 1153 b13d
000001b0: d63c f2bc 219b 2abd f67a 3b3c c855 f9bc
000001c0: 5a91 0c3d e871 963d b2c8 b73d 0a8a 46bd
000001d0: 05b9 cb3d 5fca 5ebd ac68 98bc 28bb 1b3d
000001e0: fe44 963d 09d9 dbbd b6b9 c5bd 07c3 b23d
000001f0: f8f6 5ebd a6d6 a43b 4584 023e 5dbf f2bb
00000200: 6f82 41bd af19 933d 8502 4a3c 2810 a33c
00000210: 9079 fa3c b64d 89bd deae 17bd 0694 0e3d
00000220: a2a5 aebd cc02 92bc b25c 6b3d 10c1 48bc
00000230: a89c 793d a4cb 82bd a26c 84bd 4b94 a4bd
00000240: f268 2b3d d5ed 9a3d 8a35 473d d65b 7ebd
00000250: b346 70bd cfc0 f73b cf8a b03d d8df 98bd
00000260: d464 1dbd 099c 83bd ecc2 d63c 7e74 60bd
00000270: 1409 3ebd 486e f63c c04c ffba 8f6b d7bc
00000280: e250 95bd 3431 a13c 0779 a6bd 380c 35bd
00000290: 7622 543d 985e 0d3c a86b b2bd d4c0 c1bd
000002a0: 9916 883d 5a83 9fbd ba36 47bd 2015 743d
000002b0: 0bcd 893d 5458 923d 8ab0 293a 1ff9 f0bb
000002c0: 59a1 b0bd 0019 b9bc f33c 8c3d 4428 30bd
000002d0: 1a37 84bd 00c6 683c 34da 08bd f53b 4cbd
000002e0: a3ab b6bc a2b3 a8bd 728a 4b3d 05e8 e9bc
000002f0: f3d7 a33c 31e4 76bc 7002 46bb d5c5 203a
00000300: 9143 3d3d c010 c3bb fb73 9fbd 55ee 073d
00000310: e341 4bbd 9582 09bd e57d 89bd d162 923d
00000320: f37c 27bb 8477 e1bc b8fe ee3c bf7b 9e3d
00000330: b77e 1dbd 8aa5 abbd b5b6 833d 1a69 6cbd
00000340: e126 e83b b7ec b43d 576a 0fbd cecc 4b3d
00000350: 65c3 173d 11ef 42bd 773b 8d3d 8bfb a939
00000360: b0b9 a33b 5e4b 653d c077 043b 94e4 a8bd
00000370: 7639 97bd 185e 62bc 3c8a 103d 3f16 aa3d
00000380: b2d7 9bbd 7a0f 1fbd ba68 233c ec45 12bd
00000390: 63ed a8bd 3383 e3bc 2bbf 64bd a02f a2bd
000003a0: 0aa1 40bd 68a3 f13c b580 803d 1046 523c
000003b0: eef4 86bd ad35 96bd 3e8e 0ebd 6a68 1e3d
000003c0: 58f9 a0bc 16da c9bc a217 93bd 9ed4 e03b
000003d0: d958 21bd f4bc 953c 4818 bb3c 7c56 e0bc
000003e0: a564 223d d566 05bc 3ca5 913c 3362 9e3c
000003f0: b078 13bc 8901 5fbd 2e80 0fbd 7c5b 71bd

bias f4 [128]
-0.01989939 -0.0979099 0.016481003 -0.03228703 0.025633419 0.0231364 0.0108581325 0.047765918
-0.019531554 -0.019042801 -0.0319303 0.047177196 -0.08115118 -0.0102444785 -0.059263553 -0.0654851
-0.0143300155 -0.07203684 -0.0044351425 0.053023245 -0.08839106 -0.06471206 -0.05614449 -0.06968379
-0.010136576 0.05414076 0.057836484 0.04504818 0.03644561 -0.068936735 -0.05977374 -0.026016375
-0.082856074 0.05238247 -0.08537559 0.019424552 -0.018757254 0.04192393 -0.07233827 0.023516646
-0.06276529 -0.07475673 -0.027039604 0.120300956 -0.051267333 -0.10583864 0.064665 0.062411506
-0.059189063 -0.05239498 0.08428847 0.011948563 0.056445017 0.04119229 0.011001683 -0.00857405
0.06839465 -0.036289804 0.087739006 -0.04658032 0.020802146 -0.0074629914 -0.038824387 -0.012540058
-0.044168826 -0.05908735 -0.04305544 0.09290803 0.05888439 0.049140126 -0.019266503 -0.011705924
0.03318627 -0.05291237 -0.06988556 -0.0510055 0.08211166 0.010341314 -0.053160932 -0.017741144
0.027534219 0.03667499 -0.04120062 0.019635482 0.049521223 0.033573482 -0.04507453 0.018607546
0.043434594 0.058725704 -0.026536968 -0.07624527 -0.048485734 0.003625007 -0.029217837 0.008263562
0.09358886 -0.09271903 0.08216007 -0.07314023 -0.09947632 0.052106656 -0.020624889 -0.043506637
-0.05671931 0.065252244 -0.009404938 0.0136295 -0.05143598 -0.030240579 0.08965364 -0.03828987
-0.07887995 -0.049964223 -0.05405078 0.022955582 0.092948176 0.0005968452 -0.07522822 -0.08648302
0.0070863357 0.05276202 0.007836827 0.06111649 0.01360667 0.050097886 -0.028275006 0.010292116
00000000: 0c04 a3bc fc84 c8bd 2b03 873c 683f 04bd
00000010: 2dfd d13c 8c88 bd3c 4fe6 313c 32a6 433d
00000020: a300 a0bc a6ff 9bbc 59c9 02bd e03c 413d
00000030: 9732 a6bd 75d8 27bc 57be 72bd 0d1d 86bd
00000040: 71c8 6abc 0d88 93bd ac54 91bb e72e 593d
00000050: 5f06 b5bd c287 84bd c4f7 65bd 60b6 8ebd
00000060: e213 26bc b4c2 5d3d f3e5 6c3d 7184 383d
00000070: fe47 153d b42e 8dbd 4fd5 74bd 4b20 d5bc
00000080: 72b0 a9bd 008f 563d 66d9 aebd 3d20 9f3c
00000090: d0a8 99bc 6db8 2b3d 1626 94bd fba5 c03c
000000a0: 178b 80bd 0e1a 99bd 2982 ddbc 5960 f63d
000000b0: b2fd 51bd eec1 d8bd 156f 843d 35a3 7f3d
000000c0: 3b70 72bd 1e9c 56bd 6f9f ac3d e8c3 433c
000000d0: e432 673d 3fb9 283d 6740 343c 2c7a 0cbc
000000e0: 7f12 8c3d 9ea4 14bd 82b0 b33d 01cb 3ebd
000000f0: 4369 aa3c 1c8c f4bb 5206 1fbd d174 4dbc
00000100: 5fea 34bd 9405 72bd e75a 30bd 9146 be3d
00000110: c230 713d 2847 493d c9d4 9dbc 34ca 3fbc
00000120: 54ee 073d a4ba 58bd 2920 8fbd 25eb 50bd
00000130: 282a a83d 9d6e 293c 47bf 59bd e055 91bc
00000140: 718f e13c 8438 163d fbc1 28bd 97da a03c
00000150: c4d6 4a3d 5984 093d 12a0 38bd da6e 983c
00000160: 79e8 313d 5d8a 703d 0e64 d9bc 7b26 9cbd
00000170: fa98 46bd 8791 6d3b 3f5a efbc e463 073c
00000180: 84ab bf3d 7ae3 bdbd 8a43 a83d 8bca 95bd
00000190: 3eba cbbd ca6d 553d 87f5 a8bc 0434 32bd
000001a0: 8252 68bd f8a2 853d 2b17 1abc 444e 5f3c
000001b0: 89ae 52bd 17bb f7bc 549c b73d d7d5 1cbd
000001c0: d08b a1bd 49a7 4cbd 5a64 5dbd 580d bc3c
000001d0: 9d5b be3d 9a75 1c3a 4111 9abd 021e b1bd
000001e0: 7e34 e83b fd1c 583d 0966 003c 4955 7a3d
000001f0: 83ee 5e3c 7133 4d3d fca0 e7bc 43a0 283c

weight f4 [20, 128]
-0.05293258 -0.061509237 -0.0770696 -0.008585851 -0.07097239 0.019124115 0.069652066 -0.05959494
0.053769894 -0.0126232365 -0.011038413 -0.04201239 -0.034113508 -0.022323083 -0.095300645 -0.0407089
-0.10684923 0.038410176 0.0181248 0.0002317381 -0.054851886 0.012783146 0.062227502 -0.04447536
0.035634883 0.04966404 0.19440363 0.10394487 0.03110306 -0.073983684 0.032391928 0.004637772
0.0010017526 -0.005409109 -0.059672754 -0.019487413 -0.038995557 -0.001616625 0.07783703 0.0065097013
-0.043571156 0.049182277 0.045282613 -0.017798534 -0.04119663 0.05698705 -0.028455071 -0.027888035
-0.07973459 -0.060560618 0.010515263 0.008533689 -0.012304141 0.022551818 -0.027977923 0.09265376
-0.061585225 0.052138023 -0.035541076 -0.038374964 -0.029343849 0.040978037 0.019328406 0.01631384
-0.09885162 0.037553508 -0.03836354 0.022033563 -0.03789502 -0.20760332 -0.044480048 -0.025500784
0.009410552 -0.003812199 0.033249088 0.008952366 0.017142879 -0.12792979 0.025581008 0.09869752
-0.021542793 0.034019247 -0.03554693 -0.07997573 -0.05185754 0.059396688 0.05650576 0.013328903
-0.00040150087 -0.067116015 -0.010531211 0.009228936 -0.028578589 0.065967575 0.0054619983 0.04563081
-0.05838574 0.0305889 0.018736634 -0.02175044 0.07426723 0.06235145 0.002195148 -0.04942254
-0.07772905 0.009541737 -0.0002791303 0.008871179 0.032150723 0.03926453 -0.08001627 -0.06341267
0.032311134 0.010773612 -0.037143566 -0.032646257 -0.042523872 0.016371958 -0.033839703 -0.0746558
0.015674807 -0.04308752 0.059461378 -0.009734774 0.0057351766 -0.034845084 0.010326804 0.0739478
0.038610816 -0.045606297 0.05287025 -0.016292073 0.11606443 0.02566755 -0.047331125 -0.058503304
-0.06153848 0.021183861 0.042940747 0.005819725 -0.030067556 0.019036388 0.081923686 0.010572726
0.11941925 -0.032387707 -0.06197357 0.05931543 0.012926549 0.077179216 -0.054552063 0.06290011
-0.0042850613 -0.046506945 -0.18417932 -0.0898437 0.036022417 0.10985117 0.06759154 -0.08910801
-0.024492156 0.06858732 -0.08666215 -0.03865289 -0.033478282 -0.053372815 0.036053557 0.0015940802
-0.03991336 0.018267265 -0.070190035 -0.005546195 -0.030884523 -0.024482956 -0.035624173 -0.025768042
-0.041434776 -0.057296872 -0.06087166 -0.075005986 0.021601858 -0.04206359 -0.02528766 0.06074073
-0.012258071 -0.057360142 -0.06384246 0.046740998 0.054693688 -0.06615941 -0.045662623 -0.00897693
0.061425354 0.019638885 0.0721975 0.08100258 -0.061178822 0.12013432 -0.013190108 -0.032965712
0.03363973 0.0402506 -0.077881746 -0.056739762 0.0808166 0.02829832 -0.08679262 -0.017231647
0.021158429 -0.04081116 -0.042880524 0.026167676 0.040336642 -0.07505245 -0.025553668 -0.048527747
-0.029973866 -0.02055842 0.06776821 0.00497983 -0.0051529817 -0.060749106 0.05419831 -0.04628788
0.029702406 -0.05001132 -0.05947987 0.05802024 0.008555875 -0.050048128 -0.052293606 -0.010990318
0.020190967 -0.059431687 -0.012736936 -0.036345065 -0.03283997 0.03604491 -0.027559163 -0.019356085
-0.029454468 0.03346966 -0.056795765 -0.005763918 0.06798628 0.019400692 0.029122772 0.00641452
0.08688481 0.047290135 0.042120226 0.042976804 0.045548894 0.06436885 -0.010256348 -0.03203512
00000000: d5cf 58bd 1cf1 7bbd abd6 9dbd abab 0cbc
00000010: f959 91bd 2daa 9c3c bea5 8e3d d319 74bd
00000020: d23d 5c3d b1d1 4ebc 76da 34bc 2f15 2cbd
00000030: 9bba 0bbd e6de b6bc fc2c c3bd 60be 26bd
00000040: c5d3 dabd fd53 1d3d 767a 943c b9fe 7239
00000050: 5fac 60bd 6770 513c 44e2 7e3d cc2b 36bd
00000060: e2f5 113d 856c 4b3d bf11 473e 0ce1 d43d
00000070: d8cb fe3c c284 97bd 66ad 043d 74f8 973b
00000080: 3d4d 833a e53e b1bb 6b6b 74bd 11a4 9fbc
00000090: ceb9 1fbd efe4 d3ba 0569 9f3d 554f d53b
000000a0: ab77 32bd 5b73 493d 437a 393d 3bce 91bc
000000b0: ccbd 28bd 416b 693d 9c1a e9bc 7375 e4bc
000000c0: e44b a3bd 690e 78bd 3648 2c3c e3d0 0b3c
000000d0: 4f97 49bc 97be b83c f531 e5bc 41c1 bd3d
000000e0: ca40 7cbd ae8e 553d 8593 11bd 112f 1dbd
000000f0: 8362 f0bc 96d8 273d 9b56 9e3c 9aa4 853c
00000100: b872 cabd b5d1 193d 1623 1dbd bb7f b43c
00000110: cf37 1bbd f795 54be b630 36bd 05e7 d0bc
00000120: b72e 1a3c 16d6 79bb 3230 083d f2ac 123c
00000130: 396f 8c3c 0700 03be 438f d13c ed21 ca3d
00000140: 837a b0bc c457 0b3d a899 11bd 51ca a3bd
00000150: 9268 54bd f149 733d 9572 673d 7961 5a3c
00000160: 8980 d2b9 1f74 89bd 1a8b 2cbc f734 173c
00000170: a51d eabc 021a 873d 90fa b23b 5fe7 3a3d
00000180: e325 6fbd 9395 fa3c 927d 993c fb2d b2bc
00000190: 6b19 983d 3c64 7f3d 79dc 0f3b 4a6f 4abd
000001a0: 6830 9fbd f254 1c3c 3c58 92b9 6c58 113c
000001b0: 7ab0 033d d8d3 203d 92df a3bd 80de 81bd
000001c0: ae58 043d ce83 303c da23 18bd 15b8 05bd
000001d0: 832d 2ebd 7c1e 863c 809b 0abd 24e5 98bd
000001e0: 7468 803c 8a7c 30bd c68d 733d 9a7e 1fbc
000001f0: 26ee bb3b b8b9 0ebd c131 293c f271 973d
00000200: 6026 1e3d abcd 3abd 7a8e 583d f476 85bc
00000210: 30b3 ed3d c144 d23c 48de 41bd 29a1 6fbd
00000220: c60f 7cbd c789 ad3c a3e2 2f3d 64b3 be3b
00000230: 3c50 f6bc 33f2 9b3c 9bc7 a73d 3a39 2d3c
00000240: 1492 f43d f9a8 04bd 00d8 7dbd bcf4 723d
00000250: e0c9 533c 2310 9e3d fc71 5fbd c6d1 803d
00000260: b369 8cbb 117e 3ebd 8199 3cbe f9ff b7bd
00000270: 3e8c 133d a6f9 e03d 6f6d 8a3d 437e b6bd
00000280: c6a3 c8bc 8277 8c3d ed7b b1bd 7e52 1ebd
00000290: 8620 09bd 749d 5abd e5ac 133d 75f0 d03a
000002a0: 317c 23bd 3ba5 953c cbbf 8fbd dbbc b5bb
000002b0: 8a01 fdbc 7b90 c8bc a7ea 11bd 8017 d3bc
000002c0: 83b7 29bd 20b0 6abd 9054 79bd bd9c 99bd
000002d0: 61f6 b03c df4a 2cbd 1128 cfbc 46cb 783d
000002e0: 14d6 48bc 78f2 6abd d6bf 82bd 7d73 3f3d
000002f0: 7d06 603d 967e 87bd bb08 3bbd f913 13bc
00000300: 2799 7b3d bae1 a03c 48dc 933d aee4 a53d
00000310: a596 7abd fb08 f63d 531b 58bc 0e07 07bd
00000320: d0c9 093d d0dd 243d 7780 9fbd f467 68bd
00000330: 2c83 a53d e1d1 e73c 54c0 b1bd 6229 8dbc
00000340: 7154 ad3c 9a29 27bd 7da3 2fbd 985d d63c
00000350: 0938 253d 19b5 99bd ed55 d1bc 08c5 46bd
00000360: c18b f5bc 226a a8bc 0fca 8a3d d72d a33b
00000370: 58da a8bb 0ed4 78bd 0cff 5d3d 5c98 3dbd
00000380: 7652 f33c abd8 4cbd 2aa1 73bd a2a6 6d3d
00000390: f12d 0c3c 44ff 4cbd d231 56bd bc10 34bc
000003a0: 8767 a53c a46e 73bd 95ae 50bc 90de 14bd
000003b0: 3483 06bd d4a3 133d c1c3 e1bc a790 9ebc
000003c0: 7f4a f1bc 7b17 093d ada2 68bd 40df bcbb
000003d0: 643c 8b3d 33ee 9e3c e192 ee3c e530 d23b
000003e0: aaf0 b13d 4db3 413d 4286 2c3d 7208 303d
000003f0: 7a91 3a3d d1d3 833d 3e0a 28bc 4237 03bd

bias f4 [20]
0.038948134 -0.0109737525 -0.017172154 -0.037401866 0.006779584 -0.026903374 -0.0028223242 -0.014571945
-0.042044565 -0.0024292956 -0.068911 0.04847698 -0.058159582 0.0094959885 -0.00020475186 -0.0044760657
-0.012907758 0.0019196526 -0.047761135 -0.04332787
00000000: 1488 1f3d 41cb 33bc 9eac 8cbc b332 19bd
00000010: 4627 de3b 7764 dcbc bef6 38bb 2bbf 6ebc
00000020: ec36 2cbd d134 1fbb 3621 8dbd cc8f 463d
00000030: be38 6ebd 1095 1b3c a9b2 56b9 f6ab 92bb
00000040: 107b 53bc da9c fb3a 2ea1 43bd 9178 31bd
