abalone/abalone_explainer_fastSHAP_C.pt (torch, 85759 bytes, 6 tensors)

weight f4 [128, 10]
0	0xbe67697c	-0.22598833
1	0x3e800ac5	0.25008217
2	0xbd9bde17	-0.0761072
3	0xbea4d4a0	-0.3219347
4	0x3c4e57bc	0.01259416
5	0x3e42dc63	0.19029383
6	0xbe8730ce	-0.26404423
7	0x3e88ba6d	0.26704732
8	0x3e465b75	0.19370826
9	0x3e3d85fb	0.1850814
10	0x3d210d70	0.039319456
11	0xbcbf3692	-0.02334145
12	0xbe8acf0e	-0.27111095
13	0x3dbecc50	0.09316313
14	0x3e1c6101	0.15271379
15	0x3e0975ef	0.13423894
16	0xbec472fa	-0.3836897
17	0x3d2a7e3e	0.0416243
18	0x3d86276e	0.06550489
19	0x3da5f252	0.081028596
20	0x3e2d96cb	0.16952054
21	0xbbcde2af	-0.0062831263
22	0xbd42c12e	-0.04754751
23	0xbe1581f6	-0.14600357
24	0x3e355fef	0.17712377
25	0x3d817603	0.06321337
26	0xbe338a75	-0.17533286
27	0xbd9097e2	-0.07060219
28	0xbd674fbd	-0.05647253
29	0x3e84e45f	0.25955483
30	0xbe027377	-0.12739359
31	0x3e8a6e91	0.2703748
32	0x3e3573d8	0.17719972
33	0xbe87711a	-0.26453477
34	0x3e6a7945	0.22897823
35	0xbdacb01c	-0.08432028
36	0xbe791138	-0.24322975
37	0xbe096911	-0.13418986
38	0xbd8122b3	-0.063054465
39	0x3e47460c	0.19460315
40	0x3e6fa364	0.23402172
41	0x3c68dbd5	0.014212568
42	0x3de131ae	0.10995804
43	0xbd4eeb26	-0.050517224
44	0x3d1e7c87	0.038692977
45	0xbe451976	-0.19247994
46	0xbe3fdfdb	-0.18737738
47	0x3e588fd6	0.21148619
48	0xbe5b0b9d	-0.21391149
49	0x3e2157bd	0.15756126
50	0x3d9a7630	0.07542074
51	0x3d9680d5	0.073487915
52	0x3e03488c	0.12820643
53	0x3e858719	0.26079634
54	0xbe107c79	-0.14109983
55	0xbe99fadd	-0.30074206
56	0xbd8fd00f	-0.07022106
57	0x3e9a6d76	0.30161637
58	0x3e833708	0.25627923
59	0xbe2508c8	-0.16116631
60	0xbd9b680a	-0.07588203
61	0xbc8bddf2	-0.017073605
62	0xbe06968e	-0.1314337
63	0xbd491db7	-0.049100604
64	0x3cc71973	0.024304127
65	0x3ddfe131	0.10931624
66	0x3e8dc9ff	0.27693173
67	0xbdec8a6b	-0.11549839
68	0xbe050ef6	-0.12993988
69	0x3d39bb51	0.045344654
70	0x3defb959	0.11705274
71	0xbda39d09	-0.079889365
72	0x3e86d0d4	0.26331198
73	0x3e53330e	0.20624945
74	0xbdefcee0	-0.1170938
75	0xbe97437c	-0.29543674
76	0x3e9e15c8	0.30875993
77	0x3dbf93c5	0.09354357
78	0xbe801db4	-0.25022662
79	0x3e8c3cff	0.27390286
80	0xbe026bfd	-0.12736507
81	0x3dfbaa2b	0.12288316
82	0xbdd5677d	-0.104201294
83	0xbcfa6411	-0.030565294
84	0x3e6ce5f5	0.23134597
85	0xbe83aebc	-0.2571925
86	0xbe52bb30	-0.20579219
87	0xbdcbc7ef	-0.09950244
88	0xbe7671da	-0.24066868
89	0xbe82e476	-0.25564927
90	0xbe5504b9	-0.20802583
91	0xbe4a808a	-0.19775596
92	0x3e507f1f	0.20360993
93	0x3d8d8e84	0.06911948
94	0xbe287c60	-0.16453695
95	0x3e98b035	0.29821935
96	0x3c2f4b88	0.01069916
97	0xbdb0d17f	-0.08633708
98	0x3e97768f	0.2958264
99	0xbd46be5a	-0.048521377
100	0x3e91978c	0.28435934
101	0x3e73a5fe	0.2379379
102	0xbba1c30f	-0.004936583
103	0xbe6dd5b3	-0.23226051
104	0x3e90308d	0.2816204
105	0xbe262378	-0.16224468
106	0xbdfc144e	-0.1230856
107	0xbe6f0227	-0.23340665
108	0x3e7949f8	0.24344623
109	0x3e7614b8	0.24031341
110	0x3e1792c2	0.14802077
111	0x3d642d63	0.055707347
112	0x3c775473	0.015095818
113	0x3dece101	0.115663536
114	0xbe63f7cd	-0.22262497
115	0x3e52bb88	0.2057935
116	0xbe35dfe2	-0.17761186
117	0xbe837fc9	-0.2568343
118	0x3e7365a8	0.23769248
119	0xbc91292f	-0.017719833
120	0x3e653c8b	0.22386377
121	0xbd94f967	-0.07274132
122	0xbbbeda29	-0.0058243466
123	0xbe943df9	-0.2895353
124	0xbe86b799	-0.2631195
125	0xbe11f841	-0.14254858
126	0xbde6d4c8	-0.112710536
127	0x3e18a59f	0.1490693
128	0x3db8cef6	0.0902385
129	0x3e36b75f	0.17843388
130	0xbe9c6851	-0.30548337
131	0x3dcfaffe	0.1014099
132	0xbe645b54	-0.22300464
133	0xbe9181d3	-0.2841936
134	0x3e724ee9	0.23662914
135	0x3d4835a9	0.0488793
136	0x3d1a2bb3	0.03763933
137	0x3e730772	0.23733309
138	0xbceb4c5f	-0.02872294
139	0xbe9f38f5	-0.31098142
140	0xbe3a5cb2	-0.18199423
141	0x3e0c49ef	0.13700078
142	0xbdce3063	-0.10067823
143	0x3bd381ca	0.006454681
144	0xbe7449c2	-0.23856261
145	0xbe1d2723	-0.1534696
146	0xbd8bc926	-0.068254754
147	0xbd3d0f55	-0.0461572
148	0xbbabef3d	-0.0052470253
149	0x3baaa268	0.0052073486
150	0x3dd1f0b9	0.10250992
151	0xbd5511e6	-0.052019022
152	0x3e92932b	0.28627905
153	0xbe3e0281	-0.18555643
154	0xbda62c55	-0.081139244
155	0x3e4773dd	0.19477792
156	0x3e9c27a9	0.30499008
157	0xbdb972af	-0.09055077
158	0xbe416cf9	-0.18889226
159	0x3e7f5b57	0.24937187
160	0x3e3a0621	0.181664
161	0x3dfbb675	0.1229066
162	0x3e2e422d	0.17017432
163	0xbde5b0d9	-0.11215372
164	0xbd4a7382	-0.049426563
165	0xbd846a15	-0.06465546
166	0x3e277620	0.16353655
167	0x3d206cc8	0.039166242
168	0xbe074e9f	-0.13213585
169	0x39212781	0.00015368873
170	0x3e90b3b4	0.28262103
171	0x3e0e84fe	0.1391792
172	0xb8a8c785	-8.048028e-05
173	0x3e70133f	0.23444842
174	0x3d902507	0.070383124
175	0x3e04fb16	0.12986407
176	0xbe9ecef8	-0.3101728
177	0x3e6df200	0.23236847
178	0x3da18fe6	0.078887746
179	0xbe926a82	-0.28596884
180	0x3e798890	0.243685
181	0xbe4c1732	-0.19930723
182	0x3e7e51cf	0.24835895
183	0x3d530039	0.051513884
184	0x3c59752e	0.013272567
185	0x3c8d45da	0.017245222
186	0x3e21a2fb	0.15784828
187	0xbe785809	-0.24252333
188	0x3e84d294	0.25941908
189	0x3d08bd9c	0.03338395
190	0xbe6da516	-0.23207507
191	0xbcaa3358	-0.020776436
192	0x3c07b05e	0.008281795
193	0xbe553d35	-0.2082413
194	0x3e2c2fe7	0.16815148
195	0x3e99ff31	0.30077508
196	0x3d8b748c	0.06809339
197	0xbe1f0fc2	-0.15533355
198	0x3e80e401	0.25173953
199	0x3d99c0c3	0.075074695
200	0x3e1cafc2	0.15301421
201	0xbcdc350c	-0.026880763
202	0x3e122a0c	0.14273852
203	0xbe995965	-0.29951015
204	0x3dfa5511	0.122232564
205	0xbc1b218a	-0.009468446
206	0x3e1aa0e7	0.15100442
207	0xbe63370b	-0.22188966
208	0x3e578e10	0.21050286
209	0xbdfe45e8	-0.12415677
210	0xbe92f8ad	-0.2870535
211	0xbe41bb4d	-0.18919106
212	0xbe55ade0	-0.2086711
213	0x3e886a3c	0.2664355
214	0xbe24d7fb	-0.16098015
215	0x3e9df0a5	0.3084766
216	0x3d1f31ac	0.03886573
217	0xbe8bf4c0	-0.27335167
218	0xbd91ff1a	-0.07128735
219	0xbe3ab290	-0.18232179
220	0xbe876a4f	-0.26448295
221	0xbe370c71	-0.1787584
222	0xbe296f2c	-0.16546315
223	0xbe69fc9b	-0.22850268
224	0x3e0a39c5	0.134986
225	0xbc98a55b	-0.018633535
226	0xbea5c76d	-0.32378712
227	0x3e0d9bcd	0.13828965
228	0xbda0a819	-0.07844562
229	0xbe9ac4b1	-0.3022819
230	0x3e2002b4	0.15626031
231	0xbe891b91	-0.26778844
232	0x3d86b10e	0.06576739
233	0x3e9998d3	0.29999408
234	0x3ea7966b	0.32731947
235	0x3e5bd26f	0.21466993
236	0x3e9d9ed6	0.30785245
237	0xbd828777	-0.06373494
238	0xbd4acc45	-0.049511213
239	0xbe4de0b1	-0.20105244
240	0x3d4cd652	0.05000908
241	0xbd54cfc5	-0.051955957
242	0xbe949f2f	-0.29027697
243	0x3c780b9d	0.015139488
244	0xbe134e0f	-0.14385246
245	0xbdf0850f	-0.11744129
246	0x3dcc3181	0.099703796
247	0xbe3a1d6c	-0.18175286
248	0x3e338eff	0.17535017
249	0x3e33c92a	0.17557207
250	0xbd87ebb5	-0.066367544
251	0x3da5107a	0.08059783
252	0xbbb70938	-0.0055858158
253	0xbd287f47	-0.041137006
254	0x3d5aad8a	0.053388156
255	0x3d5fb482	0.054615505

bias f4 [128]
0	0xbe88da96	-0.26729268
1	0x3e091d8d	0.13390179
2	0x3e72f0d8	0.23724687
3	0xbe6fedec	-0.23430604
4	0x3e5ce807	0.21572886
5	0x3e921290	0.28529787
6	0xbd4a816b	-0.04943983
7	0x3e8f97d5	0.28045526
8	0x3d862a9c	0.06551096
9	0x3e8e4816	0.27789372
10	0xbe57140a	-0.21003738
11	0xbd49baaf	-0.0492503
12	0x3e7644bd	0.24049659
13	0x3e9b6895	0.30353227
14	0x3e92d81b	0.286805
15	0xbe01ffdd	-0.1269526
16	0xbe555710	-0.20833993
17	0x3e61b0f9	0.22040166
18	0x3ea0c642	0.3140126
19	0x3bbbea68	0.0057347305
20	0xbe69692d	-0.22794028
21	0xbcba5713	-0.022746598
22	0xbe53262c	-0.2062003
23	0x3e93221e	0.28736967
24	0xbe71b511	-0.23604228
25	0x3e501226	0.20319423
26	0xbe863af5	-0.26216856
27	0x3e5a2a72	0.21305254
28	0xbe5ca809	-0.21548475
29	0xbd4e9b69	-0.05044118
30	0x3e094192	0.1340392
31	0x3e730b50	0.23734784
32	0xbe2d96b8	-0.16952026
33	0x3dc238fe	0.09483527
34	0xbe5f64a8	-0.21815741
35	0xbe5e3f76	-0.21703896
36	0xbc4417a1	-0.011968524
37	0xbe04024f	-0.12891506
38	0xbe868fe4	-0.26281655
39	0xbe9aecbe	-0.30258745
40	0x3e7db168	0.24774706
41	0xbe13a820	-0.14419603
42	0xbd831a29	-0.06401474
43	0xbe667649	-0.2250606
44	0x3e59d405	0.21272285
45	0xbd861ba3	-0.0654824
46	0xbe7ab678	-0.24483669
47	0x3d1c9917	0.038231935
48	0x3dc8f9d1	0.09813274
49	0x3dc07c83	0.09398749
50	0x3e07913b	0.13238995
51	0xbe81952b	-0.2530912
52	0x3ea2286b	0.3167146
53	0xbe2af635	-0.16695483
54	0x3e8ef50a	0.27921325
55	0x3ccaffd7	0.024780197
56	0xbe7c9e0f	-0.2466967
57	0xbdd649cd	-0.10463295
58	0x3e34c131	0.17651822
59	0x3e041238	0.12897575
60	0x3dd04550	0.1016947
61	0x3e0c9fa4	0.13732773
62	0xbe823248	-0.25428987
63	0x3ea4a3e2	0.32156283
64	0x3d8ace14	0.067775875
65	0xbdbc025d	-0.09180138
66	0xbc87bec5	-0.016570458
67	0xbd798ade	-0.06092345
68	0x3e839181	0.25696948
69	0x3e672215	0.22571595
70	0x3d804d2d	0.0626472
71	0x3e5f445e	0.21803424
72	0xbe3b4940	-0.18289661
73	0x3d6e4c70	0.058178365
74	0x3ec451fe	0.38343805
75	0x3d27bb8d	0.040950347
76	0xbe5dcee8	-0.2166096
77	0x3e960fe3	0.29308996
78	0x3df6da96	0.12053411
79	0x3e8b75c6	0.27238292
80	0x3e4af3b9	0.19819535
81	0xbe2af498	-0.16694868
82	0xbe6067d7	-0.21914612
83	0x3da88441	0.082283504
84	0x3d7c34dc	0.061573848
85	0xbd6863cc	-0.0567358
86	0x3e28bc8e	0.16478178
87	0xbe3be4e7	-0.18349038
88	0xbdd9b886	-0.10630898
89	0x3e9bb60a	0.30412322
90	0x3e89ad41	0.26889995
91	0xbe8e1e8e	-0.27757686
92	0x3e83b6f8	0.25725532
93	0xbe56fd03	-0.20994954
94	0x3e7ba7c4	0.24575716
95	0x3e1ea22d	0.15491553
96	0xbdf4058d	-0.11915121
97	0xbe92d2a0	-0.2867632
98	0xbdaa3f70	-0.08312881
99	0xbe439b2f	-0.19102167
100	0x3e3173ec	0.17329377
101	0xbd509b48	-0.050929338
102	0x3e66a746	0.22524747
103	0xbd5646e5	-0.052313704
104	0xbe3d101c	-0.18463176
105	0xbe38546a	-0.18000951
106	0xbe962075	-0.29321638
107	0xbe5e0ca7	-0.21684514
108	0x3e21824f	0.15772365
109	0x3d7b8db2	0.061414428
110	0xbe0887a4	-0.13332993
111	0x3e689e45	0.22716625
112	0xbe9654a5	-0.29361454
113	0x3e422e48	0.18962967
114	0x3e34fea1	0.17675258
115	0x3e987a5d	0.29780856
116	0xbea133de	-0.31484884
117	0xbd604268	-0.05475083
118	0x3e979019	0.29602125
119	0xbdea7182	-0.11447431
120	0x3af18e31	0.0018429217
121	0x3e98ee8c	0.29869497
122	0x3cad9b64	0.02119226
123	0xbdbc3eaf	-0.091916434
124	0xbe97e909	-0.2966998
125	0x3e95d8c4	0.29266942
126	0x3da583d3	0.08081784
127	0xbe1ebb87	-0.15501224

weight f4 [128, 128]
0	0xbd5e4ea1	-0.054274205
1	0xbcd0cf89	-0.025489585
2	0x3c6a9f88	0.014320262
3	0xbd288404	-0.041141525
4	0xbc3401ae	-0.010986729
5	0x3b1fa05b	0.0024357054
6	0x3da449d1	0.08021892
7	0x3d95cc5d	0.0731437
8	0x3cb18b95	0.021673003
9	0x3d4a74d9	0.04942784
10	0xbd17fabb	-0.03710435
11	0xbc69527b	-0.014240856
12	0x3d22d9a1	0.03975833
13	0x3d89d665	0.06730346
14	0xbd8aba07	-0.06773763
15	0x3cb353db	0.021890571
16	0xbd990945	-0.07472471
17	0x3d535741	0.051596884
18	0x3cd0f310	0.025506526
19	0x3c8ccedc	0.017188482
20	0xbcc64e12	-0.024207149
21	0xbddb916a	-0.10721095
22	0x3d6a58e7	0.05721369
23	0xbbbc74db	-0.005751235
24	0x3d8481a5	0.0647004
25	0x3d261525	0.04054751
26	0xbc22b45e	-0.009930698
27	0x3b2b266a	0.0026115426
28	0xbc0fe3ea	-0.008782366
29	0xbd954ff7	-0.07290643
30	0xbd3cb980	-0.046075344
31	0xbc2c640c	-0.0105219
32	0x3d72b0a6	0.059250496
33	0x3b868398	0.0041050427
34	0x3d86b0c1	0.06576682
35	0xbd439953	-0.047753643
36	0xbce58af9	-0.028020369
37	0xbd85393e	-0.06505059
38	0x3d88b0d8	0.06674355
39	0x3cddf0ec	0.02709242
40	0x3d9278cf	0.07151949
41	0xbd5fce64	-0.05464019
42	0xbd12b639	-0.035818312
43	0x3ca210ca	0.019783396
44	0x3d30e9c8	0.0431917
45	0x3cd5dedb	0.026107242
46	0x3d8d3580	0.0689497
47	0x3c568501	0.013093234
48	0x3d2469d3	0.040139984
49	0xbc9a817e	-0.018860575
50	0x3da0682c	0.07832369
51	0xbd931e80	-0.07183552
52	0x3d51942f	0.05116671
53	0x3ce5e73e	0.028064366
54	0xbce68bcf	-0.028142838
55	0xbd8dc3ec	-0.06922135
56	0xbc444d51	-0.011981324
57	0x3cf3b455	0.029749075
58	0xbd898fa0	-0.067168474
59	0xbd68cda7	-0.05683675
60	0x3db00b68	0.085959256
61	0xbc9d7d83	-0.019224888
62	0x3dc644d3	0.09681096
63	0x3da6a39c	0.08136675
64	0x3cb0ba45	0.021573195
65	0x3d027800	0.031852722
66	0xbd4f34ea	-0.050587572
67	0x3c7cb8d1	0.015424923
68	0x3d94b6e5	0.07261447
69	0x3db69375	0.08914844
70	0x3dd712cc	0.10501632
71	0xbcccc1ab	-0.024994692
72	0x3ca8026f	0.020508973
73	0x3d022324	0.031771794
74	0x3d1508a0	0.03638518
75	0xbd357327	-0.04429927
76	0x3d08ee53	0.03343041
77	0x3d6c35e3	0.057668578
78	0xbc845bf3	-0.016157126
79	0xbc1added	-0.009452325
80	0xbd0cfe3b	-0.03442214
81	0x3ddc33a1	0.10752035
82	0xbdacdfd1	-0.08441127
83	0x3d25231d	0.04031669
84	0xbd963975	-0.07335178
85	0xbd19e916	-0.037575804
86	0xbd1192d5	-0.03554042
87	0xbcd96cad	-0.026541078
88	0x3cbc0352	0.022950802
89	0xbd6d87c3	-0.0579908
90	0x39966710	0.00028687017
91	0x3d7697ae	0.060203247
92	0xbbab2341	-0.0052227085
93	0x3cf05272	0.029336188
94	0xbda0937b	-0.0784063
95	0xbcbe5dfa	-0.02323817
96	0x3c39b3e8	0.011334397
97	0xbc7c8419	-0.015412354
98	0xbc7cf82b	-0.015440027
99	0xbc718e1c	-0.014743354
100	0x3c9a1725	0.018809864
101	0x3b7de169	0.0038739091
102	0x3c5f661e	0.0136351865
103	0x3cfecfd3	0.031104958
104	0xbca675cf	-0.020319847
105	0x3c803b1f	0.015653191
106	0xbdcb4fab	-0.09927305
107	0xbd131095	-0.035904486
108	0x3d0becd7	0.034161415
109	0xbd25c665	-0.040472407
110	0xbd688572	-0.05676789
111	0x3dc9f94a	0.09862001
112	0x3d8df6f3	0.069318675
113	0x3d2683be	0.040652983
114	0xbc9ac37d	-0.018892044
115	0x3c8f00ac	0.017456375
116	0x3cf9a588	0.03047444
117	0x3c389459	0.011265838
118	0xbd232f07	-0.03983977
119	0xbd5d249a	-0.053989984
120	0xbd8baec2	-0.06820442
121	0xbd2ca040	-0.042145014
122	0xbc80dcd8	-0.015730307
123	0x3cea8326	0.02862699
124	0xbdbbf098	-0.09176749
125	0x3cf7db1c	0.030255847
126	0xbd768118	-0.060181707
127	0xbd1d5619	-0.038412187
128	0xbc731880	-0.014837384
129	0xbd16bf45	-0.036803503
130	0x3cb1fbb9	0.021726476
131	0xbda8b401	-0.08237458
132	0x3d5d6344	0.054049745
133	0xbbfad307	-0.007654551
134	0xbdc39f04	-0.09551814
135	0xbae3829e	-0.0017357653
136	0xbda484ab	-0.08033117
137	0xbcc01b7c	-0.023450606
138	0x3d8e7a8c	0.06956968
139	0xbd897335	-0.06711427
140	0xb874d2b3	-5.8370362e-05
141	0xbdaa7fb8	-0.08325142
142	0xbd8316e4	-0.064008504
143	0x3d6112e2	0.05494965
144	0xbca76849	-0.02043547
145	0xbd90b283	-0.070652984
146	0xbc845224	-0.016152449
147	0x3ca4a8f8	0.020100102
148	0x3d6f66f2	0.058447786
149	0xbd330683	-0.043707382
150	0x3d2d6765	0.042334933
151	0xbdca9f37	-0.09893649
152	0x3bdbd883	0.00670916
153	0xbd081b11	-0.033228938
154	0x3cfb3d85	0.030668983
155	0xbd04711d	-0.032334436
156	0x3d2b467f	0.041815277
157	0x3ca24ffc	0.01981353
158	0xbd2eb147	-0.042649534
159	0x3b88f012	0.0041790092
160	0x3d352bf4	0.04423137
161	0x3cd3e0c3	0.02586401
162	0xbd8eb1a2	-0.069674745
163	0x3d110198	0.03540191
164	0x3ce73269	0.02822228
165	0xbdb244ab	-0.087045036
166	0x3d1e46fe	0.038641922
167	0xbd97021f	-0.073734514
168	0x3d62a470	0.0553326
169	0xbbd538c4	-0.006507011
170	0xbd586a56	-0.052835785
171	0xbc3dbe08	-0.0115809515
172	0xbd1d0dfa	-0.038343407
173	0xbd95c600	-0.07313156
174	0x3cf68037	0.030090434
175	0xbc8fa07a	-0.017532576
176	0x3d6a0ac5	0.057139177
177	0xbdba0e23	-0.090847276
178	0xbd4bde25	-0.0497724
179	0x3c194590	0.009354964
180	0xbdb6377a	-0.088973
181	0x3d8a59cc	0.06755409
182	0xbd0b71b9	-0.034044
183	0xbc037738	-0.008024029
184	0x3d3b2102	0.045685776
185	0x3bd9d54f	0.006647743
186	0xbd25a61e	-0.040441625
187	0x3da2588e	0.07927047
188	0xbdd909b3	-0.10597553
189	0x3d964604	0.07337573
190	0x3c7f8941	0.015596689
191	0x3cca15ce	0.0246686
192	0x3d4be3f8	0.049777955
193	0x3d84e92b	0.06489786
194	0x3b6b7b7d	0.003593176
195	0xbdba2e18	-0.09090823
196	0xbd9856b5	-0.07438413
197	0x3c019dd2	0.007911162
198	0x3bc63594	0.0060488675
199	0x3d49d36a	0.049273886
200	0xbafa9ce7	-0.0019120247
201	0x3c9f4b46	0.019445073
202	0xbc2bdd2a	-0.010489741
203	0x3cadf0e1	0.021233024
204	0xbd1b20c3	-0.03787304
205	0x3c283ce3	0.010268423
206	0xbcba8bd0	-0.022771746
207	0xbc7373d1	-0.014859156
208	0x390da7c1	0.00013509301
209	0x3cf8bdc9	0.030363934
210	0x3dac62f4	0.08417311
211	0x3d0e27f0	0.034706056
212	0xbd63d450	-0.0556224
213	0x3c9f64c9	0.019457238
214	0xbdb3ef01	-0.08785821
215	0x3d4290c3	0.047501337
216	0x3c39e203	0.011345389
217	0x3d1defb3	0.038558673
218	0x3b99f37f	0.0046982164
219	0xbd48b0d8	-0.048996776
220	0xbd527366	-0.051379584
221	0xbddbd8f7	-0.10734742
222	0x3d94b764	0.072615415
223	0x3b98c5f6	0.0046622707
224	0xbba647c7	-0.0050744745
225	0xbd8d8768	-0.06910592
226	0xbd610788	-0.054938823
227	0x3b3bf898	0.002868211
228	0x3d251da0	0.040311456
229	0xbd95bddd	-0.07311604
230	0x3ce05ba9	0.027387457
231	0xbc546f96	-0.012966057
232	0xbc0d019c	-0.008606341
233	0xbd4622d8	-0.048373073
234	0x3d97117e	0.07376383
235	0x3db5dba7	0.08879786
236	0xbd41ded8	-0.04733166
237	0xbbbc1afd	-0.005740522
238	0x3d308d04	0.043103233
239	0x3d4f36ce	0.050589375
240	0xbdb524bb	-0.088448964
241	0x3d844fae	0.0646051
242	0xbdad0a64	-0.084492475
243	0xbd485f58	-0.048919052
244	0x3db7cb9f	0.089743845
245	0x3d74b32d	0.059741188
246	0x3da077f3	0.078353785
247	0xbd993578	-0.074809015
248	0xbcbe4ef9	-0.023231016
249	0x3d7aa32e	0.061190777
250	0xbd1208a3	-0.035652768
251	0xbd001318	-0.03126821
252	0xbccc7adc	-0.024960928
253	0x3d6562eb	0.05600254
254	0xbd37ac19	-0.04484186
255	0xbd81b728	-0.063337624

bias f4 [128]
0	0x3cd54bef	0.026037185
1	0xbd9dd82f	-0.077072494
2	0x3d708a8c	0.05872588
3	0x3d9055ac	0.070475906
4	0xbd87ebb5	-0.066367544
5	0x3d6e52b8	0.058184355
6	0xbd9a7889	-0.075425215
7	0x3ca43317	0.020043893
8	0xbba43512	-0.0050112093
9	0x3d8c2795	0.06843487
10	0xbc675470	-0.014119253
11	0x3da8a703	0.0823498
12	0xbdc2c1d6	-0.095096275
13	0x3d970c82	0.073754326
14	0x3d6048f9	0.054757092
15	0x3bc9b592	0.006155678
16	0x3d3590ab	0.04432742
17	0x3c2db9e0	0.010603398
18	0xbbefa248	-0.0073130466
19	0x3d4c10e2	0.04982079
20	0xbd1632ea	-0.03666965
21	0x3da8e916	0.082475826
22	0x3cc531b5	0.024071554
23	0x3d41c475	0.047306497
24	0x3d4ab437	0.049488273
25	0xbce0b5be	-0.027430411
26	0xbdc12c9c	-0.09432337
27	0x3d45ed90	0.04832226
28	0xbd7adca8	-0.06124559
29	0xbc96d35a	-0.018411327
30	0xbd8dc9c4	-0.06923249
31	0x3d76fe31	0.06030101
32	0xbdb4a5a6	-0.088206574
33	0xbdc93400	-0.09824371
34	0x3c38ee31	0.011287258
35	0x3cbdfbb1	0.023191305
36	0xbd96476d	-0.07337842
37	0x3d56f9a9	0.05248419
38	0x3daee364	0.08539465
39	0x3c71550f	0.014729752
40	0x3d89fc56	0.067375824
41	0xbd348801	-0.044075016
42	0x3d795c9b	0.06087933
43	0x3d257989	0.040399108
44	0x3b07a896	0.002069985
45	0xbcb9e599	-0.022692489
46	0xbcd90bfb	-0.02649497
47	0x3d449a6a	0.047998823
48	0xbcc8ae0f	-0.02449706
49	0x3ceb5432	0.02872667
50	0x3c54ef17	0.012996457
51	0xbd79b069	-0.060959253
52	0xbd1113c4	-0.03541924
53	0xbcff7321	-0.031182827
54	0x3d343122	0.04399217
55	0x3d885282	0.06656362
56	0xbda3e925	-0.08003453
57	0x3da66062	0.08123852
58	0x3d6cc471	0.05780453
59	0x3d86c831	0.06581152
60	0xbd8263ae	-0.06366669
61	0x3c0663d4	0.008202512
62	0xbdaaf4dd	-0.08347485
63	0x3d9ccea5	0.07656602
64	0x3d9d3902	0.07676889
65	0x3d4635c4	0.04839112
66	0x3d8dd0b9	0.06924576
67	0xbc902aba	-0.017598499
68	0x3d5ff335	0.0546753
69	0xbcd57013	-0.026054418
70	0xbd41b5b8	-0.04729244
71	0xbbde346a	-0.0067811506
72	0x3bff4d17	0.0077911722
73	0x3d3c3fb2	0.045959182
74	0xbd3cf54c	-0.04613237
75	0xbc93eea1	-0.018058123
76	0xbcabcec8	-0.020972624
77	0xbd248e7b	-0.040174942
78	0xbd774b74	-0.060374692
79	0x3c077ee3	0.008269998
80	0x3cc34bab	0.023839792
81	0x3d80ace0	0.06282973
82	0x3d472b72	0.048625417
83	0xbd72ffda	-0.05932603
84	0x3d9636a5	0.07334641
85	0xbda3346b	-0.07968982
86	0x3d1c248c	0.03812079
87	0x3d20e545	0.03928115
88	0x3c5103dc	0.012757268
89	0x3d7f8a05	0.062387485
90	0xbd0bbea3	-0.034117352
91	0x3d44fb38	0.048091143
92	0xbd0114de	-0.03151404
93	0xbdb2997f	-0.08720683
94	0x3d3c0ec4	0.04591252
95	0x3cc350d7	0.023842258
96	0xbdaf6c3d	-0.08565567
97	0xbd1feb73	-0.0390429
98	0x3d1f1319	0.038836572
99	0xbd4d1908	-0.0500727
100	0xbc1ce64d	-0.009576392
101	0xbc06acb3	-0.008219886
102	0x3d8a875d	0.067641
103	0x3dda0942	0.10646297
104	0x3d8bce90	0.06826508
105	0xbcc5719a	-0.024102021
106	0xbdb19446	-0.08670859
107	0xbc4d59e5	-0.01253364
108	0x3d9a08cd	0.0752121
109	0xbb8df835	-0.004332567
110	0xbc845db1	-0.016157957
111	0xbd90b7e7	-0.070663266
112	0xbd9ffa87	-0.07811456
113	0xbd40bb7c	-0.0470538
114	0x3cdf2809	0.02724077
115	0x3dc54cd1	0.09633792
116	0xbd26919b	-0.040666204
117	0xbb933de2	-0.004493461
118	0x3d7180b2	0.058960624
119	0x3d875540	0.06608057
120	0xbcfdb00c	-0.030967735
121	0x3c2838e1	0.010267467
122	0xbc53530f	-0.012898221
123	0x3cb000f4	0.02148483
124	0xbd61ed45	-0.05515792
125	0xbcb21ca0	-0.021742165
126	0xbd182c91	-0.037151877
127	0xbd8b3d6d	-0.067988254

weight f4 [20, 128]
0	0x3d50d8e8	0.050988108
1	0x3c8c1e88	0.017104402
2	0x3d377725	0.04479136
3	0x3b06e424	0.002058276
4	0xbd3b0a3c	-0.045664057
5	0x3d00e8d7	0.031472053
6	0xbd12a242	-0.035799272
7	0x3d2ee83d	0.04270195
8	0x3d665cb8	0.056240767
9	0x3d9af30f	0.07565891
10	0xbd86be16	-0.06579225
11	0x3d5ee46c	0.05441706
12	0xbd2cdc1e	-0.042202108
13	0x3c0dec30	0.0086622685
14	0xbca2e59b	-0.019884875
15	0xbd8987fb	-0.06715389
16	0x3d9e503e	0.07730149
17	0xbd0cc449	-0.03436688
18	0xbd969a12	-0.07353605
19	0x3d928421	0.07154108
20	0xbc61181a	-0.013738656
21	0xbc9f7930	-0.019466966
22	0xbd27b75a	-0.040946342
23	0xbcc272b2	-0.023736332
24	0xbbdbcf30	-0.0067080483
25	0x3d2544a8	0.04034868
26	0xbcae83a9	-0.021303015
27	0x3d7f085a	0.062263824
28	0x3c0afb5d	0.008482781
29	0x3cebecae	0.028799381
30	0xbd3a80f6	-0.045533143
31	0x3d681610	0.056661665
32	0xbd889059	-0.06668157
33	0x3d257aee	0.040400438
34	0xbd80a255	-0.062809624
35	0x3d1602fd	0.036623944
36	0xbdaecde9	-0.08535368
37	0xbc8790ff	-0.016548632
38	0x3cf24ebc	0.02957856
39	0x3c06a8f5	0.008218993
40	0xbd271756	-0.04079374
41	0x3d1d4547	0.038396146
42	0x3d8ee1a6	0.06976633
43	0xbd3363f0	-0.04379648
44	0xbd93be3d	-0.072140194
45	0x3d5f14b8	0.05446312
46	0xbd023b1a	-0.031794645
47	0x3d22c203	0.039735805
48	0x3d0772e5	0.033068556
49	0xbd9002dc	-0.070317954
50	0x3d3d60e4	0.04623498
51	0xbd8fc15b	-0.070193015
52	0xbdb0b55c	-0.086283416
53	0xbd274af1	-0.040842954
54	0xbd989629	-0.07450516
55	0x3cb53a89	0.022122638
56	0x3d942b04	0.07234767
57	0xba8eba08	-0.0010889182
58	0x3d5158ae	0.051109962
59	0xbd6db4b6	-0.058033668
60	0xbcd08bf0	-0.025457352
61	0x3d8ebb56	0.06969325
62	0xb99154fb	-0.0002771987
63	0xbd6cc27f	-0.057802673
64	0x3d0b2428	0.03397003
65	0x3d944fc0	0.072417736
66	0x3b6051fc	0.0034228554
67	0x3ce31313	0.027719056
68	0x3cf435b2	0.02981076
69	0x3cb3ec14	0.021963157
70	0xbd5747b3	-0.052558612
71	0x3da193c9	0.07889516
72	0xbd4a72fa	-0.049426056
73	0x3da3723f	0.07980775
74	0x3d620489	0.055180106
75	0xbcd3767a	-0.02581333
76	0xbb6a626d	-0.0035764233
77	0x3d16902e	0.036758594
78	0x3d4dab9a	0.05021248
79	0xbd9def63	-0.07711675
80	0x3d93ed43	0.072229885
81	0xbd51860f	-0.05115324
82	0x3c8079be	0.015683051
83	0x3bbf6973	0.005841428
84	0xbda54fb5	-0.080718435
85	0xbbcd363b	-0.0062625683
86	0xbcaba64b	-0.020953318
87	0xbd1baee3	-0.03800858
88	0xbd7ece70	-0.062208593
89	0x3d1faca1	0.03898299
90	0xbc70a018	-0.014686607
91	0xbd6ed6fb	-0.05831049
92	0xbd84feed	-0.06493936
93	0xbda1431a	-0.07874127
94	0xbd2ba69d	-0.04190694
95	0xbcc747d8	-0.02432625
96	0xbdb48d15	-0.08815972
97	0xbddf0224	-0.1088908
98	0x3ced55cb	0.028971573
99	0xbcedf44c	-0.029047154
100	0x3bb048d4	0.0053797755
101	0x3d42cda1	0.047559384
102	0x3d79f686	0.06102612
103	0x3d8c8688	0.06861597
104	0x3be095fb	0.0068538166
105	0xbd14c1f7	-0.03631779
106	0x3d390c22	0.045177586
107	0xbd0ee6e0	-0.03488815
108	0xbd43508b	-0.047684234
109	0x3db2cbcc	0.087302774
110	0x3d64404d	0.055725385
111	0xbcff7268	-0.031182483
112	0xbc5f70d2	-0.013637738
113	0x3c41da94	0.011831898
114	0x3d4a3bfd	0.049373616
115	0xbbdc8def	-0.006730787
116	0xbd94399e	-0.07237552
117	0x3d6b3664	0.057424918
118	0x3d3594fb	0.044331532
119	0xbd88b72f	-0.066755645
120	0x3c3bca9a	0.011461878
121	0xbd829fcc	-0.06378135
122	0xbda0b38f	-0.07846748
123	0xbd5b9d8f	-0.053617056
124	0xbd9d847b	-0.07691284
125	0x3d764336	0.06012269
126	0xbd1dc6da	-0.038519718
127	0x3c67bb84	0.014143828
128	0x3d374601	0.044744495
129	0xbd23ed68	-0.04002133
130	0xbc195e0d	-0.009360802
131	0x3d965a57	0.0734145
132	0xbd22ff1f	-0.039794084
133	0x3c1cae2c	0.00956301
134	0xbbe00184	-0.006836118
135	0x3d95beac	0.073117584
136	0xbd964c5e	-0.07338785
137	0x3d5d5414	0.05403526
138	0x3cf3b39b	0.029748728
139	0xbd19d307	-0.037554767
140	0xbdc38861	-0.095474966
141	0xba2f3abe	-0.00066844735
142	0x3d874f57	0.0660693
143	0xbd2b1045	-0.041763563
144	0xbcd32594	-0.025774755
145	0xbca273bb	-0.019830575
146	0x3c8abc96	0.016935628
147	0xbcfd2f5e	-0.030906375
148	0x3d851435	0.06497995
149	0xbb9ba70a	-0.004750137
150	0xbd39431a	-0.04523001
151	0x3d1cf828	0.038322598
152	0x3c2090cc	0.009800147
153	0x3ca12e3d	0.019675368
154	0xbd8ed3cd	-0.069739915
155	0x3d3febb3	0.04685564
156	0xb66239b5	-3.3710214e-06
157	0xbc3803e3	-0.011231395
158	0x3d849cb2	0.064752
159	0xbd211dea	-0.03933517
160	0xbd9399da	-0.07207079
161	0xbd193d1b	-0.03741179
162	0x3c1a2ede	0.009410588
163	0x3c80a1cd	0.015702153
164	0x3d6300ea	0.055420794
165	0x3d21d6b5	0.0395114
166	0x3d98f3fa	0.0746841
167	0xbd68b4f6	-0.056813203
168	0xbd8ba75f	-0.06819033
169	0x3db8864b	0.09009989
170	0x3cdffc21	0.027341904
171	0x3d892c33	0.066978835
172	0xbc3b8d20	-0.011447221
173	0xbc330c84	-0.010928277
174	0x3d87b614	0.066265255
175	0x3b33821c	0.0027390784
176	0x3d89c86e	0.06727682
177	0x3d825791	0.06364358
178	0x3d20c584	0.039250866
179	0x3da0a444	0.07843831
180	0x3a630e83	0.0008661525
181	0xbd54ebda	-0.051982738
182	0x3db015d7	0.085979156
183	0xbd12e6b8	-0.03586456
184	0x3d7cce39	0.061720107
185	0x3c948cc3	0.018133527
186	0x3d871115	0.06595055
187	0xbd801406	-0.06253819
188	0x3d386486	0.04501774
189	0xbd17244c	-0.03689985
190	0x3d137fcc	0.03601055
191	0x3d0a4bd4	0.03376372
192	0x3cdef0b8	0.027214393
193	0x3d47cfea	0.048782267
194	0x3cd06eb8	0.02544342
195	0x3d7329a2	0.059365876
196	0xbd9e0a0b	-0.07716759
197	0xbbc48fa8	-0.0059985705
198	0x3cc1fe46	0.023680817
199	0xbd1b77b8	-0.03795597
200	0xbcb22faf	-0.021751253
201	0x3d851db6	0.064998075
202	0x3d05ab8a	0.032634296
203	0x3d511931	0.051049415
204	0x3c5ec02a	0.01359562
205	0x3d659db6	0.056058608
206	0x3d84ac17	0.06478136
207	0xbd0315bb	-0.032003146
208	0xbd5167aa	-0.051124252
209	0xbd0f9fc5	-0.035064477
210	0x3dcf9517	0.101358585
211	0xbd9a68da	-0.0753953
212	0x3db7acda	0.08968516
213	0xbd5a50c1	-0.05329967
214	0xbd863fc1	-0.06555129
215	0x3b3255ac	0.002721171
216	0x3d78eaa9	0.060770664
217	0x3d04aa1f	0.032388803
218	0xbcabb151	-0.020958574
219	0x3c087014	0.008327503
220	0x3de8852e	0.11353527
221	0xbc70b1af	-0.014690801
222	0xbbb72199	-0.005588722
223	0x3d84ca53	0.06483903
224	0xbd0f52e7	-0.03499117
225	0xbd0a5154	-0.033768967
226	0x3ca54e1f	0.020178853
227	0xbc87b799	-0.016567038
228	0x3d926e50	0.07149947
229	0xbd7466f1	-0.059668485
230	0xbd585dfa	-0.052823998
231	0x3d1aaf0a	0.037764587
232	0x3c875248	0.016518727
233	0x3d14203c	0.036163554
234	0xbd9efd61	-0.07763172
235	0x3d6f8803	0.05847932
236	0xbd898e4e	-0.067165956
237	0xbdebcf58	-0.11514157
238	0x3c79c496	0.015244624
239	0x3d8fa493	0.07013812
240	0x3d53198e	0.051538043
241	0x3db09991	0.086230405
242	0xbd63534c	-0.05549936
243	0xbccaa612	-0.024737392
244	0xbbd81c7e	-0.0065951934
245	0x3d27c5f4	0.040960267
246	0x3d0db549	0.034596715
247	0xbd883a22	-0.06651713
248	0xbd83c3ac	-0.06433806
249	0x3d25edaa	0.040509857
250	0xbd6c28a6	-0.057655953
251	0x3b0e7258	0.0021735635
252	0xbd78652b	-0.060643356
253	0x3db1c639	0.08680386
254	0xbd91d078	-0.071198404
255	0x3d1200ea	0.035645403

bias f4 [20]
0	0xbd417be2	-0.047237284
1	0xbd54dae6	-0.05196657
2	0x3c49c4cf	0.012314989
3	0x3d39fc97	0.045406904
4	0x3cc3ddf0	0.023909539
5	0x3c35233e	0.011055766
6	0x3d5e4081	0.054260734
7	0x3d81044e	0.06299649
8	0xbad3147a	-0.0016104125
9	0xbd7681e1	-0.060182456
10	0xbb0fae16	-0.0021923832
11	0x3c0cbcb2	0.00858991
12	0x3c7f9637	0.015599779
13	0xbcb25d2c	-0.021772943
14	0xbb3a8e91	-0.0028466324
15	0x3b57e184	0.0032940814
16	0x3d8b90f9	0.06814761
17	0xbca06df6	-0.019583683
18	0x3d3719cb	0.044702332
19	0x3d9aaf3f	0.07552957
