abalone/abalone_MSE_fastSHAP.pt (torch, 86655 bytes, 6 tensors)

weight f4 [128, 12]
0	0x3db56267	0.088566594
1	0x3e8a19ae	0.26972717
2	0x3e5f80af	0.21826433
3	0x3dc2ab3e	0.09505318
4	0xbe9f4422	-0.3110667
5	0xbce98dd2	-0.028510008
6	0xbe588ac5	-0.21146686
7	0xbcf7fb52	-0.030271206
8	0xbe0561da	-0.13025609
9	0x3e0f2b46	0.13981351
10	0xbe924f9b	-0.2857636
11	0x3e044340	0.12916279
12	0xbcc51975	-0.02405999
13	0x3e5797bd	0.21053977
14	0x3d12197b	0.03566883
15	0x3e3bd3a4	0.18342453
16	0x3e6f9943	0.23398308
17	0xbcead0d9	-0.02866404
18	0xbd365710	-0.044516623
19	0xbdccc44e	-0.0999838
20	0xbdbd0e87	-0.092312865
21	0xbdb03a03	-0.08604815
22	0x3dd1334d	0.10214863
23	0xbeea120d	-0.45716897
24	0x3e51ccf4	0.2048834
25	0xbe31e197	-0.17371212
26	0x3d98f60e	0.07468806
27	0x3c3a1580	0.011357665
28	0x3e0c1b1d	0.13682218
29	0xbe48bb3d	-0.19602676
30	0xbe4c0129	-0.19922318
31	0x3e8c0181	0.27344897
32	0xbdfed973	-0.12443819
33	0x3d4bbbe9	0.049739752
34	0x3e7d0cff	0.24711989
35	0xbe90dbd0	-0.28292704
36	0x3e839a4b	0.25703654
37	0xbe5d175b	-0.2159094
38	0xbd1ede34	-0.03878613
39	0xbda4a227	-0.080387406
40	0x3c8741e9	0.01651092
41	0x3d44443a	0.04791663
42	0xbe5a8621	-0.21340229
43	0x3d48689f	0.0489279
44	0x3e9a424e	0.3012871
45	0x3d6feef2	0.058577485
46	0x3dd4ff6d	0.10400281
47	0x3d9a3ed6	0.07531516
48	0xbdf46310	-0.11932957
49	0x3dbbf668	0.09177858
50	0x3dc7374a	0.097273424
51	0xbde9fbd2	-0.11424984
52	0x3e27bd56	0.1638082
53	0xbdbc6cb8	-0.09200424
54	0x3e97debe	0.29662126
55	0x3e60ed3a	0.21965495
56	0xbd401489	-0.046894584
57	0xbd985dfa	-0.074397996
58	0xbd3198a3	-0.043358456
59	0xbe09a849	-0.13443102
60	0xbe5dd6eb	-0.21664016
61	0x3b5eaf57	0.0033979022
62	0x3e8deef9	0.27721384
63	0x3e7b97e1	0.24569656
64	0x3e59d670	0.21273208
65	0x3e04ddcb	0.12975232
66	0xbdca16b6	-0.09867613
67	0xbe4e7e0a	-0.20165268
68	0xbe5903c1	-0.21192838
69	0x3e04846d	0.12941141
70	0xbc5338c1	-0.012891949
71	0xbd5a3d59	-0.053281162
72	0x3e0bd43c	0.1365518
73	0xbe0c544c	-0.13704032
74	0xbe05c13d	-0.13061996
75	0xbe655928	-0.22397292
76	0xbe64fcc3	-0.22362046
77	0xbdd942ce	-0.10608445
78	0xbe6e5784	-0.23275572
79	0xbe0e9e6b	-0.13927619
80	0x3c74f9f2	0.01495217
81	0xbd83810e	-0.064210996
82	0xbec5f77a	-0.38665372
83	0x3e8e8a8b	0.27840075
84	0xbe288c89	-0.1645986
85	0xbe8892cd	-0.266745
86	0x3d7a7f7f	0.061156746
87	0x3e19ab1b	0.15006678
88	0xbc7438fb	-0.014906163
89	0x3e6cd1ad	0.2312686
90	0x3db85415	0.090004124
91	0x3c3a049d	0.011353639
92	0xbe7894ed	-0.2427556
93	0x3b775474	0.0037739547
94	0xbdf48259	-0.11938924
95	0xbe1eef71	-0.15521027
96	0xbe34ef3c	-0.17669386
97	0x3e682ea3	0.2267404
98	0x3de01eb5	0.10943357
99	0x3b964a5e	0.004586502
100	0x3de4200b	0.11138924
101	0xbe621abf	-0.22080515
102	0xbe87969e	-0.264821
103	0xbd94e394	-0.072699696
104	0x3e1f49eb	0.15555541
105	0x3d64c177	0.055848565
106	0x3e79e340	0.24403095
107	0xbe903d78	-0.28171897
108	0x3d97f34b	0.07419451
109	0x3dff95a7	0.12479716
110	0xbc84a001	-0.016189577
111	0x3e903622	0.281663
112	0x3e97a250	0.29616022
113	0x3e01ab8c	0.12663096
114	0xbe0f101a	-0.13970986
115	0xbc98a539	-0.018633472
116	0xbe4d1d53	-0.20030718
117	0x3d2424f0	0.04007429
118	0xbde3cc66	-0.1112297
119	0xbda7f8f8	-0.08201784
120	0xbe5489ef	-0.20755742
121	0xbe0ddd2a	-0.13853899
122	0xbdb6b8db	-0.08921977
123	0xbe623648	-0.22091019
124	0x3e8c4c78	0.2740209
125	0x3c90f895	0.017696658
126	0x3e3d7f9c	0.1850571
127	0x3d9bfbe5	0.076164044
128	0x3ce0f2be	0.027459498
129	0x3e465352	0.19367722
130	0xbe2ac5c3	-0.16677003
131	0x3e306456	0.17225775
132	0xbe3b6888	-0.18301594
133	0xbe36470c	-0.1780054
134	0xbe3f225c	-0.18665451
135	0x3e8f9fdc	0.2805165
136	0x3e45014d	0.19238777
137	0xbe573e27	-0.21019803
138	0x3df63b11	0.12022985
139	0xbe9228f5	-0.28546873
140	0x3e44921f	0.19196366
141	0x3e3bda09	0.18344893
142	0x3dfa7230	0.12228811
143	0x3d8f4588	0.06995684
144	0xbe0d766e	-0.13814709
145	0xbdc46c73	-0.095909975
146	0xbd7c233a	-0.061557032
147	0x3e50f5c9	0.2040626
148	0x3eba3f16	0.36376256
149	0x3e4928fe	0.19644544
150	0x3ddf0d60	0.10891223
151	0xbdbffaf9	-0.09374041
152	0xbd989b3a	-0.07451482
153	0xbd0ae19a	-0.033906557
154	0x3d8b7794	0.06809917
155	0xbdf53992	-0.11973871
156	0x3d071e1f	0.03298771
157	0x3e974c67	0.29550478
158	0x3e7d8e91	0.24761416
159	0x3e408e4d	0.18804283
160	0xbcc8ade5	-0.024496982
161	0x3db3176b	0.08744701
162	0xbbbb36f5	-0.0057133385
163	0xbe238aeb	-0.15970962
164	0xbe72dfb9	-0.23718156
165	0x3e87ecf4	0.26547968
166	0xbe5b2385	-0.21400268
167	0xbe4ad538	-0.19807899
168	0x3d95a4a4	0.07306793
169	0xbe509cbb	-0.20372288
170	0x3e1624ce	0.14662477
171	0x3e6a1107	0.22858058
172	0xbe4ca935	-0.19986422
173	0xbd1c1ca9	-0.03811327
174	0x3d5c1c1c	0.053737745
175	0xbe9b6389	-0.30349377
176	0x3db691ca	0.08914526
177	0x3dacd06a	0.08438189
178	0x3e89f118	0.26941752
179	0xbe99f5c2	-0.3007031
180	0xbe811a2e	-0.25215286
181	0x3e01fd75	0.12694342
182	0x3e46cbde	0.19413707
183	0xbd1ee740	-0.038794756
184	0x3e34ba07	0.17649089
185	0xbdad6d29	-0.08468086
186	0x39c46aa9	0.000374635
187	0xbd0da233	-0.034578513
188	0xbd80a29d	-0.06281016
189	0xbdcf58b1	-0.101243384
190	0x3e483e39	0.19554986
191	0x3e881000	0.26574707
192	0xbdaf593f	-0.08561944
193	0xbe6386c1	-0.22219373
194	0x3e72e70c	0.2372095
195	0xbdb4d5e2	-0.088298574
196	0x3e4e6ad0	0.20157933
197	0xbbfbd74b	-0.007685577
198	0xbd858cc6	-0.06520991
199	0xbe82c7df	-0.25543115
200	0x3d4d1826	0.050071858
201	0xbd0b0099	-0.033936117
202	0xbe974fa9	-0.29552963
203	0xbd04aaa7	-0.03238931
204	0xbc40a711	-0.011758582
205	0xbe3371d1	-0.17523886
206	0x3e13aeb8	0.14422119
207	0x3e58bb2e	0.21165153
208	0x3d138231	0.036012832
209	0xbe069936	-0.13144383
210	0xbe8148fa	-0.2525099
211	0x3d36cc83	0.04462863
212	0xbe763c5a	-0.2404646
213	0xbc826570	-0.01591751
214	0xbe235100	-0.15948868
215	0xbe055b84	-0.13023192
216	0x3cee6ba8	0.029104069
217	0x3cbb370a	0.022853393
218	0xbcb9ef53	-0.022697126
219	0x3cd08515	0.025454083
220	0xbe76bc23	-0.24095206
221	0x3e804160	0.25049877
222	0xbde2ca3d	-0.1107373
223	0xbdcf9e9a	-0.10137673
224	0xbe89a83b	-0.26886162
225	0xbe524143	-0.20532708
226	0x3e66b544	0.22530085
227	0x3e7daa71	0.2477205
228	0xbdb80667	-0.08985596
229	0xbe45a5ae	-0.19301483
230	0xbe057fed	-0.13037081
231	0x3e525b9e	0.20542762
232	0xbe813b93	-0.25240764
233	0x3cc227e7	0.023700668
234	0x3e8bcc15	0.2730414
235	0xbe4d5107	-0.2005044
236	0x3cf39385	0.029733429
237	0xbd4667ee	-0.04843896
238	0x3e5da336	0.21644291
239	0xbd8e1cf9	-0.0693912
240	0xbd6be6d2	-0.057593174
241	0xbe20856d	-0.15675898
242	0x3d86125c	0.065464705
243	0xbd934c0c	-0.07192239
244	0xbe4a93a8	-0.19782889
245	0x3e094196	0.13403925
246	0xbe7dbb7e	-0.24778554
247	0x3e1f4933	0.15555267
248	0x3d691661	0.056906108
249	0xbe9fcc31	-0.31210473
250	0xbe570d25	-0.21001108
251	0xbddbaa4d	-0.10725842
252	0xbe347a52	-0.17624786
253	0xbe0c7805	-0.13717659
254	0x3d8aed52	0.067835465
255	0x3dd72114	0.10504356

bias f4 [128]
0	0x3df5c19d	0.119998194
1	0xbe56a914	-0.20962936
2	0xbe62e9f0	-0.22159553
3	0xbe872384	-0.26394284
4	0x3df7a93a	0.12092824
5	0xbe8fd5ec	-0.28092897
6	0x3b3e14dc	0.0029004132
7	0x3a4d288e	0.00078261725
8	0x3d0ed2cf	0.03486901
9	0x3de2215d	0.1104152
10	0xbd39883f	-0.04529595
11	0xbd82c5b7	-0.06385367
12	0x3e9beebb	0.30455574
13	0x3e0ecaca	0.13944545
14	0xbdfc2882	-0.12312414
15	0xbdcfcec0	-0.10146856
16	0x3e62c7e5	0.22146566
17	0x3e36c794	0.1784957
18	0x3e4cddf2	0.2000654
19	0xbe031c04	-0.12803656
20	0x3e3a2bef	0.18180822
21	0xbdbf601e	-0.09344505
22	0xbb4d4f60	-0.0031327829
23	0xbbaf4814	-0.0053491686
24	0xbe45a45a	-0.19300976
25	0x3de077ec	0.10960373
26	0x3be9c486	0.007134023
27	0xbe165d10	-0.14683938
28	0x3df3f896	0.119126484
29	0x3e199583	0.1499844
30	0x3daff54d	0.08591709
31	0x3e5da66a	0.21645513
32	0xbe048268	-0.12940371
33	0x3df117ba	0.117721036
34	0xbda8cf6b	-0.08242687
35	0x3df27c83	0.11840155
36	0x3daa7fed	0.08325181
37	0xbcea7115	-0.028618375
38	0xbc15749e	-0.009122042
39	0xbe8146d8	-0.25249362
40	0xbd717285	-0.058947105
41	0xbc261179	-0.010136002
42	0xbd132e73	-0.03593297
43	0x3e0f09fe	0.13968655
44	0x3d43d6b1	0.047812168
45	0xbe09f2d4	-0.13471538
46	0xbe6fd6b0	-0.2342174
47	0xbe973ff2	-0.29540974
48	0xbd902f46	-0.07040267
49	0x3e7be29e	0.24598166
50	0x3e117214	0.14203674
51	0x3da1c850	0.07899535
52	0x3e96629a	0.29372102
53	0xbe38456d	-0.17995234
54	0x3cf10aad	0.029424036
55	0xbde6b525	-0.11265019
56	0xbd834b6f	-0.06410872
57	0x3d8fd2db	0.07022639
58	0xbd0b63ae	-0.03403061
59	0x3e232548	0.1593219
60	0x3e07013e	0.13184068
61	0xbe560176	-0.20898995
62	0x3e7d92fc	0.24763101
63	0x3e04707a	0.12933531
64	0x3dc0e5a9	0.09418804
65	0xbe8cd891	-0.27508977
66	0xbe51f29c	-0.20502704
67	0x3e2b58bf	0.16733073
68	0x3e45f883	0.19333081
69	0xbc2c3e5c	-0.0105129145
70	0xbe8f414d	-0.27979508
71	0x3e4a5afb	0.19761269
72	0x3e2f6ebd	0.17132087
73	0x3d45bbcf	0.04827481
74	0x3d708500	0.05872059
75	0x3b910802	0.0044260034
76	0xbd7d1d8c	-0.061795756
77	0x3e7f5fe1	0.24938919
78	0x3dc3c616	0.09559266
79	0x3e17149d	0.14753957
80	0x3aee6667	0.0018188477
81	0xbc92eff2	-0.01793668
82	0xbe6ad345	-0.22932155
83	0x3e64bf72	0.22338656
84	0xbe37df0b	-0.17956178
85	0x3e81dcb7	0.25363705
86	0x3e56822c	0.20948094
87	0xbc966719	-0.018359708
88	0x3e59570c	0.21224612
89	0xbdb0e1b4	-0.086367995
90	0xbda2fc8c	-0.07958326
91	0x3bfdfe40	0.007751256
92	0xbd923e22	-0.07140757
93	0x3e28f323	0.16499
94	0xbe24c8dc	-0.16092247
95	0xbdfdde5a	-0.12395926
96	0xbc1ede8f	-0.009696617
97	0xbc55e009	-0.013053902
98	0x3e0bb523	0.13643317
99	0xbe597144	-0.21234614
100	0x3e5872f4	0.21137601
101	0xbcd1f20b	-0.02562811
102	0xbe7d8468	-0.2475754
103	0x3ddc6fc8	0.10763508
104	0x3e09b65e	0.13448474
105	0xbbb06956	-0.005383651
106	0xbe3d43b0	-0.18482852
107	0x3e8f22f2	0.2795635
108	0xbe506820	-0.2035222
109	0xbde99a59	-0.114063926
110	0xbe4ee1c8	-0.20203316
111	0x3e5e8280	0.2172947
112	0xbd2a1bfa	-0.041530587
113	0x3ae77ce9	0.0017661127
114	0x3e3a237e	0.18177602
115	0xbd5be921	-0.053689126
116	0xbe758357	-0.23975883
117	0x3def11d6	0.11673324
118	0xbdfc8327	-0.12329703
119	0xbe484e9a	-0.19561234
120	0x3e1ec741	0.15505697
121	0xbdf13d5c	-0.117792815
122	0x3e7b05df	0.24513958
123	0x3d40b246	0.047045015
124	0xbe8b1ab2	-0.27168804
125	0xbe55ef9a	-0.20892182
126	0xbe4dd0bb	-0.20099156
127	0x3e32a8de	0.1744723

weight f4 [128, 128]
0	0x3b2629bd	0.0025354468
1	0xbd70d3f3	-0.05879588
2	0xbcfa555e	-0.030558284
3	0x3d92bcc2	0.07164909
4	0x3cab04d4	0.020876326
5	0x3d12856e	0.03577178
6	0x3a9b9cbb	0.0011872271
7	0x3d54cef3	0.051955175
8	0xbc6573d7	-0.014004669
9	0x3d62e358	0.055392593
10	0x3bc9dac5	0.0061601126
11	0x3d9598d5	0.07304541
12	0xbdadb90a	-0.08482559
13	0xbc71f452	-0.014767723
14	0x3cc37325	0.023858616
15	0xbd1122e1	-0.035433654
16	0xbdcb11be	-0.099154934
17	0xbd6f02ea	-0.05835239
18	0xbd48410a	-0.04889015
19	0x3ce6253d	0.028093928
20	0x3d0b7490	0.03404671
21	0xbc0dae69	-0.00864754
22	0xbc80ddd2	-0.015730772
23	0x3d8c2677	0.06843274
24	0xbd4e3620	-0.050344586
25	0xbd7380da	-0.059449054
26	0xbcabdd08	-0.02097942
27	0xbc720f13	-0.014774102
28	0xba4cc9e2	-0.00078120653
29	0x3c3b0306	0.011414295
30	0xbda4195d	-0.0801265
31	0x3d987176	0.07443516
32	0xbbc87557	-0.0061175036
33	0xbdb97b1b	-0.09056684
34	0x3cbd58af	0.023113577
35	0x3d8449f5	0.06459419
36	0x3d03c169	0.032166872
37	0x3c59d3ea	0.013295153
38	0xbd8708df	-0.06593489
39	0x3d541815	0.05178078
40	0xbd43e7e9	-0.04782859
41	0x3bc8f150	0.0061322823
42	0xbd2d774a	-0.04235009
43	0x3d2fdf56	0.0429376
44	0x3d855806	0.0651093
45	0xbce6cf12	-0.02817491
46	0xbd60a2f0	-0.05484289
47	0x3d7534e8	0.05986491
48	0x3d737056	0.059433304
49	0xbd8b5426	-0.068031594
50	0xbc1fc0cb	-0.009750555
51	0xbd0f682c	-0.035011455
52	0xbd893895	-0.06700245
53	0xbd1078bc	-0.03527139
54	0x3d500505	0.050786037
55	0xbb096141	-0.002096251
56	0x3c1add0e	0.009452118
57	0xba08c32c	-0.0005217071
58	0x3d9bf591	0.076151974
59	0x3d2d5d6b	0.04232542
60	0xbd646fd4	-0.05577071
61	0x3d860330	0.06543577
62	0x3d8fe6fb	0.07026478
63	0xbcd8a31a	-0.02644496
64	0xbd731e3a	-0.059355
65	0xbd89548a	-0.06705578
66	0xbdbc9c4f	-0.09209501
67	0x3b9e0999	0.0048229215
68	0x3c180cab	0.009280364
69	0x3c27f617	0.0102515435
70	0xbd6a6120	-0.057221532
71	0xbd3089b7	-0.043100085
72	0x3cd8850f	0.026430635
73	0xbdc914c1	-0.098184116
74	0xbd06c198	-0.03289947
75	0xbd3f2e94	-0.04667528
76	0xbd0158dc	-0.031578884
77	0xbdc5758a	-0.096415594
78	0xbdbc4547	-0.09192901
79	0x3d94c833	0.072647475
80	0xbd8cab45	-0.068686046
81	0xbd445a58	-0.04793772
82	0xbd73bbdb	-0.059505325
83	0xbb18d484	-0.0023320029
84	0xbd73e55e	-0.059544913
85	0xbba28d63	-0.0049607023
86	0xbd01ccba	-0.031689383
87	0xbd063516	-0.03276547
88	0x3d61d882	0.05513812
89	0x3c4238e1	0.011854381
90	0xbd8073d5	-0.06272093
91	0x3d2e9e35	0.042631347
92	0xbd916e68	-0.071011364
93	0xbc427a12	-0.011869924
94	0x3b22ef43	0.002486185
95	0x3cb4e66b	0.022082528
96	0xbd9199c4	-0.071094066
97	0xbd3578b9	-0.044304583
98	0x3c84c281	0.016206028
99	0x3db611df	0.088901274
100	0xbca27c7c	-0.01983475
101	0x3d592f15	0.053023417
102	0xbd29a3e7	-0.041416075
103	0xbd546fb3	-0.051864337
104	0xbcf39633	-0.029734707
105	0xbd3c3dc1	-0.04595733
106	0x3ca53744	0.020167954
107	0xbd16f22e	-0.036852054
108	0xbd95f09d	-0.07321284
109	0x3d8a88c1	0.06764365
110	0xbceed3f2	-0.029153798
111	0xbcf0ec11	-0.02940944
112	0xbd5cc733	-0.05390091
113	0xbdc36621	-0.09540964
114	0xbdc45d15	-0.095880665
115	0x3d75e7ae	0.0600354
116	0x3d493bc8	0.049129277
117	0xbc34c62d	-0.011033577
118	0xbd9122ec	-0.07086739
119	0xbd825435	-0.063637175
120	0x3c935292	0.017983709
121	0xbd1dc22a	-0.038515247
122	0xbd08fbbb	-0.033443194
123	0x3d5c40c2	0.053772695
124	0xbb59d309	-0.003323736
125	0x3a81be32	0.0009898602
126	0x3d8daf96	0.06918256
127	0xbd2f0bde	-0.042735927
128	0xbc9965ce	-0.018725302
129	0x3ce28f3c	0.02765619
130	0x3d203eed	0.03912251
131	0x3d6e410e	0.05816751
132	0x3c089ddd	0.008338419
133	0xbdc6a9b1	-0.09700335
134	0xbd809390	-0.06278145
135	0xbd9974d0	-0.07492983
136	0xbd37d7a5	-0.04488339
137	0xbccfe7b9	-0.025379049
138	0xbd8ed71f	-0.06974625
139	0x3d46bec2	0.048521765
140	0x3dab80fa	0.0837421
141	0xbc217d2b	-0.0098565025
142	0x3dc57abe	0.09642552
143	0xbc7d76e5	-0.015470241
144	0x3d5db3c5	0.05412652
145	0x3b8ea1e1	0.0043527936
146	0xbdda2ac5	-0.10652689
147	0x3d442e4b	0.04789571
148	0xbd9f67e2	-0.07783486
149	0x3d24e036	0.040252887
150	0x3c74bc96	0.0149375405
151	0xbb4cd34d	-0.0031253875
152	0xbdaf9ae7	-0.08574467
153	0x3c986d90	0.018606931
154	0xbd71db87	-0.05904725
155	0x3ce077f2	0.027400944
156	0x3c9b215c	0.018936805
157	0x3a1431c6	0.0005653169
158	0x3ce91fbd	0.028457517
159	0x3d4a8bce	0.049449734
160	0x3d2afbe1	0.041744117
161	0x3c04d161	0.00810656
162	0xbdd14b61	-0.102194555
163	0x3d2ee216	0.04269608
164	0xbc8eb89b	-0.017422011
165	0xbddf5b02	-0.1090603
166	0x3d8ebaaa	0.06969197
167	0x3e44c632	0.1921623
168	0xbdeb19c5	-0.114795245
169	0xbd530e8f	-0.051527556
170	0xbb4a604a	-0.0030880147
171	0x3c0789c5	0.008272593
172	0xbd0c03c4	-0.03418328
173	0x3d1f815f	0.038941737
174	0xbdabedd8	-0.083949745
175	0x3cbc0cdf	0.022955356
176	0xbdd29426	-0.10282163
177	0xbc808199	-0.015686797
178	0xbc59bcc8	-0.013289638
179	0xbb13c82e	-0.0022549736
180	0xbdce91e8	-0.10086423
181	0xbc265ea3	-0.010154399
182	0xbacff17c	-0.0015864815
183	0x3e1286a8	0.1430918
184	0xbd039949	-0.032128606
185	0xbdd93d08	-0.10607344
186	0xbc783c9f	-0.015151172
187	0x3caea6a2	0.021319691
188	0xbdd9c31e	-0.10632919
189	0xbdfc0545	-0.123056926
190	0x3d289f54	0.041167572
191	0xbc58a6b2	-0.013223337
192	0x3c29f9cd	0.010374499
193	0xbdbcd627	-0.09220534
194	0xbcefb779	-0.029262291
195	0x3c52669d	0.012841848
196	0x3d57cb2f	0.052684005
197	0x3d7ceff9	0.061752293
198	0xbd438a1d	-0.047739137
199	0x3d566bde	0.052348964
200	0xbd8edd91	-0.06975854
201	0xbd66a177	-0.05630633
202	0xbdaa9c13	-0.0833055
203	0xbb6762dd	-0.003530673
204	0xbe034a8c	-0.12821406
205	0xbd765d0e	-0.060147338
206	0xbdc818a8	-0.09770328
207	0xbc3733cf	-0.011181786
208	0xbd54279f	-0.051795598
209	0x3ce2ffaf	0.02770981
210	0xbcae8bc2	-0.021306876
211	0x3c97d9ae	0.018536415
212	0xbdb06d86	-0.0861464
213	0x3ce7c531	0.02829227
214	0xbc8f147d	-0.017465824
215	0x3dbb8343	0.091558956
216	0xbdbe6015	-0.0929567
217	0x3d2c191f	0.042016145
218	0xbdc83676	-0.097760126
219	0xbd827778	-0.06370443
220	0x3c9083ee	0.017641034
221	0x3d8a8d72	0.0676526
222	0x3c94d048	0.018165722
223	0x3cd39e65	0.025832364
224	0x3cedff6b	0.029052457
225	0xbd9dd884	-0.07707313
226	0xbdc37168	-0.09543115
227	0xbc8a72f1	-0.016900511
228	0x3d860658	0.06544179
229	0x3d82d5f9	0.06388468
230	0x3d297689	0.04137281
231	0xbc8df463	-0.017328447
232	0x3daeb6e8	0.0853098
233	0x3bda9fd5	0.0066718855
234	0xbceee1d5	-0.02916042
235	0x3cbabe7b	0.022795906
236	0xbd9cba09	-0.07652671
237	0x3d01f36e	0.031726293
238	0xbcc595da	-0.024119306
239	0x3b718444	0.0036852518
240	0x3cff4b8f	0.031163959
241	0xbc28cac9	-0.010302254
242	0xbdc03af9	-0.09386248
243	0x3d3aa25f	0.045565005
244	0xbd2c65d0	-0.042089283
245	0xbcb80f63	-0.022468274
246	0xbd99c87a	-0.07508941
247	0x3d8817e2	0.0664518
248	0x3c4c426d	0.012467009
249	0x3d58e420	0.052951932
250	0x3b693376	0.0035583652
251	0xbcc591dd	-0.024117405
252	0x3da75b9d	0.08171771
253	0xbcd9dc6f	-0.026594369
254	0x3cb2ace3	0.021810954
255	0x3d4708cb	0.04859237

bias f4 [128]
0	0xbd4e0d61	-0.050305728
1	0x3d82bf1a	0.06384106
2	0xbb06da28	-0.0020576809
3	0xbd0d8169	-0.034547243
4	0xbd3ebe94	-0.04656847
5	0xbd964cb4	-0.07338849
6	0xbd687ab7	-0.056757655
7	0x3d2dce29	0.042432938
8	0x3da3dedd	0.08001492
9	0x3c211f07	0.009834058
10	0x3dacbb70	0.08434188
11	0x3d82616b	0.06366237
12	0x3dcbaaed	0.09944711
13	0xbc0a2969	-0.0084327245
14	0xbd1911d5	-0.03737052
15	0xbc8c2059	-0.017105268
16	0xbd6513f5	-0.055927236
17	0x3d891a66	0.06694488
18	0xbd415bb7	-0.047206607
19	0xbc3553f0	-0.011067376
20	0xbcf40bc5	-0.029790768
21	0xbdb9e191	-0.090762265
22	0x3d176227	0.03695884
23	0xbd6dcdd4	-0.05805762
24	0xbd4b227b	-0.04959343
25	0x3d8fe1cb	0.070254885
26	0x3de44e5d	0.11147759
27	0xbdbff5d5	-0.093730606
28	0x3d5c090e	0.053719573
29	0x3c3118f5	0.010809173
30	0x3d904af0	0.07045543
31	0x3d8da640	0.06916475
32	0x3d4eb09d	0.0504614
33	0x3d7b7e6b	0.06139986
34	0x3d675a0c	0.05648236
35	0x3d4b1ed7	0.049589958
36	0xbd2d8215	-0.042360384
37	0xbd13a4d0	-0.03604585
38	0xbdae788a	-0.08519085
39	0x3bbedb01	0.005824447
40	0x3c01b904	0.007917646
41	0xbd814a7b	-0.06313034
42	0x3d4c7ad8	0.04992184
43	0xbdd782e6	-0.10523014
44	0x3ae24004	0.001726151
45	0xbd92cda2	-0.071681276
46	0xbd697f51	-0.057006184
47	0xbda6bc11	-0.081413396
48	0x3de786a0	0.113049746
49	0xbce9af73	-0.028526044
50	0x3cc570a9	0.024101572
51	0x3c87225e	0.01649588
52	0x3b28ffa5	0.0025787142
53	0x3cc8ff08	0.02453567
54	0xbd555e3e	-0.05209183
55	0xbd0a148f	-0.033711012
56	0xbd303f35	-0.04302903
57	0x3c195fa0	0.009361178
58	0x3baa37b6	0.0051946295
59	0x3ba51ea2	0.005039052
60	0x3dab0f70	0.08352554
61	0x3cee45f0	0.029086083
62	0xbc1cb0f8	-0.009563677
63	0x3decb65c	0.1155822
64	0xbd53381d	-0.051567186
65	0xbcff4818	-0.031162307
66	0x3cd19070	0.025581568
67	0xbc4e3b84	-0.012587432
68	0xbd8117ab	-0.063033424
69	0x3d49d10c	0.04927163
70	0x3d736b90	0.05942875
71	0xbd099006	-0.033584617
72	0xbcfb7da2	-0.030699555
73	0xbceac729	-0.02865942
74	0x3cb4c7d4	0.022067942
75	0x3da43bb8	0.08019203
76	0xbd43f85d	-0.04784428
77	0x3d145c4b	0.03622083
78	0xbca5bc4b	-0.020231387
79	0xbcd34ab6	-0.02579246
80	0xbd66f5e1	-0.056386832
81	0x3d3b21c0	0.045686483
82	0x3d742baf	0.059611972
83	0xbd253df7	-0.040342297
84	0x3d3d8339	0.04626772
85	0x3aadcd99	0.0013260125
86	0x3c9bb19e	0.019005593
87	0xbd01ff12	-0.031737395
88	0x3dba2ff3	0.09091177
89	0xbbc8e800	-0.006131172
90	0x3d241d7d	0.040067185
91	0xbd253783	-0.040336143
92	0x3d9d5424	0.07682064
93	0x3c92e65a	0.017932106
94	0x3d86e256	0.06586139
95	0x3d96d782	0.073653236
96	0x3d49e076	0.04928633
97	0x3d808182	0.06274702
98	0x3c3b2770	0.011422977
99	0xbd2ebf08	-0.04266265
100	0xbc9919dc	-0.018689089
101	0xbd0102e2	-0.03149689
102	0xbd820118	-0.06347865
103	0xbc105850	-0.008810118
104	0x3dc1e5e2	0.09467675
105	0xbca65ba4	-0.02030737
106	0xbdbd0dc4	-0.09231141
107	0xbdc9897f	-0.098406784
108	0xbd49702f	-0.049179252
109	0xbd102321	-0.03518975
110	0xbd97fe02	-0.07421495
111	0x3d54e096	0.051971994
112	0x3cecfe38	0.028929815
113	0x3d6e47b4	0.05817385
114	0xbd83d72f	-0.064375274
115	0x3d6ff2ec	0.058581278
116	0xbc6f3bc3	-0.014601651
117	0xbdad616f	-0.084658496
118	0xbd1462d0	-0.036227047
119	0xbcef6909	-0.02922489
120	0x3cd52a64	0.02602119
121	0xbc7523d7	-0.014962158
122	0x3d9c21e8	0.076236546
123	0xbc4b1b3c	-0.01239663
124	0xbd6d377a	-0.057914235
125	0x3d82e706	0.063917205
126	0xbd80a24b	-0.06280955
127	0x3d15868a	0.03650526

weight f4 [20, 128]
0	0xbd579a40	-0.05263734
1	0xbd04e16e	-0.03244155
2	0xbbc831dd	-0.00610946
3	0xb9efa07f	-0.0004570521
4	0xbc6f0303	-0.01458812
5	0xbbf6d990	-0.0075332597
6	0x3d1982e1	0.03747833
7	0x3b47b19a	0.003047085
8	0xba3d59a8	-0.00072231377
9	0xbcaee736	-0.021350484
10	0x3d30c490	0.043156207
11	0xbd2f69e7	-0.042825606
12	0xbd33de9e	-0.043913476
13	0xbcdb8e85	-0.026801357
14	0x3cb69c7a	0.02229141
15	0xbd5d9e1d	-0.054105867
16	0xbd68f8bc	-0.056877837
17	0x3ce0e887	0.027454628
18	0x3d8f94b3	0.07010784
19	0xbcdf7221	-0.0272761
20	0x3d11d1c5	0.035600442
21	0xbc90b3c8	-0.017663851
22	0x3d2eaba3	0.042644154
23	0xbd32038e	-0.04346042
24	0x3ce9eac2	0.028554324
25	0x3d0d3f7b	0.034484368
26	0xbd4bf0b6	-0.049790107
27	0xbbacad46	-0.0052696792
28	0x3d83c306	0.06433682
29	0x3d72d462	0.059284575
30	0x3d398e27	0.045301583
31	0x3be279f5	0.006911511
32	0x3ca11399	0.019662665
33	0xbd94e506	-0.07270245
34	0xbdbbeae5	-0.09175662
35	0xbd14dbc9	-0.036342416
36	0xbd8494f6	-0.064737245
37	0xbcc90803	-0.024539953
38	0x3d57070d	0.05249696
39	0x3db1a73e	0.08674477
40	0xbe0839e3	-0.13303332
41	0x3d00f68f	0.031485137
42	0xbd79dcfa	-0.061001755
43	0xbcf15f7b	-0.029464474
44	0x3d00a552	0.03140766
45	0x3d807f51	0.06274284
46	0xbd003bf7	-0.031307187
47	0x3d8eb807	0.06968694
48	0x3c8a07fb	0.016849509
49	0x3d53794d	0.051629353
50	0x3d8f1861	0.06987072
51	0xbdbe52c6	-0.092931315
52	0x3d539456	0.051655136
53	0x3cb41c6a	0.021986205
54	0xbc80943c	-0.015695684
55	0x3cfd5526	0.030924391
56	0xbc40d8e7	-0.011770464
57	0xbc876b82	-0.016530756
58	0xbe00ba10	-0.12570977
59	0xbcf766e9	-0.030200439
60	0x3c399af7	0.01132845
61	0x3d60e9a8	0.054910332
62	0x3cadd9cf	0.021222023
63	0x3c20b142	0.009807887
64	0x3c880f7d	0.016608948
65	0xbd7a4cbf	-0.061108347
66	0xbd5dbcbd	-0.054135073
67	0x3c46efe0	0.012142152
68	0x3c2e9d99	0.010657691
69	0xbc973688	-0.01845862
70	0x3cc2b469	0.023767667
71	0xbd617681	-0.055044655
72	0xbd04f6c5	-0.0324619
73	0xbd42cfe2	-0.047561534
74	0xbc5db8d8	-0.01353284
75	0x3c17bd21	0.0092614
76	0x3d19238f	0.037387427
77	0xbb51d7cb	-0.0032019492
78	0x3cd1c51f	0.02560669
79	0x3c132251	0.00898035
80	0x3d80ca14	0.06288543
81	0x3d447104	0.047959343
82	0xbdb16005	-0.086608924
83	0xbaec8e0e	-0.0018047707
84	0xbd0a15c5	-0.033712167
85	0xbd4b6ee2	-0.049666293
86	0x3d410fa6	0.047134064
87	0xbd534891	-0.051582877
88	0xbcbab90f	-0.022793321
89	0xbd2f276d	-0.04276221
90	0xbd0a6e4c	-0.033796594
91	0x3d8cc270	0.068730235
92	0xbc9c3f34	-0.019073106
93	0xbd5e8e1a	-0.054334737
94	0x3d7d75f4	0.061880067
95	0x3c48050f	0.012208237
96	0xbdb9507c	-0.09048554
97	0x3cd481ab	0.025940737
98	0x3d8f38f7	0.06993287
99	0x3d8d8c9d	0.069115855
100	0x3d89265b	0.06696769
101	0x3d762ff1	0.060104314
102	0xbd940d00	-0.07229042
103	0x3bf2c06e	0.0074081933
104	0x3c84061e	0.016116198
105	0x3bf0a38f	0.0073437165
106	0x3d40acb4	0.047039703
107	0x3d95efc3	0.073211215
108	0x3ce939b1	0.028469892
109	0xbd7561fe	-0.059907906
110	0xbd4615e0	-0.048360705
111	0x3d9b9d9c	0.07598421
112	0x3d0dad24	0.034588948
113	0x3db50024	0.088379174
114	0x3d21a777	0.039466348
115	0xbd70ad53	-0.058759045
116	0xbd084c42	-0.03327585
117	0x3d637f86	0.055541538
118	0x3d487499	0.04893932
119	0x3d9261fc	0.07147595
120	0xbab5ce00	-0.0013870597
121	0x3c33912a	0.010959903
122	0x3cdb8777	0.026797993
123	0xbd9dfc8b	-0.077141844
124	0xb84a1800	-4.8182905e-05
125	0x3c913e1d	0.017729813
126	0xbce98dab	-0.028509935
127	0xbcaadf8f	-0.020858554
128	0xbca7a55d	-0.020464594
129	0x3c7c10d6	0.015384873
130	0x3dbb70af	0.09152352
131	0x3d59a012	0.05313117
132	0x3cf5455c	0.0299403
133	0x3d267670	0.040640295
134	0xbc7e1f90	-0.015510455
135	0x3d9411dd	0.0722997
136	0xbc89eeb6	-0.016837459
137	0x3cdabd13	0.026701486
138	0x3ca05da3	0.0195759
139	0x3cded47b	0.027200928
140	0x3c6d9f07	0.014503247
141	0xbcd28b2e	-0.025701132
142	0xbd8874ec	-0.06662926
143	0x3d102642	0.035192735
144	0x3d9932af	0.0748037
145	0x3ad176df	0.0015980861
146	0xbd54fcee	-0.051999025
147	0x3c056949	0.008142778
148	0x3d20f732	0.039298244
149	0x3d2daba6	0.042400025
150	0xbcab6b99	-0.02092533
151	0x3d345536	0.044026576
152	0xbd208938	-0.039193362
153	0x3c8fc136	0.017548185
154	0x3d0ff975	0.03515001
155	0x3d69a411	0.05704123
156	0x3d24a198	0.04019317
157	0xbc961c10	-0.018323928
158	0xbd0e8442	-0.0347941
159	0x3ccc9746	0.024974477
160	0xbcc935b8	-0.024561748
161	0x3d2f678c	0.04282336
162	0x3cdba895	0.026813785
163	0x3d4b971b	0.049704652
164	0x3b9ecb19	0.0048459885
165	0xbc1046cc	-0.008805942
166	0x3d8c3683	0.06846335
167	0xbcbc08d8	-0.022953436
168	0x3d64c1e7	0.055848982
169	0xbcb13eaa	-0.021636326
170	0x3d86c321	0.06580187
171	0xbd4ed86f	-0.050499376
172	0xbcd6aa61	-0.02620429
173	0x3c278bfa	0.010226244
174	0x3d347de2	0.044065364
175	0x3d85a7df	0.065261595
176	0xbc2a127b	-0.010380383
177	0x3d0ecea2	0.03486503
178	0xbd94f383	-0.07273009
179	0x3d6209b0	0.05518502
180	0x3d3074e5	0.04308023
181	0x3d8fbd69	0.07018549
182	0xbc6a9170	-0.014316902
183	0x3d4d0ec7	0.05006292
184	0x3d8301f7	0.06396859
185	0x3d17e10e	0.037079863
186	0x3de37b25	0.11107472
187	0xbd0086a5	-0.031378407
188	0xbcab15e8	-0.02088447
189	0xbd76f146	-0.06028869
190	0x3d918309	0.07105071
191	0xbc4a5aec	-0.012350779
192	0x3c35fa39	0.011107021
193	0x3d296f6b	0.041366022
194	0x3aea7708	0.0017888257
195	0xba9807e7	-0.0011599035
196	0x3d6c894f	0.057748135
197	0x3cca0c81	0.024664165
198	0x3d806468	0.06269151
199	0xbd360b37	-0.04444429
200	0x3d18e24f	0.0373252
201	0x3d300d18	0.042981237
202	0xbd10c9a8	-0.035348564
203	0x3c996a0d	0.018727327
204	0xbd8793ad	-0.06619964
205	0xbd98f350	-0.07468283
206	0x3cc296a5	0.023753474
207	0xbd1233c9	-0.035693917
208	0xbd77b841	-0.060478453
209	0xbd242722	-0.040076382
210	0xbadf828d	-0.0017052457
211	0x3d317d5c	0.043332443
212	0xbc85c472	-0.016329024
213	0xbcbfa8e8	-0.02339597
214	0xbcfd4e40	-0.030921102
215	0x3d8a3ef8	0.067502916
216	0x3d5de044	0.054168954
217	0x3c9815f0	0.018565148
218	0xbc6228fb	-0.013803716
219	0x3d3b6ab2	0.04575605
220	0xbcfc1a1c	-0.030774169
221	0xbcca9bb9	-0.024732457
222	0xbd933548	-0.07187897
223	0x3c8cb65d	0.017176801
224	0xbd583ef0	-0.052794397
225	0xbd9db3ef	-0.07700335
226	0xbd9ba7f0	-0.07600391
227	0xbd84070b	-0.06446656
228	0x3d0d191c	0.034447774
229	0xbd65abfd	-0.056072224
230	0x3d07faa6	0.03319802
231	0x3d29f84c	0.04149656
232	0x3d5d74a7	0.054066326
233	0x3d51cac1	0.05121875
234	0x3d223310	0.03959948
235	0xbda5de99	-0.08099098
236	0x3ca4da90	0.02012375
237	0x3c7499bf	0.014929234
238	0xbd5415c5	-0.051778574
239	0xbdab22bb	-0.08356234
240	0x3c9797de	0.018505033
241	0x3d970b63	0.07375219
242	0x3d8a2ca4	0.06746796
243	0xbca41815	-0.020031014
244	0x3cb4f589	0.022089737
245	0x3d668c92	0.056286402
246	0xbbfb804a	-0.0076752054
247	0xbd462ef4	-0.04838462
248	0x3ae40e00	0.0017399192
249	0xbc4de8c3	-0.012567702
250	0x3cc059b9	0.023480283
251	0x3d728a56	0.05921396
252	0xbd830fe4	-0.06399515
253	0xbcc89135	-0.024483303
254	0x3c98c78c	0.018649839
255	0x3c904cae	0.017614689

bias f4 [20]
0	0xbce7c9e4	-0.028294511
1	0xbd237972	-0.03991074
2	0xbd113049	-0.03544644
3	0x395ef79f	0.00021263816
4	0xbd50d782	-0.050986774
5	0xbc133e89	-0.0089870775
6	0xbd8b2d56	-0.067957565
7	0xbb7bfa8a	-0.0038448893
8	0x3d900cd9	0.070337005
9	0xbd39fd7c	-0.045407757
10	0x3d0effab	0.034911793
11	0xbd255803	-0.040367138
12	0x3d8de613	0.06928649
13	0xbda15f55	-0.07879511
14	0xbc2f9fb3	-0.010719228
15	0xbd4b28b8	-0.04959938
16	0xbd42ca48	-0.04755619
17	0x3ab50ee8	0.0013813647
18	0x3d2c2d02	0.04203511
19	0xbba8aa2e	-0.00514724
