abalone/abalone_15_ffastSHAP.pt (torch, 86655 bytes, 6 tensors)

weight f4 [128, 12]
00000000: ff6d c4bd aefa 38bd 9cb2 913d c17a f93d
00000010: e03f d6bc 6739 4b3e e9ce 963e b97e 933d
00000020: 7d56 163e 43e6 333e 814e 17be c43a 7cbe
00000030: c3c6 f0b9 5d77 643e 9bf4 0cbe 19ea 21be
00000040: daaf d9bd b7fc 15be dc10 7a3e 099f 3e3e
00000050: 7197 823e 2586 5cbe 3bdb ad3c a222 06bd
00000060: e084 833c 0242 813e 00d8 2d3e c770 0fbc
00000070: 7d59 733e 567a 87be 3c93 8f3e 6aba 41be
00000080: a3cc 1c3e ad0f 34be a6f7 e53c ccf6 42bc
00000090: f58a 5cbe a441 5d3d 6fc7 5a3e dd46 39be
000000a0: 2a87 a9be 6be2 483e 195a 893e d48f ad3d
000000b0: ed17 723d 0352 413e be67 923d c2fe f6bd
000000c0: 7c3c 8cbe a766 043e f176 513e bed3 7e3e
000000d0: 6871 403e b973 bdbd 721a 743d 9ffa 163e
000000e0: b9f6 17be 2b11 4e3e 226b 083e 3938 603e
000000f0: 46f8 3abe bc69 113e 6944 29be a2b0 603e
00000100: a6ef 353e 2b5a 113e 3df5 1ebe 8e58 21be
00000110: 2ebe 323c b04a f3bd 8643 7bbe 6509 2e3e
00000120: c157 21be e846 5ebd 5222 c1bd f02c 583e
00000130: fe1f dcbd 8064 6abe ec8e d6bd 9dbd 63be
00000140: f506 5bbe 4d85 aa3c 0248 ebbd fb56 733e
00000150: b5e8 103e 6ba2 da3c cf47 4dbe dd38 ec3c
00000160: 54ad 48be ac45 f6bd a171 3d3e a427 5d3d
00000170: 4128 723e 0a5d 053e 00b4 d2bc 8b4b 22be
00000180: f2b6 87be fc82 bcbd a002 22bc aa99 bc3d
00000190: d2a6 db3d aebb 0a3e b2ef 133e 3404 533e
000001a0: 2b42 a13c 5314 103e effb 723e 339c 9dbe
000001b0: 519e 1bbe 77f4 fc3d 956e 04bd f6d9 40bd
000001c0: a4f1 063e f918 e43d e44a 833e 3f81 47bc
000001d0: 7868 3d3e 5b31 513e 4d87 723e 76c3 5d3e
000001e0: f3a9 4abd 3994 cfbd 3c62 d33b 8bb4 e83d
000001f0: 078f 8b3d 8652 de3c 8fd1 52be d639 0fbe
00000200: 902c 443e 5a8b 353e bb64 91bd 51e0 813e
00000210: 05e7 fc3d a631 893d ad94 703e 0251 4cbe
00000220: ff1c 6ebe 6bc4 bd3c ddf3 84bd 5de4 84bd
00000230: 4481 0e3e 52f6 583e 7136 77bc 8e9d 99bc
00000240: e7f7 f93d 027e 37be 801b 44be 03a4 7c3d
00000250: 71bf 38be 87b3 453d 9968 adbc ffcc aebd
00000260: 859d 793e c942 89bd da4a 92be 2a3d 00be
00000270: fbd7 013c 793d 393c b1d5 ac3d f4bb bdbd
00000280: f4a2 5b3d 7bfb 54bc 70be 9abd 41f2 47be
00000290: acac 86ba 6924 563e 9a82 efbb 1786 9bbe
000002a0: ba5d 81be 6e8e ea3d 6fe6 863c e9c1 f0bd
000002b0: 409d 0ebe 603e 163e 627d 86be bdc2 283d
000002c0: 8672 703d 1897 d53d 7e62 3abe 1a07 9f3d
000002d0: 4d0f 4b3e f88c 2bbc 3643 66be c3fb b4bb
000002e0: d8f1 183e fd10 e53b 1d42 8c3c 7706 e93d
000002f0: f270 8abd 29cb efbd 4db7 8cbe 7f01 90be
00000300: 0e1c 563e c749 fc3d 32a6 38be 2b69 523e
00000310: 4461 b3bc cf09 403e 13a4 21bd 19a5 c9bd
00000320: 76c8 49be c4fd 54be 4c91 3a3e 7aa8 613e
00000330: e810 88be b3d6 9dbd bf4e d13d 5d4b 5b3e
00000340: d3b6 4d3e 5d0d 413e 063c 853c aafd 4fbe
00000350: a3d5 9abd 3948 a4bc da8e 923d ea2b 40be
00000360: 8010 2a3d bee9 233d 3b53 54be 557d f43d
00000370: 4760 39be 8156 70be 12fc 913e d6e2 5fbe
00000380: 306c 30be c569 4bbe 32ea 89be 17c3 373e
00000390: b1af 263d 335e 7d3e 48e3 703d 5ea0 0a3e
000003a0: 700e e63d ea8e 46be 0b86 2fbd 3a51 98be
000003b0: b68d 85be 75e5 ed39 6ccb 543e 8c0c 28be
000003c0: a7b1 0c3d f4a2 9a3e 6d9e f9bd 8887 153e
000003d0: 894d 773d db55 f2bd 3310 94be 664e 183e
000003e0: 4c61 203e 0e55 603e 9033 943d 2fc0 773d
000003f0: bcf9 cb39 fce3 ccbd 6484 40be 0cd6 2ebe
-0.095912926 -0.04516094 0.07114145 0.121816166 -0.026153505 0.19846116 0.29454735 0.07201905
0.1468143 0.17568307 -0.1477604 -0.24631792 -0.00045924456 0.22311158 -0.13765185 -0.15811957
-0.10629244 -0.14647184 0.24420494 0.18615355 0.25506166 -0.21535547 0.021222701 -0.032747872
0.01605457 0.25245672 0.16976929 -0.008754916 0.23764606 -0.26460522 0.28042018 -0.18918768
0.15312438 -0.17584105 0.02807219 -0.011899661 -0.21537383 0.054017678 0.2136514 -0.18093438
-0.33110934 0.19617622 0.26826552 0.08474699 0.05910485 0.18878941 0.071486935 -0.1206031
-0.27389896 0.12929784 0.20455529 0.2488546 0.18793261 -0.09250588 0.059595533 0.14744042
-0.14840211 0.20123737 0.13322118 0.21896447 -0.18258771 0.1420049 -0.16530003 0.2194238
0.177672 0.14194553 -0.15523238 -0.15756437 0.0109096 -0.1187948 -0.24537477 0.16995771
-0.15756132 -0.05426684 -0.09430374 0.21110892 -0.107482895 -0.228899 -0.10476479 -0.222403
-0.21389373 0.020815516 -0.11488344 0.23763649 0.1415127 0.026688775 -0.20046924 0.028835708
-0.1959737 -0.120250076 0.18500377 0.053992882 0.23648168 0.13023773 -0.025720596 -0.1584913
-0.26506764 -0.09204671 -0.009888321 0.092089966 0.10725178 0.13548157 0.14446905 0.20607072
0.019684872 0.14070253 0.23728918 -0.30783233 -0.15197112 0.123513155 -0.03233202 -0.047082864
0.13178116 0.11137576 0.25643075 -0.012176811 0.18496883 0.20428984 0.23684426 0.21656594
-0.049478482 -0.10135693 0.0064509194 0.11362561 0.0681439 0.02713896 -0.20587753 -0.13986906
0.19157624 0.1772894 -0.07099291 0.25366452 0.12348751 0.06698923 0.23494215 -0.19952777
-0.23253249 0.023164948 -0.06491826 -0.06488869 0.13916498 0.21187714 -0.015088663 -0.018751886
0.12205487 -0.17919162 -0.19151115 0.06167985 -0.18041779 0.048266914 -0.02116804 -0.08535194
0.24376495 -0.067021914 -0.28572732 -0.12523332 0.007925029 0.01130616 0.08439196 -0.09264365
0.0536222 -0.012999411 -0.07555854 -0.19526006 -0.0010274849 0.20912327 -0.00730927 -0.3037574
-0.2526682 0.114529476 0.016467301 -0.117557354 -0.13927174 0.14672232 -0.26267534 0.041201342
0.058702968 0.104292095 -0.18201634 0.077650264 0.19830056 -0.010470621 -0.22486576 -0.0055231764
0.14936006 0.0069905506 0.017121369 0.11378186 -0.06759824 -0.117086716 -0.27483597 -0.2812614
0.2090914 0.123187594 -0.18032148 0.20547931 -0.021896966 0.18753742 -0.039463114 -0.09845943
-0.19705376 -0.20799929 0.18219489 0.22036925 -0.26575398 -0.07706966 0.10220098 0.21415468
0.20089273 0.18852754 0.016263973 -0.20311609 -0.07560279 -0.02005397 0.07156153 -0.18766752
0.041519642 0.040017836 -0.20734875 0.11937968 -0.18103133 -0.23470499 0.28512627 -0.21863875
-0.1722877 -0.19864567 -0.2693649 0.17945515 0.040694896 0.24742965 0.058810502 0.13537738
0.112332225 -0.19390455 -0.042852443 -0.2974947 -0.2608468 0.0004537512 0.20780724 -0.16411036
0.03434911 0.30202448 -0.121884204 0.14602482 0.060376678 -0.11832782 -0.2891861 0.14873657
0.15662116 0.21907446 0.07236397 0.060486015 0.00038905244 -0.10004422 -0.18800503 -0.1707384

bias f4 [128]
00000000: df77 94be c234 0fbe a941 59bd 9908 86bc
00000010: c615 52be d2d6 a33d 625f 553e 53d7 6b3e
00000020: d2ed 163e 0e99 42be fa97 763d b5e2 2e3e
00000030: d265 6e3e 2a76 72be e503 72be 394e fbbd
00000040: c589 f1bb 4be0 32be d0bc e7bc 62a0 863d
00000050: 31a1 7bbd 7a18 1d3c 6033 45be f9ee 89bd
00000060: 4ac7 5e3e 5697 8b3d b240 96be cf54 dfbd
00000070: 1b04 7b3e 6ec3 4fbe 0b10 343e 2083 39bc
00000080: 25c6 cebd d29d 963d 9237 24bd 1160 c5bc
00000090: 9ef4 92be 78a3 da3d 2139 8f3e 8234 67be
000000a0: 1a0d 483d f070 fa3d c694 0fbe 6f22 743d
000000b0: 4274 143e cee4 773e cdc6 3b3e f30e 24be
000000c0: 679e d93d d4de babd 17ac 683e 2bac 233e
000000d0: b55b 35bd 9e86 1d3e d21d b83c 8440 46be
000000e0: c616 9ebd 9250 a73c edc7 6ebe 7ec8 6fbe
000000f0: c4e5 663e d2e5 3cbd 46c4 a9bd c631 64be
00000100: 538b 9c3c 577c b23d 19e9 cfbd 36a4 48be
00000110: fa6d 61be b150 6fbe e2bd 6bbe ef00 93be
00000120: eba0 53bd 9216 883e 0f09 8c3e 7b79 02be
00000130: 832f dcbd 0771 83be 084c b6bc ccc7 f5bd
00000140: cc5e 443e 08b6 413e f394 533e 33b0 1b3e
00000150: 1a9a 9fbd a49a 1cbe 1d00 3b3e 4629 4f3e
00000160: 16be 603e b741 363d 3a99 89bd 3f84 65be
00000170: 6168 163e 25bf 6bbd 8f1c 3ebe 5e52 593e
00000180: a976 653d 121c 843d 6da0 333e b2c2 80be
00000190: e9c2 e33c e459 423e 0e87 4fbe b4a2 6bbe
000001a0: 7571 4a3e e3e6 2b3e 7a83 84be 584a 743e
000001b0: 14ce a3bd 9911 cdbd 0472 89bd 6c3a 173e
000001c0: 0ca6 173e e5ad afbb fe89 b5bc 828b 833c
000001d0: c0b9 4bbe cbd4 533e cae7 c73d 7c18 863d
000001e0: 3a0a 3b3e 56d9 6bbe 015d 77bc 7cb3 d83d
000001f0: 6a7f 05be 5d44 a73d 8c13 44bd 23b7 d1bc
-0.28997704 -0.1398497 -0.053041134 -0.016361522 -0.20516118 0.07999958 0.20837167 0.23031358
0.14739159 -0.19003698 0.06020353 0.1707867 0.23281029 -0.23677889 -0.23634298 -0.12270779
-0.0073711597 -0.17468373 -0.028288275 0.06573559 -0.06143302 0.009588355 -0.1925788 -0.067350335
0.2175571 0.068159744 -0.29346234 -0.10904848 0.24513285 -0.20289394 0.17584245 -0.011322767
-0.10096387 0.073543206 -0.04009206 -0.02409366 -0.28702253 0.106757104 0.27973273 -0.22578624
0.04884062 0.12228572 -0.14021596 0.05960315 0.14497474 0.24208376 0.18337555 -0.16021328
0.10625916 -0.09124532 0.22721897 0.15983646 -0.04427691 0.15383384 0.022475157 -0.19360548
-0.077191874 0.020424161 -0.23318453 -0.23416325 0.22548586 -0.04611761 -0.08289389 -0.22284612
0.019109404 0.08715122 -0.10151882 -0.19593892 -0.22014609 -0.23370625 -0.23021653 -0.2871165
-0.051667135 0.2657972 0.2735066 -0.12741654 -0.1075125 -0.2567217 -0.022253051 -0.12000999
0.19176787 0.18917096 0.20662288 0.15203933 -0.077930644 -0.15293366 0.18261762 0.20230588
0.21947512 0.044496264 -0.06718679 -0.22413729 0.14688255 -0.057555337 -0.18565582 0.21222827
0.056021366 0.064506665 0.17541666 -0.2514854 0.027802901 0.18979603 -0.20266363 -0.23011285
0.19769843 0.16787295 -0.2588156 0.23856485 -0.07998291 -0.10013122 -0.067112 0.1476838
0.14809436 -0.005361306 -0.022160526 0.016057733 -0.19895077 0.20686643 0.09761007 0.06547639
0.1826562 -0.23032126 -0.015097857 0.10581109 -0.13036886 0.08167336 -0.047870204 -0.025600022

weight f4 [128, 128]
00000000: ce3c 97bd 52e4 953d 2888 05bd a773 433d
00000010: 026b 7b3c 7a50 633d 9cb4 67bd a4f4 69bd
00000020: 90cd 9cbd 53b2 973d 6102 283b edc1 4bbc
00000030: 9f60 b43c 6022 8d3d 1420 453d c4b8 5cbd
00000040: a59e 37bd fc24 2d3d 520b 2ebd dc7d 7dbd
00000050: d690 b13d c902 9abd d501 cc3c a27c 0e3c
00000060: d601 05bd 2e90 3c3d 02dc 1bbc b229 a33d
00000070: ef99 a63c 56bb c3bd 14f6 6e3d 547d cabc
00000080: 2d40 32bc e9e8 273d 530a aabb 209f c8bd
00000090: a765 8b3d 9c1c bdbd 42a3 6e3d abb0 87bd
000000a0: 75dd cbbd a88a a43b 0f40 433d 37f9 8dbd
000000b0: 2ca1 bc3d c52a bcbd 7534 b63d 7c32 3e3d
000000c0: 5f59 623d efd1 8dbd 5cf1 a5bc 2894 e93c
000000d0: 21b3 f23c 1192 e83b a2c4 a63d f691 f03c
000000e0: 86de 173d 7490 663d bb2c 4e3d 1d0b 3dbd
000000f0: 47c2 cabd 7588 b03c a6c8 f9bc a75e 49bd
00000100: fb67 2f3d 03ff 563d 593d a33d 0194 113d
00000110: 016a ba3d 9838 8e3c faa3 a03d a913 d63d
00000120: 02b1 00be a878 4ebd c308 89bc abd2 793d
00000130: a6b1 e8bc 4fd7 3138 7d0f 58bd e7bc 9b3c
00000140: eb67 e13c 2d00 92bc 00e2 05bd 598d 83bd
00000150: cc6c 203d 5c5d ddbd 17a7 a4bd e903 003d
00000160: 9562 51bd cdfb 7abd 850a 18bd 63e6 923c
00000170: ee2b 9cbd 6c3f 8abd c1ce 14bd 8fb2 f53c
00000180: 7a12 813d 9289 1fbc c734 7f3d 2d2e 3abc
00000190: d70e 2d3d ba7c 79bd 787d 99bd 7bf2 00be
000001a0: 32f2 bb3c 462e 563d dd8f 5a3d 359c f73c
000001b0: 39ff b8bb 5029 863b 4cd3 a23d 31e2 cc3c
000001c0: 680a 1bbc aacf c13d 0d85 a6bd 266c 793d
000001d0: d598 593d 7fb7 213d 80b7 7a3c 523f b8bd
000001e0: 35e2 a2bd 44e2 803d 7cf9 bbbc c30e a83b
000001f0: b388 84bc 2a13 5c3d dca6 48bd e939 50bd
00000200: 47c4 4bbe ba7f aa3d 2ccb 543d ce66 0bbe
00000210: 379d 10be a5cd 543d ea0d 713d 6c47 833d
00000220: b74d 23bd 724d b73c 0dab 5fbd 1f52 18bd
00000230: 021b 00bd 0fbf 90bd dd0a 47bd 5b29 7abd
00000240: a88b 28bd 36d7 62bc a10d d2bd 54a3 8d3d
00000250: 3a80 35be 332b 8fbd 6f8b 693d e080 2d3b
00000260: 319b 62bd 3234 573d d908 dabd cbf3 70bc
00000270: 93ff b5bc 08c8 4cbe c7ea 8f3d c199 c3bd
00000280: e290 b7bd fd68 373d 322b a5ba 24f4 353d
00000290: 0652 dc3c a047 163d a7f7 1d3d d468 21bd
000002a0: 5b68 e1bd 562d 9b3c 7d64 02bd 2335 a5bd
000002b0: d765 8f3d dfd1 413d 9ebb db3d 21cf 883d
000002c0: 595f 69bd 4dc7 e83c 6c4d 133d 61a9 0dbb
000002d0: 7888 9ebd aba5 28bd 80d6 99bd 5065 00bb
000002e0: fea5 14bb cc62 4f3b 0faa d33d 79e5 0bbe
000002f0: 2ae7 76bd 7826 d73c eba9 00bd a0e2 a23d
00000300: eebd 0dbd a04f d4bd 15e8 8a3d 8a42 e33d
00000310: fd31 123e 361f b5bd a9e7 b0bd f29a babd
00000320: fb82 a0ba 658e 6bbd 5170 c0bd 8a40 013c
00000330: 3693 ac3d 4ce8 a9bd eaf9 c0bd 8707 f1bd
00000340: 0730 28bc 3917 eebd 6942 7d3d ddd3 a1bd
00000350: fb9d 85bd c16a 393d 4919 b1bc 86fc 26be
00000360: 3ad3 4b3c 53d3 0a3d 50cc a2bd ccd0 16be
00000370: ee04 89bd a046 d8bd e247 b8bd 5234 203d
00000380: e7d9 47bd 1999 7d3b 5f2c 4cbd c914 dbbd
00000390: afde a8bd ac3b 3a3b fabe 1bbd 49ae e3bd
000003a0: dff0 453d 8871 52bd 6dc8 28be 67c8 9f3d
000003b0: 10ff 4abd c63e 48be 11ff 303e c6ea 223a
000003c0: 2e4e 3cbd 0fbf 273e 8ea2 6e3d 1ad4 a7bd
000003d0: a6aa e93d 362d 7cbd 6130 b63c 09af 7c3d
000003e0: 206c 1bbc e1c1 93bd b5dd 7a3d e679 16bd
000003f0: 5e72 89bd d0ee 11be b1bc 8ebd 9a2f 113d
-0.073846444 0.07318939 -0.03260055 0.047717717 0.015345337 0.05549667 -0.056568727 -0.057118073
-0.076563954 0.074070595 0.0025636184 -0.012436372 0.022018729 0.06891322 0.048126295 -0.053887144
-0.04482903 0.0422716 -0.042491265 -0.061887607 0.086702034 -0.075200625 0.024903217 0.008696707
-0.032472454 0.046035938 -0.009512903 0.07966937 0.020337073 -0.09557216 0.058340147 -0.024717964
-0.0108795585 0.040993605 -0.005189219 -0.09795976 0.06806498 -0.092339724 0.058261164 -0.066254936
-0.09954349 0.005021412 0.047668513 -0.069322996 0.092104286 -0.09187845 0.08896724 0.046434864
0.055261012 -0.06924807 -0.02025669 0.02851303 0.029626431 0.0070974906 0.081429735 0.029366475
0.03707745 0.056290105 0.050335627 -0.046153177 -0.09900337 0.021549443 -0.030491184 -0.049162533
0.042823773 0.052489292 0.079706855 0.03554154 0.0910225 0.01736097 0.07843776 0.104529686
-0.12567523 -0.050408036 -0.01672781 0.060991924 -0.028405022 4.240061e-05 -0.052749146 0.019010974
0.027515372 -0.01782235 -0.032686234 -0.06423444 0.039166257 -0.108088225 -0.08039682 0.03125373
-0.051119406 -0.061275292 -0.037119407 0.017932123 -0.076255664 -0.06750378 -0.03632999 0.02999237
0.06302352 -0.009737389 0.06230619 -0.011363548 0.04225048 -0.060909964 -0.074946344 -0.12592499
0.022942636 0.052290224 0.053359855 0.030225853 -0.0056456593 0.0040942803 0.07950458 0.0250102
-0.00946293 0.09463437 -0.08130846 0.060894154 0.053124268 0.039481636 0.015302539 -0.089964524
-0.07953302 0.06293157 -0.022946112 0.005128713 -0.016178465 0.053729214 -0.048987255 -0.050836477
-0.19899093 0.08325143 0.051951572 -0.13613436 -0.14122473 0.05195393 0.05885116 0.06410107
-0.039869037 0.022375796 -0.054606486 -0.03718769 -0.031275757 -0.070676915 -0.048594344 -0.061074596
-0.04114881 -0.013845256 -0.10256506 0.06915918 -0.17724696 -0.069906615 0.05701774 0.002647452
-0.055323783 0.05254001 -0.10646219 -0.014706562 -0.022216594 -0.19998181 0.07027202 -0.095508106
-0.08963181 0.04477786 -0.0012601374 0.044422284 0.02689458 0.0366894 0.038566258 -0.039406613
-0.11006232 0.018942516 -0.031834114 -0.08066776 0.07001846 0.04731929 0.107291445 0.06680132
-0.056975696 0.028415347 0.035962507 -0.002161585 -0.07740873 -0.04117362 -0.07511616 -0.0019591637
-0.0022681947 0.003164458 0.103351705 -0.13661756 -0.06027905 0.02626346 -0.031412046 0.079533815
-0.03460496 -0.1036675 0.067825474 0.11096676 0.14276882 -0.08843844 -0.08637936 -0.09111585
-0.0012246066 -0.057508845 -0.09396423 0.0078889225 0.08426516 -0.0829626 -0.09422667 -0.11769014
-0.010265357 -0.11625523 0.06183091 -0.07901738 -0.06524273 0.045267824 -0.021618502 -0.16307268
0.012440497 0.03389294 -0.07949126 -0.14728087 -0.066903934 -0.10560346 -0.089980856 0.039112397
-0.048791792 0.003869599 -0.049847003 -0.10697324 -0.082455985 0.0028416915 -0.038023926 -0.11117227
0.048325416 -0.051377803 -0.16482706 0.078018956 -0.049559653 -0.19555196 0.172848 0.00062147935
-0.045972995 0.16381477 0.058260493 -0.08194752 0.11409502 -0.061566554 0.022239866 0.061690364
-0.009486228 -0.07214714 0.061246593 -0.036737345 -0.06711267 -0.14251256 -0.06969584 0.035445787

bias f4 [128]
00000000: 564f 6ebd 5290 9cbd 46a5 bc3d b6a2 343c
00000010: b742 96bd f705 6f3c ccda 36bd e298 40bc
00000020: ad50 5abd 077e 793c 7631 1fbd 21f7 b33d
00000030: 0a6f 3c3d 2e5f adbd db60 763c c140 1a3d
00000040: 69c2 a13b 9ab0 ad3d b492 42bd afbd 25bd
00000050: 0e8a 93bd 558d 28bd 9b18 4abd fb34 9fbd
00000060: 02e1 843c 238c 90bd 329d 00bd 31c6 ffbc
00000070: 2054 2ebd 4aa9 cbbc 6104 373d 2b49 743c
00000080: a451 24bd e608 883d a976 d0ba bd79 a2bd
00000090: e4ca 9abd dc10 77b9 81a0 8d3d aa54 93bd
000000a0: 07a5 8abd 5ce3 bcbd d947 babc c7e4 b23c
000000b0: d70e 94bb 79ae d93c a4fc 633b 291c e4bc
000000c0: 7a6a bebd ef3b 583d 538f 1ebc 2990 83bd
000000d0: d38d 403d 2261 ec3c 6cbb 6d3d afed 8b3d
000000e0: 98be 9abd fe0f 0c3d c0a0 873d 384e e23c
000000f0: 0848 8e3d b07c debd 565e 0ebd 3c4a 003d
00000100: ba17 d3bb 1282 c73c a7ca 2e3c 2fbd 2939
00000110: ceb1 d43d 9c41 08bd 9796 58bd c7d7 22bb
00000120: 6477 093d 98f7 0fbd f757 92bb 5502 44bc
00000130: e6eb 073c 2e95 89bd 4170 a63c 40b5 783b
00000140: 6b9e c93c 9874 65bc a179 9cbd eb82 7c3d
00000150: a1d1 14bd 6908 44bd 7e45 81bd cd03 223d
00000160: bce7 5f3d 9857 b1bd 64d5 89bd f33d 123d
00000170: 4ce0 3b3c 414d 3f3d bdd6 4ebd 6020 36bc
00000180: 2b05 413d a228 bb3d b2e6 d4bb 088d ab3d
00000190: 7772 893d 63dc 6ebd f05a 2dbd 5355 da3b
000001a0: 7e2f c2bd bc0e 0b3d 6742 373d 6517 5f3d
000001b0: 9be9 5b3d bfd0 4bbd cefc 153d bb6a 51bd
000001c0: df90 90bc a6e1 18bc cf9e e9b9 f23d c3bd
000001d0: 8e1c 7abc f205 4a3d 2108 47bd afec fd3c
000001e0: a226 1ebd 1a6f c33c 6b09 34bd d486 9a3d
000001f0: f0a8 15bd 85fd 84bc 5e06 d93c 3efd d4bd
-0.05818113 -0.076447144 0.09211211 0.011025121 -0.073369436 0.0145888245 -0.044642255 -0.0117552
-0.053299595 0.015227801 -0.03886553 0.087873705 0.046004333 -0.0846542 0.015037741 0.03765941
0.0049365056 0.0848095 -0.04750319 -0.0404641 -0.07204066 -0.04115041 -0.04933987 -0.07773777
0.016220573 -0.07057979 -0.031399913 -0.031222435 -0.042560697 -0.024860997 0.04468191 0.014910023
-0.04011692 0.06642322 -0.0015904504 -0.07933376 -0.075582296 -0.00023562036 0.06915379 -0.07193883
-0.06769758 -0.09223053 -0.022739338 0.021837605 -0.0045183706 0.026572453 0.0034788037 -0.027845459
-0.092976525 0.052791532 -0.009677726 -0.06423981 0.047010254 0.02885491 0.058040068 0.06832444
-0.07555884 0.03419494 0.066224575 0.027625188 0.069473326 -0.10863626 -0.034757935 0.031320795
-0.0064420374 0.024354015 0.010668433 0.00016187572 0.10385476 -0.033265695 -0.05287799 -0.0024847852
0.033561125 -0.035148233 -0.0044660526 -0.011963447 0.008295989 -0.06717907 0.020317199 0.003794983
0.024611672 -0.014004849 -0.076403864 0.06164829 -0.03633273 -0.047859583 -0.06312083 0.039554406
0.05466436 -0.08659285 -0.06730154 0.03570361 0.011467051 0.046704534 -0.05049776 -0.011116117
0.04712407 0.091386095 -0.0064972276 0.08376509 0.067112856 -0.058315646 -0.042323053 0.0066630035
-0.09481715 0.0339496 0.04474106 0.05446567 0.05368958 -0.049759623 0.036618046 -0.051127177
-0.017647205 -0.0093311425 -0.00044559545 -0.095332995 -0.015265597 0.049322076 -0.048591737 0.030996649
-0.038611062 0.023856688 -0.043954294 0.07545248 -0.036538064 -0.016234169 0.026492294 -0.103998646

weight f4 [20, 128]
00000000: 0cfb 813d c5ba 823d cc1c ae3d 7b4f 2b3d
00000010: b23a 59bd f7cc 38bb 000a 7abd a833 95bc
00000020: 617f 923d 1dd0 883c b98e 2cbb 387b 5d3d
00000030: 7ff9 2e3c be27 3fbc 2ac9 923c 11db 87bd
00000040: 7e11 c03b d59f 803c bc00 a13c e67f 2cbd
00000050: 97cc 4b3d 4b8f 9c3c f274 8abd cc65 f7bc
00000060: 77c3 48bd 63cc 083e e330 2abd f504 6d3d
00000070: 63aa eb3d 2af3 10bd a400 ebbc ddec 9d3d
00000080: db19 9bbd 26a8 08bd 42b5 5fbd df68 05bd
00000090: 0d93 a13d 7122 4bbc 3a65 693c ba98 243d
000000a0: 5bca d43a 14a0 22bd 50bc d53d 66f8 113d
000000b0: 5744 e13b dfbe 8c3d c304 39bd 5ebf afbb
000000c0: e551 dbbd 2a95 18bc aa2b 523c 1c2c 773d
000000d0: 5667 e8bb ddfc b8bc 848c d4bc 4b5a bf3d
000000e0: 4d63 3abd 5454 b13c 9f21 533d c68b 52bd
000000f0: 3ad4 f9bc d613 8ebd bb4c 39bd b45a 9b3d
00000100: 82a7 36bd d663 3dbd acb6 a53d c412 57bd
00000110: ddae f13b 219a 10bd bd09 c63c 2fa4 0a3d
00000120: 1a91 53bd c4c6 b03c 1c37 b23d 8980 663c
00000130: ba22 85bd 25b1 06bd 3771 af3a 1d6b fe3b
00000140: 5d44 4ebc ad41 6cbc d70f b63d 75d7 80bd
00000150: 330a c1bc 3026 163d ddd0 fc3c fe96 eebd
00000160: 12d2 80bd d969 e53c 3cc7 2f3d d0a0 36bc
00000170: d117 3b3c 5f13 a53d bf15 0ebd 5552 cdbb
00000180: 9b52 2f3a 9cdc 693d dc05 8e3d 0596 30bd
00000190: 0ef4 933d 47b7 b93c 0f59 99bd 3bc8 b8bc
000001a0: 5c04 e23d c78a 07bd 3b3e 3ebd 36c4 7bbd
000001b0: 8e6c 263d 2a09 a0bb 6e10 ff3b 536c b4bc
000001c0: d60c 12bd 36e3 2dbc 9767 4d3c 9505 c8bb
000001d0: 04e1 693d 78be 243d 352d 2cbc 4826 cfbd
000001e0: 28c8 94ba 7d9d b5bc 4d82 143d 43b3 2e3d
000001f0: cb97 85bd 62b1 7e3d 5063 ef3c ad84 5b3d
00000200: 7dfb a3bd 55ad 47bd fb5b 74bd d09d 6c3d
00000210: 7812 e23c acb0 8bbc 009f 03bd 2161 77bc
00000220: 0faf 0c3d f34b 053c 7dfe 143d 017c a33b
00000230: 1793 7abd f54b f7bc e617 e63c 58ca 873d
00000240: b445 89bb 5b02 4fbd 95c5 39bd 5936 cbbc
00000250: 7a0e 1bbd 8d2f 8d3d 3baa 183d f7b4 5c3d
00000260: 1a76 bcbd b6ae cdbd fe17 d2bd f924 55bd
00000270: 2834 c0bd cf94 cfba 4014 63bc 76d1 043d
00000280: 0480 903c fa3a 96bb 60d9 963d 6a93 75bd
00000290: 6a96 403b c727 a83d f0dd 4ebd 2f2b 4bbd
000002a0: 6967 73bd 291a 313c 7535 61bc f790 233d
000002b0: 6f73 9f3d 634b b1bd 392a 963d 4dc5 93bc
000002c0: 58f1 de38 c727 f23d 1395 3bbd 3583 a9bd
000002d0: a810 683d ebb8 b63d 6fc0 1a3c 647f be38
000002e0: 3d2c f1bc 8ada d1ba f1e4 e63a 9106 333d
000002f0: c539 62bd 167b 843c 91f2 913d 3b6b 0e3d
00000300: 65e4 023c 81d0 fcba fe53 0e3b 7c7e acbc
00000310: 56ce 973c 6588 80bd 30f8 843d 4ec4 903c
00000320: 5232 3f3d 56a0 02bc 6b9b 19bd 079c 8dbd
00000330: 2c66 153d 7250 803d 86f4 c23c 409e 553d
00000340: 45ed d13d 40d6 963d 6866 903d eb13 7c3c
00000350: 7b40 8d3d f26f 9bbd e4de 01bd 6342 9b3d
00000360: 1dd7 923c f442 a8bb 5bf6 b33d ac32 913c
00000370: 3a1f 8a3d 6197 033d a43b c73c 902b ba3d
00000380: 26db 663d fc43 83b8 761e 9f3d d1a9 4bbc
00000390: 5cca 3abc bbf9 3a3d b2c3 0f3c cfd1 943d
000003a0: 0ad8 63bd bd99 3d3b 496c 13bd ea79 3dbd
000003b0: 58fd 1ebd b871 85bd aafe 523d 194e 4d3d
000003c0: e60b a5bc 036d e63a ea50 3b3d d750 89bb
000003d0: 74ee 41bd 15b0 52bd 7769 163d c8ad 473c
000003e0: fa24 f9bd 117a 95bd d7ea c73c 96e9 a4bd
000003f0: 0de6 183d af26 803d 7eac 9c3d 4793 8dbc
0.063467115 0.0638328 0.08501586 0.041823845 -0.05303449 -0.002819834 -0.061044693 -0.018213108
0.07153202 0.016700799 -0.0026330187 0.05407259 0.010679602 -0.01166719 0.017918188 -0.066335805
0.00586146 0.015701214 0.01965367 -0.04211416 0.04975566 0.019111296 -0.06760587 -0.030199908
-0.049014535 0.13359217 -0.04155053 0.057866056 0.11507108 -0.03538815 -0.028686829 0.07711194
-0.07573291 -0.033363484 -0.05461622 -0.032570716 0.07889376 -0.012398348 0.014245326 0.040184714
0.0016234623 -0.039703444 0.104363084 0.03563728 0.006874602 0.06872343 -0.045170557 -0.005363389
-0.107089795 -0.009312907 0.012827793 0.0603448 -0.0070923967 -0.022581512 -0.02594591 0.09343394
-0.045504857 0.021646656 0.051545735 -0.05140283 -0.030496705 -0.06937377 -0.04523919 0.075856596
-0.04459334 -0.04623779 0.080914825 -0.05250813 0.0073755817 -0.03530324 0.024174565 0.033847984
-0.05165205 0.021579154 0.087019175 0.014068731 -0.06500764 -0.032883782 0.0013385181 0.0077642337
-0.012589541 -0.014419955 0.0888974 -0.06291095 -0.023564434 0.036657512 0.030861313 -0.11649893
-0.06290068 0.028004574 0.042914614 -0.011146739 0.0114192525 0.08060335 -0.034688707 -0.0062659183
0.00066880294 0.057095155 0.06934711 -0.04311182 0.07224284 0.022670401 -0.0748769 -0.022556415
0.11035988 -0.033091333 -0.046446066 -0.06146642 0.04063087 -0.004883905 0.007783941 -0.02202431
-0.035656773 -0.010613253 0.012536905 -0.006104181 0.057099357 0.040220708 -0.010508825 -0.101147234
-0.0011351155 -0.022169823 0.036257077 0.042651426 -0.06523093 0.062180884 0.02922216 0.053593326
-0.08006952 -0.048749287 -0.059658032 0.05776769 0.027596697 -0.017052017 -0.032134056 -0.015098841
0.034346636 0.0081357835 0.03637551 0.0049891477 -0.061175432 -0.030187586 0.028087568 0.06630391
-0.0041892175 -0.050539356 -0.045354445 -0.024806188 -0.037855603 0.06893835 0.03727172 0.05388352
-0.092022136 -0.10043089 -0.102584824 -0.052037213 -0.09384948 -0.0015837195 -0.013859808 0.03242632
0.017639168 -0.0045846673 0.0736568 -0.059955038 0.0029386529 0.08210712 -0.050504625 -0.04960173
-0.05942479 0.01080946 -0.013745655 0.03993317 0.07785689 -0.08656957 0.07332272 -0.018038416
0.00010630739 0.11823993 -0.045796465 -0.08276979 0.05665651 0.08921989 0.009445294 9.083634e-05
-0.02944004 -0.0016010564 0.0017615837 0.043707434 -0.055230875 0.016171973 0.07126344 0.03477023
0.007989024 -0.0019288213 0.0021717544 -0.021056406 0.018531006 -0.06276015 0.064926505 0.01767173
0.04667885 -0.007972797 -0.037501734 -0.069145255 0.03647439 0.06265344 0.023798238 0.052152872
0.10250334 0.07365084 0.070507824 0.015385608 0.06897064 -0.07589711 -0.031706706 0.07581022
0.01792484 -0.0051349346 0.08787223 0.017724358 0.06744237 0.032126788 0.024320431 0.0909034
0.05636134 -6.25923e-05 0.07769482 -0.012430624 -0.011400785 0.045648318 0.008774685 0.0726658
-0.055625953 0.0028930746 -0.03599194 -0.046258844 -0.038815826 -0.06515831 0.051512398 0.050123308
-0.020147275 0.0017580095 0.045731463 -0.004190545 -0.047346547 -0.051437456 0.036721673 0.012187429
-0.12165256 -0.07298673 0.024403973 -0.080523655 0.03732877 0.06257378 0.07650088 -0.017282141

bias f4 [20]
00000000: 3bdf 6bbd 245f 90bd 1774 b7bc b57a 5dbd
00000010: 14c8 333d 77bc 93bd a32b 593d 403e 3cbc
00000020: fc40 98bc a636 44bd 270c 31bb 74ee 53bd
00000030: ae68 253d d2be 8abd 77f4 4bbd 9334 51bd
00000040: 356f 5d3d 8e29 58bd 9b4c 203b e659 1f3c
-0.057585936 -0.07049397 -0.022394223 -0.0540721 0.04389198 -0.07213681 0.05302013 -0.011489451
-0.018585674 -0.04790368 -0.00270153 -0.05174108 0.040383033 -0.06774677 -0.049793687 -0.05107553
0.054061133 -0.052774005 0.0024459723 0.009726023
