abalone/abalone_NAug_fastSHAP.pt (torch, 85639 bytes, 6 tensors)

weight f4 [128, 10]
00000000: 9372 1b3d aee7 68be c7bf 24be 7258 3ebe
00000010: c405 783d 245f 333e 605c e4bd 559b a53d
00000020: 5b8e 423d 6d70 693b 7d9f 45be 1c86 05be
00000030: 9617 35be a797 5fbe f5b0 0fbe 1833 4ebe
00000040: bbd6 a73e 40e5 91be e75c 1b3d 756d 133e
00000050: b2e8 4abe ef0b 0ebe 1542 5f3d a4cb 11bc
00000060: d496 a53d 3896 4abe 1a56 04be d35c 46be
00000070: 8fde 573e 7ddd c33c 7515 8bbc a72a e3bd
00000080: 77f7 21bd 9aff 34be 17a3 6dbe 56c6 7abe
00000090: 2afc 443d fb44 2bbd a95e 18be 9643 003e
000000a0: a508 983d 8928 743e 8b53 ab3a 7035 dcbd
000000b0: 2380 a23c 794c 823e 04d2 e9be 7a28 653d
000000c0: e4a3 14bd 4dde 963d 8f74 fe3c c421 d13d
000000d0: 26bf 8bbe 5552 eebd ee6d c9be 5143 293a
000000e0: 216e 483e 0c4d 60be 49d5 2a3e 098a 513e
000000f0: 710a f63d 9c02 a0be a9aa a4bd 5b0b 8fbe
00000100: 46cb 24bd 5f40 b73c 3515 23be 6320 18be
00000110: 6b9b 7fbd cabb 42bd c874 b2bd 9292 7ebe
00000120: a6f0 24be e75c 993d 291d 853e 82bb 313e
00000130: 6b7f eb3c bd94 00bc 5a65 733e 18bc 0f3e
00000140: 04b5 df3c dad3 813e 5050 7fbe cbd7 5b3e
00000150: b1fb f33d 79eb 333e 6852 9dbe 4892 6e3e
00000160: 7d40 933d 9bf7 8f3e a06b 9ebd cfd1 053e
00000170: 8981 82be 305d b63d d242 793e 1bcf 15be
00000180: 6c16 bcbe b425 803e 3cf1 2bbe 6a17 84be
00000190: b2f3 e03d ea04 7d3e d259 bb3d ffb0 443e
000001a0: bf2f a23c 2b48 87be 207c 35be 3cf3 d23c
000001b0: 90d2 593e c8c7 22be 35b7 9fbd 761f c5be
000001c0: 8ce9 d2bd f5a8 553d 49a6 5fbe f6b8 7ebe
000001d0: 19ca 87be dfc6 93bc fb68 94bd 10da 00bc
000001e0: 58f2 6e3e 3924 3d3e 05e4 153e 955c 64be
000001f0: 759a adbe d5fc b6bd ff98 bb3d 6df3 73be
00000200: 578b e6bd f8d4 bb3d 72ad e4bd 05ec 78be
00000210: 21ac 82be 24c4 50bd 5e17 2a3e b7fc 033e
00000220: 7ef2 f5be 974c edbd 4ffe 893e a0c9 923d
00000230: 1dc9 ce3d d9aa 673e b8fa 48be 082b 0dbd
00000240: c2e1 1abf 1f67 15be 92b9 8f3d e2a6 0b3e
00000250: 261f f23d 6e5f 8dbe deaa 7fbc c926 ecbd
00000260: c9d5 aabe 73c0 3cbe 5469 063e 7966 353e
00000270: 670b 343e b73f 553d a174 653d afbd 493e
00000280: 9fa4 85be 2f68 b6bc c78d 9e3d b771 c2be
00000290: 2115 783e 9867 fd3d 8625 05bf d3a9 953e
000002a0: b487 903e 9b23 9bbe 1952 75bd 3572 0e3e
000002b0: fc3e 02be f258 a6bc 56a0 b63d c863 02bf
000002c0: ed62 2e3d ea2b 283e 9042 0b3e e707 4abe
000002d0: 6725 773e f4ec 2dbd 711c 4c3d a607 5e3d
000002e0: 5192 ab3c c93b 06be 4323 80bd fb82 453e
000002f0: 0a4a 343e 96ff a7bd 453d 503e 75e7 363d
00000300: 8e79 be3d 434d 473e d357 6cbd bfcb 09bd
00000310: cf16 383e fe61 ed3d 66f9 0bbe 744d 18bd
00000320: 814d 7abe 74b9 853e 7c1c a53d d7dd a2be
00000330: f231 a43e e1f6 2e3e 51e8 4cbe 05ca 21be
00000340: 30ad e13d 0aeb 823e da8a 543e 3b98 ac3e
00000350: 641f fcbd cf96 a93e 442f 08be b9c7 8ebe
00000360: b8a9 a73e 3584 dabd d4f7 4dbe 58bd 033e
00000370: 0572 43bd f36a 3e3d 3990 833e 791e 87be
00000380: ce74 a4be 22f3 89bc 0c2c 853e 736a 81bd
00000390: 55eb e4bd 4ac9 14be 20a0 3bbc a06f 7c3e
000003a0: da7f 2abe 4530 c5bd e089 dabe 049f 823e
000003b0: a60e 9cbc e924 b13c 85e7 10be 5da5 703d
000003c0: cb1b 79be 16a2 9c3e 6dbf 893d a9f6 33be
000003d0: 7b8c b3be 6b06 1abd 6c41 ef3c c151 a63e
000003e0: 615d 24bd 8492 383e ab48 80bd 7b60 263d
000003f0: a0fe 62be 0dbc 84be c247 9ebe 9d52 a9bb
0.037951063 -0.22744629 -0.16088782 -0.18588427 0.060552374 0.17516762 -0.11150432 0.08086268
0.047499042 0.003561999 -0.19299121 -0.1303944 -0.17684779 -0.21835195 -0.14032348 -0.20136678
0.32781014 -0.28495216 0.037930395 0.14397223 -0.19815329 -0.1387174 0.05450638 -0.008898649
0.08085409 -0.19783866 -0.1292347 -0.19371347 0.21080993 0.023909325 -0.016978005 -0.1109212
-0.03954264 -0.1767563 -0.23206745 -0.24489722 0.048092045 -0.04181383 -0.1487986 0.12525782
0.07423524 0.23843588 0.0013071162 -0.1075238 0.019836491 0.2544897 -0.45668042 0.055946805
-0.03628911 0.07366619 0.031061439 0.102115184 -0.27294272 -0.11636797 -0.39341682 0.00064568693
0.19573261 -0.21904391 0.16682924 0.20462812 0.1201371 -0.3125199 -0.08040363 -0.2793835
-0.04023292 0.022369562 -0.15926059 -0.14856105 -0.062404078 -0.04754237 -0.087136805 -0.248606
-0.16107425 0.07488423 0.2599881 0.17356685 0.028747281 -0.007847962 0.23769131 0.14036596
0.027307995 0.25356942 -0.2493298 0.21469037 0.11913241 0.17570294 -0.30726933 0.2329799
0.071900345 0.28118595 -0.077353716 0.13068317 -0.25489452 0.08904493 0.24341896 -0.14629786
-0.36735857 0.25028765 -0.16791242 -0.25799114 0.10983981 0.24708906 0.09147991 0.19208144
0.019798158 -0.26422247 -0.17723131 0.025750749 0.2127173 -0.15896523 -0.07798616 -0.38500565
-0.10298452 0.052163083 -0.21840777 -0.24875244 -0.26521376 -0.018039165 -0.07246586 -0.00786449
0.23334634 0.18470849 0.14637764 -0.22300942 -0.33906904 -0.08934943 0.09160041 -0.23823328
-0.11257046 0.0917148 -0.111658946 -0.24308784 -0.2552195 -0.050968304 0.16610476 0.12889372
-0.4803657 -0.11586874 0.26951835 0.07167363 0.10096953 0.22623767 -0.19626892 -0.034464866
-0.6050073 -0.14590119 0.070178166 0.1363788 0.11822347 -0.2761187 -0.015604703 -0.11530835
-0.3336623 -0.18432789 0.13126117 0.17714871 0.17582475 0.052062716 0.05601943 0.19701265
-0.26102158 -0.022266475 0.07741886 -0.37977383 0.2422681 0.123732746 -0.5201038 0.29231128
0.28228533 -0.30300602 -0.059892748 0.13910754 -0.12719339 -0.020306084 0.089173004 -0.50933504
0.04257481 0.16423002 0.1359961 -0.19729577 0.24135362 -0.042462304 0.04983181 0.054206513
0.020943793 -0.13108744 -0.06256726 0.19288246 0.17606369 -0.08203046 0.20335872 0.04465433
0.093005285 0.19463067 -0.057700943 -0.033641573 0.17977451 0.11590956 -0.13669357 -0.03718324
-0.24443628 0.26118052 0.080620736 -0.31809875 0.32069355 0.17086364 -0.20010497 -0.1579972
0.11019361 0.25569946 0.20756093 0.33709893 -0.12310675 0.3312287 -0.1329928 -0.2788675
0.32746673 -0.10669748 -0.2011407 0.12865198 -0.04771616 0.046488713 0.2569597 -0.26390436
-0.32120365 -0.016839568 0.26010168 -0.06319132 -0.111776985 -0.1452991 -0.011451751 0.24651957
-0.16650334 -0.09628347 -0.42683315 0.25511944 -0.019049954 0.021624045 -0.14150818 0.058751453
-0.24327008 0.30592412 0.06725965 -0.17574562 -0.35068116 -0.037603777 0.029206 0.32484248
-0.040128116 0.18024641 -0.0626386 0.040619355 -0.22167444 -0.2592472 -0.30914122 -0.005167319

bias f4 [128]
00000000: 3977 623e aeca 933e 6612 733e d399 f33d
00000010: ebcc 343e 60ce a4bd 8ed1 453e 3493 733e
00000020: 78f8 9fbe ef31 b2be ef1a 85bd 884f 1c3e
00000030: 54af 85be dcb6 75be 3f0b 2bbe 60d0 383d
00000040: 6339 7ebe db01 2abe e91a 05be 61bc 413e
00000050: f464 013d 1f07 33be 77f3 1f3e 3343 34bc
00000060: 613d 73be 0da0 8cbe 8bcb 8b3e 4e94 513e
00000070: 626b 733e 7796 993c 1bbd 653e 760c 5b3e
00000080: 0f09 2d3d 013b a0be fc33 babd cf39 743e
00000090: dbac 85be f397 853e aaaa 033e 22f2 24be
000000a0: 38d9 313e b7e7 7abe d021 663e 8f3c c6bd
000000b0: fefc 2bbe 0789 e73d 6151 833e b64f 2dbe
000000c0: 4816 34bc b9f2 c63d e460 b5be 5c5b d73d
000000d0: 8dfa 84be ae37 6e3e 5025 febd 9763 92be
000000e0: c4d0 02bb 98f9 943c 0274 533e 7891 30be
000000f0: abd5 e6bd 05fd 013e 1b73 81be acd0 15be
00000100: 50f8 923e a196 acbd 318f dbbc 617d a1be
00000110: ffa1 25bb 74e1 12be cea8 d13d 10db 48be
00000120: 9752 583e 37be 7a3d a2d2 2cbd 3282 acbd
00000130: 8663 2cbe af27 bd3d d2f0 4abe 2b2f 9fbe
00000140: 850c 12be abbe 3fba 5ded ab3d 1413 643e
00000150: f411 1a3e 204d 75be ee48 29be e5b2 783d
00000160: 4740 96be d620 8dbe 804c a2bd 6eda 0fbe
00000170: 61f0 463e 1e1f b83d ed73 28bd dd1b 8cbe
00000180: 0104 503d bf14 b1be 8f8e 31bd 87e4 633e
00000190: dc79 19be b676 adbe a123 0cbe 06b8 1dbd
000001a0: 9f49 0e3e d4bf 22be e03b 003e d71a 4fbe
000001b0: b912 abbe 26b2 82be f6a3 03bd 0bcd dc3d
000001c0: 8f68 9fbe d558 2ebd f738 a9bd 2027 303e
000001d0: beee 8fbd 4180 84bd 5f3c aabe 7b08 6dbe
000001e0: 3d0f 0cbe 0cab 44be d2ed 49be 3be8 51be
000001f0: 3c27 37be fa09 6f3e a982 9bbe 927a 483e
0.22115792 0.2886557 0.23737487 0.11894574 0.17656295 -0.080471754 0.1931822 0.23786622
-0.31244254 -0.3480372 -0.06499278 0.15264714 -0.26110327 -0.23995537 -0.16703509 0.045120597
-0.24826579 -0.1660227 -0.12998547 0.18919517 0.031590417 -0.17483185 0.15620218 -0.01100235
-0.23753883 -0.2746586 0.27303728 0.2046673 0.23771432 0.018748505 0.2243542 0.21391472
0.042244967 -0.31295016 -0.090919465 0.23850177 -0.2610844 0.2609249 0.12858072 -0.16107991
0.17368019 -0.24502455 0.22473836 -0.096795194 -0.16795728 0.11305433 0.25648025 -0.16924939
-0.01099164 0.097142644 -0.35425484 0.10515472 -0.25972405 0.23263428 -0.124094605 -0.28591606
-0.001996086 0.018185422 0.20649722 -0.17242992 -0.11271223 0.12694176 -0.2528313 -0.14630383
0.28705072 -0.08427168 -0.026801677 -0.3154097 -0.002527356 -0.14343816 0.10237275 -0.19614816
0.21125256 0.06121656 -0.042193063 -0.0842327 -0.1683484 0.09236085 -0.19818428 -0.31090674
-0.14262588 -0.00073144835 0.08394883 0.22272903 0.15045911 -0.23955202 -0.16531727 0.060717482
-0.29345915 -0.27564114 -0.079247475 -0.14048168 0.19427635 0.0899031 -0.04112618 -0.27365008
0.05078507 -0.3458614 -0.043348845 0.22255145 -0.14987892 -0.33879632 -0.13685466 -0.038505577
0.13895272 -0.15893489 0.1252284 -0.20225082 -0.33412722 -0.2552654 -0.032138787 0.10781296
-0.3113446 -0.042565186 -0.08262818 0.17202425 -0.07027958 -0.06469775 -0.33249184 -0.23147766
-0.13677688 -0.19205874 -0.19719627 -0.20498745 -0.1788606 0.2334365 -0.30373123 0.19578007

weight f4 [128, 128]
00000000: b5de 333d ccad 1d3b 3ec6 82bc b994 aabd
00000010: 4aa8 dabc 5377 cbbc 6d51 e73c f042 c0bc
00000020: 2489 13bd 5d7a c03d f43b 82bd dc2f 45bc
00000030: a80c d33d a30a 11bb c251 c1bd ad28 f73c
00000040: 16b4 a9bd edbd 45bd 24d3 c73c fa2b c63a
00000050: 599f 7dbc 11d8 a93c 5f2a 943d 7afd 163d
00000060: a4a7 e4bd 84fd 8e3d 982a 77bd ac11 8e3d
00000070: 1c29 a2bd eff3 f93c 40ba 6b3b f702 c7ba
00000080: 2ad1 9d3d 6d6e 39bd 4266 a3bc 398c 2fbc
00000090: 753a 553d 7777 9ebd 452f 43bc 949d f6bc
000000a0: ee10 803d 32d9 82bb 2fcf 9d3d 96d7 34bd
000000b0: e1b8 69bd 5cd1 d03b e154 1d3d 3a4f ae3c
000000c0: 1065 863d 7e63 2b3d 21e3 b8bd c836 56be
000000d0: 1f27 8ebd d48d 22bc 7db0 3c3c d136 aebd
000000e0: f33a c23c 30ea bcbc 66ae 22bd ce62 363d
000000f0: bb8f 85bb 0e76 083d 1df9 7f3d 13c0 e1bd
00000100: 0bcd bdbb 4ecd 823d f53b 6b3d a577 193d
00000110: ad32 fd3c 0a1c 8ebb 8135 9c3d 0b7d 95bc
00000120: 793a 9b3d 2121 f63c 7510 92bd ddec 3cbc
00000130: 2edd aa3d 5486 59bc df44 3a3c f0cb 19bd
00000140: 8c97 9ebc 800e 9ebd cbd0 81bd 753a 503c
00000150: 621e 543d e210 0e3c d108 c53c fdd8 0abc
00000160: 1f45 81bd d097 293d 6eda 033d afce 1e3d
00000170: 4df8 2c3c e504 23bc 6b76 493d b534 47bd
00000180: 666b a7bd c59a 3abc edd4 df3c bcb9 3f3d
00000190: 17df b5bd 4056 55bd 853c 03bd e9da d43c
000001a0: 8c62 9fbd 5568 58bd adef 7cbd 1964 c4bd
000001b0: 8508 8cbd 1fed eabb fdf7 043d 461a 25bd
000001c0: ca79 edbc 776e dd3d 2a28 b23c 2687 88bd
000001d0: 331d bebd 3b9f 803d 97c4 d93c 8d7f 19bd
000001e0: 6472 303d 1f58 023e 4ec2 4abb a5ef 7abd
000001f0: 86bd 8fbc a079 a5bd 4e91 303c 8d88 133d
00000200: a6a4 913d 9cf8 83bd f609 52bc 9915 84bc
00000210: 8221 17bd c0c0 43bc a350 643c 7872 253d
00000220: c034 963c dae7 19bd 3b2a cabc 3c0e 4abd
00000230: 12c2 8ebc 8c57 68bb 5cee 33bc 0378 c73d
00000240: 3057 26bb bffb ecbc 553f dcbd e8b1 4ebd
00000250: f7c8 b2bd c963 5bbb e7df ad3b c502 30bd
00000260: e6a2 b5bd c953 dcbc cccb db3c aba9 333d
00000270: dd44 c3bd 6495 f63c dc05 51bd c575 25bd
00000280: 4a81 83bd 3b21 263d 1e11 3f3d 2e3d a4bd
00000290: 0089 cebb 97ae b63d 5195 babc 4425 0dbd
000002a0: e32b 833d 740b 1a3d 8779 673d 8a62 bdbd
000002b0: e864 e93c 16cd 1cbd 4883 a73c ed30 403d
000002c0: 66ac 9b3d f726 b1bd 7753 983d bece 9bbc
000002d0: 9932 c1bd 826c c93c 216f 4bbd 3964 bfbd
000002e0: baa7 9dbd eb86 6cbd b50e 9bbd 661a 6d3d
000002f0: f7d2 883d 3b36 953c be76 f63c a85b b4bd
00000300: 2659 a3bd cd93 97bd 113e 9c3a 2a65 8cbd
00000310: 3a89 d23c 3558 b23c 63b2 3abd e08c 62bb
00000320: a1c3 22bc 2b17 a2bc 6409 0e3d 9741 2c3a
00000330: 42c0 4f3c 5ebd 1cbd f56a 283d 9e25 1abd
00000340: d719 233d ef54 25bd b4a4 813c 1051 15bd
00000350: 2925 14bd d14a 983d d93b 733c 822d a5bd
00000360: b766 e9bc 70d2 b9bd 5b85 fc3c 5a31 a5bd
00000370: 3ac1 453c 9ea7 acbb 5c7a 64bd 012f 98bc
00000380: 1521 27bd 839c 933d 2bb3 9c3d b5fa 253d
00000390: 0ac4 6c3b 8f6b 633d 1be7 a2bc 1f5a 7cbd
000003a0: d5b6 b8bd 955d 9b3c a938 94bd 6595 ffbc
000003b0: b140 8dbb f857 3b3d a84d 043d e10f 673b
000003c0: 1fcf 263c 092e 2ebd bda3 1ebd 85e5 cfbc
000003d0: 372c 1b3d 5235 9d3c 32ee 623d c161 2cbd
000003e0: 4730 debd 689a c7bd 7c9b 97bd 2e6d f4bd
000003f0: 3e9a 80bd 5d35 1dbd 52a2 05bd db10 c2bb
0.04391356 0.002405989 -0.01596367 -0.08329148 -0.026691575 -0.024837172 0.028237069 -0.023469418
-0.03601946 0.09398339 -0.063590914 -0.012035336 0.10305148 -0.0022131584 -0.09439422 0.030170763
-0.08286302 -0.04827683 0.024392672 0.0015119307 -0.015479886 0.020732911 0.07234644 0.036862828
-0.111647874 0.06981948 -0.060343355 0.069369644 -0.07917997 0.030511824 0.0035969168 -0.0015183379
0.077059105 -0.045271326 -0.019946221 -0.010714584 0.052057702 -0.0773763 -0.011913125 -0.030104436
0.06253229 -0.003993177 0.07705533 -0.04415091 -0.05706108 0.006372614 0.038411025 0.021278013
0.06562245 0.04184293 -0.090276964 -0.20919335 -0.069410555 -0.00992151 0.011516687 -0.08506549
0.02370975 -0.023060888 -0.0397171 0.04452782 -0.004075972 0.03331571 0.062493432 -0.110229634
-0.0057922653 0.06386815 0.057430226 0.037467618 0.030907953 -0.0043368386 0.076273926 -0.018248102
0.07579512 0.030045094 -0.07132045 -0.011531082 0.08342968 -0.013276655 0.011368959 -0.037548006
-0.019359373 -0.077176094 -0.06338652 0.01270925 0.051786788 0.008671017 0.024052056 -0.008474586
-0.06312012 0.041404545 0.032190733 0.038771328 0.010557246 -0.009949897 0.049185198 -0.04863425
-0.081747815 -0.011389439 0.02732321 0.04680799 -0.08880442 -0.052084208 -0.032040138 0.02598329
-0.07782468 -0.052833874 -0.06175201 -0.095894046 -0.068375625 -0.0071693803 0.032463063 -0.04030826
-0.028988738 0.10812085 0.021747667 -0.066664025 -0.09282913 0.06280371 0.026583 -0.037475158
0.04307784 0.12728928 -0.0030938569 -0.0612637 -0.017546427 -0.08079839 0.010776831 0.036018897
0.07111482 -0.06443903 -0.012819758 -0.01612358 -0.03689719 -0.011947811 0.013935241 0.04039237
0.0183357 -0.037574627 -0.02467834 -0.04932998 -0.017426524 -0.0035452573 -0.010982122 0.09739687
-0.0025381558 -0.028928636 -0.10754267 -0.050462633 -0.08729737 -0.0033476225 0.0053062323 -0.04297139
-0.08868961 -0.02689542 0.026830576 0.04386298 -0.09534619 0.030100532 -0.05103098 -0.040395517
-0.06421144 0.040559035 0.046647184 -0.080194816 -0.0063029528 0.08920019 -0.022776278 -0.034459367
0.06404855 0.03760858 0.056512382 -0.092473105 0.028490499 -0.038281523 0.020448342 0.04692166
0.07601242 -0.0865001 0.07437795 -0.01901948 -0.09433479 0.024587873 -0.049666528 -0.09345288
-0.07698007 -0.057745855 -0.075711645 0.057886504 0.06680863 0.018214336 0.030085918 -0.088065445
-0.07975988 -0.07401238 0.0011920353 -0.06855233 0.0257002 0.021770576 -0.04558028 -0.0034568831
-0.009934337 -0.019786438 0.034676924 0.0006571053 0.012680115 -0.038266532 0.041117627 -0.03763353
0.039819565 -0.040364202 0.015825607 -0.03645426 -0.03616825 0.07436145 0.014845812 -0.080653206
-0.028491361 -0.09073341 0.030825308 -0.08066054 0.012069995 -0.005269005 -0.055780753 -0.0185771
-0.040803034 0.072075866 0.07651361 0.040522296 0.003612759 0.055522498 -0.01988559 -0.061609384
-0.090192474 0.018965522 -0.072373696 -0.031199167 -0.0043106903 0.04573819 0.03230062 0.0035257267
0.010181217 -0.04252437 -0.03873037 -0.025377998 0.037883963 0.019190464 0.055402942 -0.042085413
-0.10849052 -0.097462475 -0.07402703 -0.11934887 -0.06279419 -0.03838097 -0.032625504 -0.0059224195

bias f4 [128]
00000000: dca5 043d e9bc 07bd 5110 8f3c f937 3ebd
00000010: 5384 89ba ad7d 90bd 0aa8 18bc 9f04 ab3c
00000020: b5e0 7a3d 1ea7 63bd b68b 153d 2cc5 d4bd
00000030: 03a4 7dbd dd08 b63d fd01 f1bc 0301 1d3c
00000040: 3ea9 c5bc 2fe2 64bd 9391 52bd 5e4e 24bd
00000050: 3bb2 c7bd 85cc 75bc ca5d ac3d 26f9 a5bd
00000060: a838 81bd 46be aebd 0674 8cbd 0912 b7bc
00000070: 6dfb 6abd a94c dcbd 2e22 393b 4504 e2bd
00000080: 5851 163d bcdb 403d dfb7 113d b477 e43c
00000090: 8fe9 6ebd eedc 0abc 66ab 243d e80f 223d
000000a0: eb97 913b 78cb acb8 20b1 e5bc c5fc d73c
000000b0: b45b 3fbd c489 f7bc 5ab1 c2bd 262d 2a3d
000000c0: 601e b53d bded 24bd d1ec aabc 0ec5 5e3d
000000d0: 16be 193d c7d7 143c 9795 a3bc 2b1e 56be
000000e0: 86ef 6bbd 3fa5 563c 703f 53bd 4f7c 523c
000000f0: 0144 643d 9039 9e3c 3b81 fabc f05b 74bc
00000100: 8c15 82bd c1f5 953b 317d 913d 5118 183d
00000110: f58c e2bc 1f32 f0bb ea1f b3bd 66d3 263d
00000120: 02be a83d acc4 ca3d faee 953d c373 023d
00000130: 198b 19bd fe47 dd3d 82dd 7f3d f53c cc3d
00000140: 066b a4bd 3cc1 47bc 09be f53c d594 54bc
00000150: 36dc 353d 01d3 eb3c ab46 43bc 344f 87bc
00000160: 7e10 96bd cea4 81bd 419f 11bc 8147 a0bd
00000170: 14e0 483d 4c26 c4bc dca4 5cbd ec05 38bc
00000180: 5357 b1bb d959 d0bd 7bba bbbd 89a8 7abb
00000190: ade4 a73d 0567 63bb e5a6 11bb e2c9 05be
000001a0: 986a 2a3d 9ac1 0dbd 9469 6bbd 1deb 4f3b
000001b0: 0930 1b3d 50b3 cabd 5b5c 58bd a689 9fbc
000001c0: 9f6b 4dbd cea0 563b 84b4 09bd bcd2 85bd
000001d0: 6100 edbc ff82 04bd 9bdc bb3d df7f 43bd
000001e0: 5770 32bc 69a2 c23c a205 083d 04a9 7dbc
000001f0: 9e28 483d eea7 86bc d95f f3bc 92a3 603d
0.03238474 -0.033139143 0.017463835 -0.0464401 -0.0010491706 -0.07055221 -0.009317407 0.020876227
0.061249454 -0.055579297 0.03651019 -0.1038917 -0.061923992 0.08888409 -0.029419893 0.009582761
-0.024128553 -0.055879768 -0.05140836 -0.0401138 -0.09750792 -0.015002375 0.08416326 -0.08104162
-0.063096344 -0.085323855 -0.06858067 -0.022347467 -0.057368685 -0.10756809 0.0028249132 -0.110359706
0.03669867 0.047084555 0.035575744 0.02788911 -0.058328208 -0.008475525 0.04020252 0.03956595
0.004443159 -8.239498e-05 -0.028038561 0.026365647 -0.046718314 -0.030217059 -0.095064834 0.041546963
0.08843684 -0.040265787 -0.020864876 0.054387145 0.037534796 0.009084648 -0.019968791 -0.20909946
-0.057601474 0.013100921 -0.05157417 0.01284702 0.055728916 0.019314557 -0.0305792 -0.014914498
-0.06351766 0.0045764153 0.071039565 0.037132565 -0.027655104 -0.0073301936 -0.087463215 0.04072895
0.08239366 0.099007934 0.07320972 0.03184868 -0.03748617 0.10804747 0.062467106 0.09972564
-0.080282256 -0.012192067 0.029997842 -0.012974937 0.044399463 0.028787138 -0.011918704 -0.01651726
-0.073273644 -0.06330262 -0.008888067 -0.07826138 0.049041823 -0.023944043 -0.05386816 -0.011231881
-0.005412021 -0.10173387 -0.09166428 -0.0038247427 0.08197913 -0.0034698856 -0.002222472 -0.13065293
0.041605562 -0.03460846 -0.057473734 0.0031725832 0.037887607 -0.098974824 -0.052822452 -0.019474816
-0.050151464 0.0032749656 -0.03361942 -0.06534335 -0.028930845 -0.03235149 0.091729365 -0.04772937
-0.010891042 0.023759084 0.033208497 -0.015482191 0.04886686 -0.016437497 -0.02970879 0.054843493

weight f4 [20, 128]
00000000: db68 96bc 5d3d b23d ebf7 9c3c ffe1 c73b
00000010: 7d52 543c 678f 203c a0ac 833c 1463 913d
00000020: 774d 0abd a297 2b3d 4438 513d b04a e03d
00000030: fc53 36bd f231 8f3d f6d9 1c3d 966c 20bd
00000040: 902d f73c 304c 6bbc 2a6a 873c 057d 53bd
00000050: a417 343c d5ef 6bbd f889 9dbd 8021 90bd
00000060: 9c67 b73c 238a 673c 892d fc3c 7031 7b3d
00000070: 2c1a 3abb ae8a abba 393d a53d 3c07 a63c
00000080: 2fbf 26bd d39d b43c 050b 363b ecdd 6ebd
00000090: 5c55 443d 1e6a 81bd 50ce 84bc b0d4 e9bc
000000a0: 7ad4 1bbd 31c7 8439 7414 54bd 9100 573d
000000b0: 1946 133d 3a6c 76bb 2787 da3c bdac f6bd
000000c0: 7c92 35bb 5761 573d adad c0bb 7680 58bd
000000d0: 4996 953c b737 873c c347 19bd 02eb b83d
000000e0: efd3 8f3c dbd5 e13c 46af 113d da0a 4fbc
000000f0: d19d ecbc ff6b 6fbc 2123 91bc 4a70 973d
00000100: 4679 6b3d 6446 7f3d 3c13 e5bb b0ee 9d3d
00000110: 778f b4bc d742 ad3b 0db0 393b 917b b23d
00000120: 37a2 333d 1f7b 7dbd f92c 4b3c ece9 92bd
00000130: 0ea3 bfbc b3ae 073b 549b 873d a1b3 a4bd
00000140: 7972 8fbd 04ff 863d 6bc8 663c f8ce 153d
00000150: 5faa e4ba 2f08 4fb9 0ae4 6d3d b2a3 6b3d
00000160: c71a a63d 14ea a93c bd8e 63bc fc95 b13c
00000170: ee4c 9e3c 985e 1ebd f5bf 6139 4851 7cbd
00000180: 74b3 04bd 7811 a8bd aec2 89bd 99a7 723d
00000190: 3186 a83b a9a1 82bc 4bfe 193c fb82 09bd
000001a0: d8d5 e43c de92 b53c 0c8e 52bc 3c4e 88bc
000001b0: 1fed 8f3c ec4a 613d 16b6 20bd 0c3a 88bd
000001c0: cd7b 56bc 494a 863d 22e4 90bd 11b9 76bd
000001d0: ccec b43c ad0c 923c eb85 56bd e70c 93bd
000001e0: 9e84 ab3d eecd 043c ebe5 87bd 8316 023b
000001f0: c184 06bd 1fe4 733d 4374 c6bd e48e 59bd
00000200: b6c4 b4bb b561 003c 0c04 d03c d991 4ebd
00000210: af03 c439 33ab 1cbd 2b77 193c 36be 80bd
00000220: b7ec 963d 5bda 06bd e2c6 873d 66a7 88bd
00000230: b151 433c c7e9 2c3c aa6f 4bbd 0910 75bd
00000240: 3504 9ebc 83a2 1b3d de70 153d 21c9 f83c
00000250: c41a 563d 8c50 4e3d c63f 013d 4283 58bc
00000260: 4e48 a8bd e1b9 4cbd 93db 4cbd a122 7ebd
00000270: 8566 323d 6ea6 783d 1416 82bd 08d1 453d
00000280: d33a 27bd 4431 11bd 1865 9abc df9f 4a3d
00000290: 4f09 3ebd 7cbc 8b3d 4928 713d 3ebf b33d
000002a0: 6f5e f43c 2d86 823d 781c 0bbd 39d1 a2bd
000002b0: b491 043d f348 8b3d 386f a2bc 6816 ec3d
000002c0: a751 a73d e6e3 9c3c 968d 14bd bffc fd3c
000002d0: 397e ccbb 7f32 b7bc a13e 533d bee1 9fbd
000002e0: 9aa6 82bd 8239 05bd 44b9 813c 7bb7 89bd
000002f0: b08d ba3d c056 4ebd 5cf7 5f3d 0b03 80bd
00000300: ab60 b5bc 0453 7abc 5094 4a3d 7954 e3bc
00000310: 232a 173d 5a6a 66bc ac13 3e3d df73 dcbd
00000320: 7864 f53c 5df8 453d 5945 04bd 80de 8a3d
00000330: 8b5b 323b 2456 793d e50b 4c3d 32d4 8e3d
00000340: cca9 94bd db4b eebc bce4 ccbb a5fc 68bc
00000350: 38a1 8abd f50d 323d 73fa 973d 1d1f 513d
00000360: dfeb a6bd 27c6 29bd e7cf 623c efaf 2c3b
00000370: ddac 6939 e0b2 10bd 94e9 643d 9f84 f3bc
00000380: 3528 283d 51dd 5e3d 307e 543d 92f4 b9bc
00000390: 606f fa3c e02c cd3c 5c6a 9cbc ea6e 87ba
000003a0: c349 afbb 73ed 583c b948 ff3b ca1a 2fbd
000003b0: 4ebb 9b3d 967f 4f3c e2bf f5bc f77c a03d
000003c0: fee9 f2b8 19d1 4bbd 615d 033c 4d7e 813d
000003d0: 9756 1e3c d838 8a3d 7ec4 903d 57dd 283c
000003e0: 83f1 e6bc ad59 f13c f31d 8abc 604f 023d
000003f0: cb35 7c3c 4912 afbc 3597 edba 446c 52bd
-0.018360546 0.0870311 0.019161185 0.006099939 0.01295912 0.009799815 0.016073525 0.07098976
-0.033765282 0.041892655 0.05107905 0.109517455 -0.044513687 0.06991948 0.0382938 -0.039166056
0.030173093 -0.014361426 0.016530115 -0.0516329 0.0109919645 -0.05760177 -0.07692331 -0.070376396
0.022388272 0.014132055 0.030783432 0.061326444 -0.0028396947 -0.0013087594 0.08068318 0.020267121
-0.04070967 0.022047913 0.0027777564 -0.05831711 0.047932968 -0.06319068 -0.016211659 -0.0285438
-0.03804443 0.0002532541 -0.051777318 0.052490775 0.035955522 -0.003760113 0.026675774 -0.12044666
-0.002770572 0.052583065 -0.0058800788 -0.052856885 0.018260138 0.01650606 -0.037421953 0.09029199
0.017557113 0.027567795 0.035567544 -0.012636865 -0.028883846 -0.014613151 -0.017716946 0.07394464
0.057488702 0.06232299 -0.0069908183 0.07711542 -0.022041066 0.005287509 0.0028333694 0.08714975
0.043855872 -0.061884996 0.012400859 -0.07173523 -0.02339318 0.0020703494 0.06621423 -0.08042074
-0.07004256 0.06591609 0.014085869 0.036574334 -0.0017445794 -0.00019744107 0.058078803 0.05752916
0.08110576 0.0207415 -0.013889012 0.021677963 0.019323792 -0.03866443 0.00021529182 -0.061600953
-0.032397702 -0.08206457 -0.06726585 0.059241865 0.00514295 -0.015946226 0.009399007 -0.03357218
0.027934 0.022164758 -0.012851249 -0.016638868 0.017569123 0.05500309 -0.03923615 -0.066516966
-0.01309104 0.065571375 -0.07074763 -0.060235087 0.02208557 0.01782831 -0.052373808 -0.07180195
0.08374904 0.008105738 -0.0663565 0.0019849844 -0.032841448 0.059543725 -0.09690144 -0.053114787
-0.005516614 0.007835795 0.025392555 -0.05043206 0.00037386778 -0.038249206 0.009366791 -0.0628628
0.073693685 -0.032923084 0.06629731 -0.06672554 0.011921332 0.010553784 -0.049667038 -0.059829745
-0.019289115 0.03799678 0.03648459 0.030369343 0.05227162 0.050369784 0.03155496 -0.013214888
-0.08216916 -0.049981955 -0.05001409 -0.062044743 0.0435548 0.060705595 -0.06351867 0.04829505
-0.040827584 -0.035447374 -0.018847033 0.04946887 -0.046395596 0.0682306 0.05887631 0.08776711
0.029830186 0.06373248 -0.033962697 -0.07950062 0.032365516 0.06801023 -0.019828424 0.11527711
0.08169871 0.01915164 -0.03626784 0.031004308 -0.006240633 -0.022362946 0.0515734 -0.07806729
-0.06379433 -0.032525547 0.015835412 -0.06724449 0.09109056 -0.0503757 0.05467926 -0.062505804
-0.022140821 -0.0152785815 0.049457848 -0.02775024 0.03690542 -0.014063442 0.04640548 -0.10764288
0.029955134 0.04833256 -0.032292698 0.0678072 0.0027215208 0.060873166 0.04981603 0.06974067
-0.07258949 -0.029088905 -0.006252853 -0.014220391 -0.06769031 0.04347034 0.07420816 0.051055063
-0.081504576 -0.04144874 0.013843513 0.0026349982 0.00022285008 -0.03532684 0.05588682 -0.029726325
0.04105397 0.054410283 0.051878154 -0.022699628 0.030570686 0.025045812 -0.019093685 -0.0010332738
-0.0053493693 0.013240206 0.0077906516 -0.042750157 0.07604085 0.012664696 -0.029998723 0.07836335
-0.00011583044 -0.049759958 0.008017869 0.06322918 0.009664199 0.06749123 0.07068728 0.010306678
-0.028191334 0.029461706 -0.016859984 0.03181398 0.015393685 -0.021371024 -0.0018126728 -0.05137278

bias f4 [20]
00000000: 9d2f 62bd f3ac 35bd d422 66bd 42d6 d53a
00000010: f520 f4bc 3ed5 dabc a1e6 36bd ca1d f8bc
00000020: 4e95 6e3c e8d4 823b b630 2dbd ecd1 2dbd
00000030: 9e29 673c 6150 7e3b 065d 11bd 4f4d 44bc
00000040: ff4d eabc ee82 f1ba 4bb3 23bd def3 fdbc
-0.05522119 -0.04435439 -0.05618556 0.0016314464 -0.029800871 -0.02671301 -0.04465354 -0.030287642
0.014561964 0.0039926656 -0.042282782 -0.042436525 0.014109043 0.0038805234 -0.035489105 -0.011981322
-0.028601645 -0.0018425861 -0.03996591 -0.031000074
