abalone/abalone_30_ffastSHAP.pt (torch, 86655 bytes, 6 tensors)

weight f4 [128, 12]
0	0xbd897dd3	-0.06713452
1	0xbe80bcf8	-0.25144172
2	0x3db491f0	0.08816898
3	0xbe601a18	-0.21884954
4	0x3e7bf016	0.24603304
5	0x3e2072ff	0.15668868
6	0xbd1159ea	-0.03548614
7	0x3e50a48c	0.2037527
8	0x3c79f356	0.01525577
9	0xbe298eba	-0.16558352
10	0x3c9c57a9	0.019084768
11	0xbdeb4e68	-0.11489564
12	0x3e2139e9	0.15744747
13	0x3e44b057	0.19207893
14	0x3e3ec27d	0.18628879
15	0x3dbe8b01	0.09303857
16	0xbe01278d	-0.12612744
17	0xbe79e22b	-0.24402682
18	0x3cc7ff5e	0.02441376
19	0xbe313f41	-0.17309286
20	0x3e1319eb	0.14365356
21	0xbcd72582	-0.026263002
22	0x3e5cd48b	0.21565454
23	0xbe587ec9	-0.21142115
24	0xbda7133b	-0.08157965
25	0x3e95132b	0.29116186
26	0xbe2472a3	-0.16059355
27	0xbdfb0d0e	-0.12258349
28	0xbe61f68e	-0.2206671
29	0x3dd35f90	0.103209615
30	0xbe616d09	-0.2201425
31	0xbe13966b	-0.14412849
32	0x3da55195	0.08072201
33	0xbe520a8d	-0.20511837
34	0xbd9a8ed3	-0.07546773
35	0xbe921c80	-0.2853737
36	0xbe7d7eee	-0.24755451
37	0xbe5dbe39	-0.21654595
38	0x3d94f048	0.072723925
39	0xbe166174	-0.14685613
40	0xbeb8d158	-0.36097217
41	0xbdf0cd11	-0.11757863
42	0x3e0fb130	0.14032435
43	0x3e1e55e9	0.1546246
44	0x3e8e788f	0.27826354
45	0xbdce77be	-0.10081433
46	0xbd540b4e	-0.051768593
47	0xbe0303c2	-0.12794402
48	0xbdf42443	-0.11920979
49	0x3dac86a7	0.084241204
50	0x3d1767c9	0.03696421
51	0xbe286492	-0.16444615
52	0x3e9c1f1d	0.30492488
53	0x3db3eb88	0.087851584
54	0x3e6c1d7c	0.23058122
55	0xbe208a49	-0.15677752
56	0x3df9dd61	0.12200428
57	0x3e392780	0.18081474
58	0xbe1f3f80	-0.15551567
59	0xbdc530c6	-0.096284434
60	0x3e661d70	0.22472167
61	0x3d89aa32	0.06721915
62	0x3e076c8c	0.13225001
63	0xbcfe39f7	-0.0310335
64	0x3e8486b6	0.25884026
65	0x3e631b63	0.22178416
66	0x3c12173a	0.00891667
67	0xbe8ea8c1	-0.27863124
68	0x3e363e43	0.17797188
69	0x3e16d6aa	0.14730325
70	0xbe0df5d3	-0.13863306
71	0xbc8e05b1	-0.017336698
72	0x3e37a1e3	0.17932849
73	0x3e1592a9	0.14606728
74	0xbe5225c2	-0.20522216
75	0x3e00ad36	0.12566075
76	0x3d40d00d	0.047073413
77	0x3d433f4b	0.047667783
78	0xbec844d7	-0.3911502
79	0x3d837e36	0.06420557
80	0xbca5abb4	-0.020223476
81	0x3d9496b2	0.07255305
82	0x3dcce005	0.10003666
83	0xbc027ff9	-0.007965081
84	0xbdf6c432	-0.1204914
85	0xbe4a4d64	-0.19756085
86	0x3e3d382b	0.18478458
87	0xbd77e24a	-0.06051854
88	0xbd80950b	-0.06278428
89	0xbc3ade3f	-0.011405527
90	0x3e5ed354	0.21760303
91	0xbe3af3b4	-0.18257028
92	0xbbf9ec6e	-0.0076270616
93	0x3e52a4fb	0.20570748
94	0x3dd1ef73	0.102507494
95	0xbe282d1c	-0.16423458
96	0xbd72a00d	-0.059234668
97	0xbe7dcac7	-0.24784385
98	0xbd663e48	-0.05621174
99	0x3e003081	0.12518503
100	0xbe6aa376	-0.22913918
101	0x3e7d9fd1	0.24767996
102	0xbdc00d04	-0.093774825
103	0x3e76dbb1	0.24107243
104	0xbe39c0fc	-0.18140024
105	0xbe55fe83	-0.2089787
106	0x3e5f0da3	0.21782546
107	0xbe861f01	-0.2619553
108	0xbe207c2d	-0.1567237
109	0x3bc7c356	0.006096284
110	0xbe1c2afa	-0.1525077
111	0x3c9578d7	0.018246097
112	0x3e801869	0.25018623
113	0xbe88f586	-0.2674982
114	0xbdb544a7	-0.08850985
115	0xbe190893	-0.14944677
116	0xbe7a3a49	-0.24436297
117	0x3c5d980a	0.0135250185
118	0xbc9ba845	-0.019001136
119	0x3e596045	0.2122813
120	0xbe7a1454	-0.24421817
121	0xbe458958	-0.19290674
122	0xbe39e7cc	-0.1815483
123	0x3e955e07	0.291733
124	0xbc2cde64	-0.010551069
125	0xbd95587b	-0.07292267
126	0xbe82bb3c	-0.25533473
127	0x3e74c7e9	0.23904385
128	0xbdfd5830	-0.12370336
129	0x3e1da2d1	0.15394141
130	0x3dcda6ba	0.10041566
131	0xbe185ead	-0.14879866
132	0xbe2e96fe	-0.17049786
133	0xbe574dc4	-0.21025759
134	0x3e53740a	0.20649734
135	0x3cacec09	0.021108644
136	0xbe58036f	-0.2109506
137	0xbdc15330	-0.09439695
138	0xbe938ad6	-0.2881686
139	0xbc5e3379	-0.013562077
140	0xbe068609	-0.13137068
141	0x3e689dfd	0.22716518
142	0xbd434fd4	-0.047683552
143	0xbe6bec4e	-0.23039362
144	0x3c2f2c81	0.010691763
145	0xbd2dd9fa	-0.042444207
146	0x3e52f60b	0.2060167
147	0xbe6ca1eb	-0.23108642
148	0xbc5a02a9	-0.013306298
149	0x3cba41cc	0.022736453
150	0x3e85ca9e	0.26131147
151	0x3d71c8d1	0.059029404
152	0x3dc8d140	0.09805536
153	0xbc3e5371	-0.011616574
154	0xbd497c0b	-0.049190562
155	0x3e27609a	0.16345444
156	0x3b3d732f	0.0028907766
157	0xbdea1ccc	-0.11431274
158	0xbe515d0e	-0.20445654
159	0x3e489ee9	0.1959187
160	0x3d994d1b	0.0748541
161	0x3e08dbc5	0.13365085
162	0xbe3443c0	-0.1760397
163	0x3d39367f	0.045217987
164	0x3bb4668f	0.00550539
165	0xbe8ac493	-0.271031
166	0x3e1f8cb2	0.15581015
167	0xbe8b9751	-0.27263883
168	0xbd1351ad	-0.035966564
169	0x3d6d77a1	0.057975415
170	0x3e446f3c	0.19183058
171	0xbe1e97ab	-0.15487544
172	0xbe2876bc	-0.16451544
173	0x3e16ed48	0.14738953
174	0x3e2aabef	0.1666715
175	0x3e0ca913	0.13736372
176	0xbe0914ee	-0.1338689
177	0xbe1c7bee	-0.1528165
178	0xbd81ba3a	-0.06334348
179	0x3dc111d6	0.0942723
180	0xbde4b51d	-0.11167357
181	0xbe792a65	-0.24332578
182	0x3d7b2004	0.06130983
183	0xbdace889	-0.0844279
184	0x3e8afa49	0.27144077
185	0x3dc74dd4	0.097316414
186	0xbe6d54bf	-0.2317686
187	0xbe80ce57	-0.25157425
188	0x3d1a0faa	0.037612595
189	0x3c658aa7	0.014010108
190	0xbd8f79cf	-0.07005655
191	0x3e9babd8	0.30404544
192	0xbe325ae8	-0.1741749
193	0x3e823e87	0.2543833
194	0x3e30a212	0.17249325
195	0x3e4d8385	0.20069702
196	0x3e871eb9	0.26390627
197	0xbe2b2637	-0.16713797
198	0xbd792149	-0.06082276
199	0x3d710fd2	0.058852978
200	0x3e550700	0.20803452
201	0x3e15cea9	0.14629616
202	0xbdb3d3f2	-0.0878066
203	0xbe4ad8ab	-0.19809215
204	0x3e775607	0.2415391
205	0x3e74d52d	0.23909445
206	0x3ce8ca07	0.028416647
207	0xbd91c06a	-0.07116778
208	0x3e601af8	0.21885288
209	0x3e57c8d2	0.210727
210	0xbdacc027	-0.08435088
211	0xbe59c863	-0.21267848
212	0xbe568b01	-0.20951463
213	0x3e6c7811	0.23092677
214	0x3e612b02	0.21989062
215	0xbe32454f	-0.17409252
216	0xbe3efdec	-0.18651551
217	0x3e15df29	0.1463591
218	0xbd77bd84	-0.06048347
219	0x3dc1f527	0.09470587
220	0x3dd096c4	0.10185006
221	0x3dc58aab	0.096455894
222	0x3e9852ac	0.29750574
223	0x3e830afa	0.25594312
224	0xbdac49bf	-0.084125035
225	0x3e22fd5d	0.15916963
226	0x3e041d57	0.12901817
227	0xbe9d9625	-0.30778614
228	0xbe45b88e	-0.19308683
229	0x3e09f678	0.13472927
230	0xbdfe4c55	-0.12416903
231	0x3da9a143	0.08282711
232	0x3d22b107	0.039719608
233	0x3decfeaa	0.11572011
234	0xbde0fc8a	-0.10985668
235	0x3e63bc57	0.22239815
236	0xbe1acb7c	-0.15116686
237	0x3e60d084	0.21954542
238	0x3d69c853	0.05707581
239	0xbcdbf957	-0.026852293
240	0xbdf2ecc0	-0.11861563
241	0xbd61de7c	-0.05514382
242	0x3dcd6c67	0.10030442
243	0xbdffb2d9	-0.12485284
244	0xbe6c03e7	-0.23048364
245	0xbde36571	-0.11103333
246	0xbe0289fd	-0.12747951
247	0xbe567c9a	-0.20945969
248	0x3dc6d515	0.09708611
249	0xbca74284	-0.02041746
250	0xbdede869	-0.11616594
251	0xbb83c6ac	-0.0040214863
252	0x3c2268e6	0.009912705
253	0xbea198e4	-0.3156196
254	0x3dd62579	0.10456366
255	0xbcd4fdc0	-0.025999904

bias f4 [128]
0	0x3e40d5d2	0.18831566
1	0x3d04fc3a	0.032467104
2	0xbe738277	-0.23780237
3	0x3e8305ea	0.2559045
4	0xbcafb1e7	-0.021447135
5	0xbe7b9d22	-0.2457166
6	0xbcd0cd76	-0.025488596
7	0x3e656af2	0.22404078
8	0xbe180a8f	-0.14847778
9	0x3e824698	0.25444484
10	0xbe812231	-0.25221398
11	0x3e391d29	0.1807753
12	0x3e0427b1	0.12905766
13	0xbcb25b2f	-0.021771995
14	0x3e7920a4	0.24328858
15	0xbd9a20d3	-0.07525792
16	0x3e7f71cf	0.24945758
17	0xbe9b8c3f	-0.30380437
18	0x3e153c90	0.14573884
19	0xbd6da365	-0.058017153
20	0x3e88640f	0.2663884
21	0x3e448b54	0.19193774
22	0xbe1a95a0	-0.1509614
23	0x3e5b3242	0.2140589
24	0xbd567c8b	-0.052364867
25	0xbe8b9423	-0.27261457
26	0x3e110729	0.14162888
27	0xbe8ce1a1	-0.2751589
28	0xbdebb877	-0.11509793
29	0xbe3b7bae	-0.18308899
30	0xbe57be8b	-0.2106878
31	0x3e914cd2	0.28378922
32	0x3e8325a6	0.2561466
33	0xbdf796e2	-0.120893255
34	0x3e06c65e	0.13161609
35	0x3e2e52dc	0.17023796
36	0xbdfaca1b	-0.1224558
37	0x3e103e56	0.1408628
38	0xbddd2ce9	-0.107995816
39	0xbcf94a24	-0.03043086
40	0x3e1d2fef	0.15350316
41	0xbe38dbc0	-0.18052578
42	0xbd52f375	-0.05150171
43	0x3df8b4e9	0.12143881
44	0xbd4e76e5	-0.050406355
45	0xbcf9e219	-0.03050332
46	0xbc87701a	-0.016532946
47	0x3e5ec029	0.21752991
48	0x3b824bd9	0.003976327
49	0xbe82711f	-0.2547693
50	0xbe7ae75a	-0.24502316
51	0x3d02c518	0.031926244
52	0x3dd69a70	0.10478675
53	0x3e70cfd2	0.23516777
54	0x3e286c10	0.16447473
55	0xbd0d8fc8	-0.03456095
56	0x3e2fe323	0.1717649
57	0x3e763929	0.24045242
58	0xbe7214cc	-0.23640746
59	0xbe2c9cc3	-0.16856675
60	0x3e28c2a9	0.16480507
61	0xbe052967	-0.13004075
62	0x3dc929de	0.09822439
63	0x3d7193e2	0.058978923
64	0xbda66e24	-0.081264764
65	0xbe2d5173	-0.16925602
66	0xbdcb02a7	-0.09912615
67	0xbe69f3cd	-0.22846909
68	0xbdcde160	-0.100527525
69	0x3d88ec86	0.06685738
70	0xbe3543c8	-0.17701638
71	0x3e29173a	0.16512766
72	0x3e535f70	0.20641875
73	0xbe988518	-0.29789042
74	0x3e784fcc	0.2424919
75	0xbdb6c39f	-0.089240305
76	0xbd93e429	-0.072212525
77	0xbc9cdf15	-0.019149343
78	0xbe683b48	-0.22678864
79	0xbdc16db6	-0.09444754
80	0x3e73220d	0.23743458
81	0xbdf60339	-0.120123334
82	0x3e1b4ed2	0.15166786
83	0xbe39c897	-0.18142925
84	0x3e00efd9	0.12591495
85	0x3da40905	0.08009533
86	0xbdbc6e60	-0.0920074
87	0xbdf9283a	-0.12165876
88	0x3d666822	0.056251653
89	0x3e0913f7	0.13386522
90	0x3e752870	0.23941207
91	0x3e507af8	0.20359409
92	0xbd0cb9bd	-0.03435682
93	0x3e82cd4a	0.25547248
94	0xbe94e012	-0.29077202
95	0xbe93a639	-0.28837755
96	0xbcd5ff22	-0.026122633
97	0xbd1787f7	-0.0369949
98	0x3d3285b9	0.04358456
99	0xbe3b9bf5	-0.18321212
100	0xbe8505be	-0.25980943
101	0x3da3243e	0.07965897
102	0xbe8f3963	-0.2797347
103	0x3e268cd5	0.1626466
104	0x3e6d93c1	0.23200895
105	0xbe2c2fee	-0.16815159
106	0xbd0f777b	-0.035026055
107	0x3db83cf7	0.08996003
108	0xbe7ae27c	-0.2450046
109	0xbe40edb9	-0.18840684
110	0xbd8f783d	-0.070053555
111	0x3e68498b	0.22684304
112	0xbe3a111c	-0.18170589
113	0xbe262a2c	-0.16227025
114	0x3cf26a92	0.029591832
115	0x3e0fad7c	0.14031023
116	0xbe121816	-0.14267
117	0x3e2ed3c8	0.17072976
118	0xbe4552d5	-0.19269879
119	0xbdbcb61d	-0.09214423
120	0xbd2bc3f8	-0.041934937
121	0xbe387989	-0.18015112
122	0x3e7db696	0.24776682
123	0xbe84ca15	-0.25935426
124	0xbda875c6	-0.082255885
125	0xbdc8103c	-0.097687215
126	0xbe3904ae	-0.18068191
127	0x3e7f8cb8	0.24956024

weight f4 [128, 128]
0	0xbd3350e9	-0.043778334
1	0xbd749deb	-0.059720915
2	0xbdb26845	-0.08711294
3	0x3c07268a	0.0082489345
4	0xbd861681	-0.06547261
5	0xbd7e888d	-0.062141944
6	0x3cb99215	0.022652665
7	0xbbdeaa61	-0.006795213
8	0xbc8cc334	-0.017182924
9	0xbd03590d	-0.032067347
10	0x3d2b48ba	0.041817404
11	0xbc6b8ce2	-0.014376851
12	0x3d657ff7	0.05603024
13	0xbc2c9a89	-0.010534891
14	0x3c988cb3	0.018621778
15	0x3cc260b9	0.023727762
16	0xbd99027f	-0.07471179
17	0x3c512a07	0.012766368
18	0x3ca4921c	0.020089202
19	0xbdce292c	-0.10066447
20	0xbd00f2c8	-0.031481534
21	0x3da300da	0.07959147
22	0xbd883a8f	-0.06651794
23	0xbd670089	-0.056396995
24	0xbd3d563b	-0.046224814
25	0xbd05302e	-0.03251665
26	0xbd4f9437	-0.050678458
27	0x3c8d33c1	0.017236592
28	0xbd539644	-0.051656976
29	0x3cbc03ab	0.022950968
30	0x3beeaa90	0.007283516
31	0xbdad9ce8	-0.08477193
32	0xbdc49fd3	-0.096007966
33	0x3d23b00a	0.039962806
34	0x3d9e7424	0.07736996
35	0x3d029519	0.03188047
36	0x3d9090ab	0.07058843
37	0xbda6fe17	-0.081539325
38	0xbd2cc21a	-0.042177297
39	0xbd3148fd	-0.043282498
40	0xbd32d314	-0.04365833
41	0x3d640518	0.05566892
42	0xbdb92689	-0.09040553
43	0xbd098e8c	-0.03358321
44	0x3c2b4a49	0.010454723
45	0x3c71fb1c	0.014769342
46	0xbb46359b	-0.0030244354
47	0x3c36a957	0.011148772
48	0x3d7ba7c1	0.06143928
49	0x3c94635c	0.018113784
50	0xbd1486b2	-0.036261268
51	0x3c34f7eb	0.011045436
52	0x3d8d1e44	0.06890538
53	0x3d78c23f	0.060732123
54	0xbd368088	-0.04455617
55	0x3d50029f	0.05078375
56	0x3d6d162d	0.057882477
57	0x3c83fac8	0.016110793
58	0xbd26815d	-0.040650714
59	0xbd478226	-0.048708104
60	0x3d7653af	0.0601384
61	0xbb34f2e0	-0.0027610585
62	0x3d9dd05a	0.077057555
63	0x3da55e03	0.08074572
64	0xbcae90ef	-0.021309344
65	0xbd9750e0	-0.073884726
66	0x3d249ec9	0.04019049
67	0xbd8bc102	-0.06823923
68	0xbdae9eb9	-0.08526368
69	0x3da64fa7	0.08120661
70	0xbc7ca813	-0.015420931
71	0xbdad5d0b	-0.08465012
72	0x3d804c28	0.06264526
73	0xbcc0cf00	-0.023536205
74	0xbd913c95	-0.07091633
75	0x3c7ea630	0.015542552
76	0xbdb7a2be	-0.089665875
77	0xbda204d3	-0.079110764
78	0xbc7663e8	-0.015038468
79	0x3cdace43	0.026709681
80	0xbdd06d7a	-0.10177131
81	0xbda7adc3	-0.08187439
82	0x3d194587	0.037419822
83	0x3b252b02	0.0025202637
84	0xbca501fa	-0.020142544
85	0xbda94fad	-0.0826715
86	0xbdaac414	-0.0833818
87	0x3d33ab07	0.043864276
88	0xbd6a22ca	-0.057162084
89	0x3d72f970	0.059319913
90	0xbd020766	-0.031745337
91	0x3d6e4dfd	0.058179844
92	0x3d0e732f	0.034777816
93	0xbd18401f	-0.037170526
94	0x3ce8c222	0.028412882
95	0xbd99f158	-0.07516736
96	0xbbbe8222	-0.005813853
97	0xbc866b85	-0.016408691
98	0xbd168e6a	-0.03675691
99	0xbdc3efc2	-0.095672145
100	0x3d86d96b	0.06584438
101	0x3c89c0b6	0.016815525
102	0x3d24192f	0.04006308
103	0x3d83d86b	0.06437763
104	0xbdbe0d42	-0.092798725
105	0xbc9b212d	-0.018936718
106	0xbcb1adba	-0.021689285
107	0x3cc98379	0.024598824
108	0xbd3bab15	-0.045817453
109	0xbdb86282	-0.09003164
110	0xbda3c85c	-0.079972
111	0x3c536abf	0.012903868
112	0xbce23239	-0.027611839
113	0x3d6d3f72	0.057921834
114	0xbd373f66	-0.044738196
115	0xbd275d96	-0.040860735
116	0x3d861e5f	0.065487616
117	0x3c4082a6	0.011749899
118	0xbdb7a856	-0.089676544
119	0xbc989e73	-0.018630242
120	0x3cabddf8	0.020979866
121	0x3d99c4c9	0.07508237
122	0xbd0c17be	-0.03420233
123	0xbdb407c6	-0.08790545
124	0xbd8b38ef	-0.067979686
125	0xbd4954e1	-0.049153212
126	0xbc59c110	-0.013290659
127	0xbd98b3eb	-0.07456192
128	0xbdc26919	-0.09492702
129	0xbcb61844	-0.022228368
130	0xbd08e836	-0.03342458
131	0xbd55db96	-0.052211367
132	0x3cff5e72	0.031172965
133	0x3baaaec6	0.005208823
134	0xbca2f200	-0.019890785
135	0xbdca7c6a	-0.09887011
136	0x3d9f42b1	0.07776392
137	0xbdb896b3	-0.090131186
138	0x3d259a56	0.04043039
139	0xbd868ae1	-0.06569458
140	0x3cfb68eb	0.030689677
141	0xbdae822d	-0.08520923
142	0xbd88f2b7	-0.06686919
143	0x3b9b5324	0.0047401357
144	0xbd55959d	-0.052144635
145	0xbd54b6d8	-0.051932186
146	0xbd0bd618	-0.034139723
147	0xbd13d975	-0.036096055
148	0x3db500d3	0.08838048
149	0xbceab76b	-0.028651914
150	0x3d5bf942	0.053704508
151	0x3d44da2b	0.048059624
152	0xbc052621	-0.008126766
153	0x3a1b6944	0.00059284666
154	0x3ab734c4	0.0013977517
155	0x3b43dfc0	0.0029888004
156	0xbdcb11a4	-0.09915474
157	0xbd94882b	-0.072525345
158	0xbd90ec55	-0.07076327
159	0x39b6b700	0.0003485009
160	0x3ae0d5bd	0.0017153543
161	0xbdc6de65	-0.09710387
162	0x3d010086	0.03149464
163	0xbd006e68	-0.03135529
164	0xbd09e285	-0.03366329
165	0xbdc5bb43	-0.09654858
166	0x3c0b3228	0.008495845
167	0x3ba8bb5d	0.0051492886
168	0xbcc77356	-0.024346989
169	0x3d3b7161	0.045762423
170	0xbd5c70ca	-0.0538185
171	0x3d1574dd	0.036488403
172	0x3d168b4a	0.03675393
173	0xbd8a6297	-0.06757086
174	0xbd180cab	-0.037121456
175	0x3c8582b1	0.01629767
176	0x3cbf1bbe	0.023328658
177	0x3ae24a34	0.0017264546
178	0xbd822305	-0.06354336
179	0xbd47558b	-0.048665565
180	0x3d08f8f4	0.033440545
181	0xbcf923f0	-0.030412644
182	0xbdc5fd96	-0.09667508
183	0x3d94340b	0.07236489
184	0x3d72d4a5	0.059284825
185	0xbdc5c948	-0.09657532
186	0xbc6fd744	-0.014638726
187	0x3d8ff9fa	0.07030101
188	0xbd36245e	-0.044468276
189	0x3d08078a	0.033210315
190	0xbd94adeb	-0.07259735
191	0x3d1267c0	0.035743475
192	0x3d9373c7	0.07199817
193	0xbd5d0561	-0.053960208
194	0x3d8f6e17	0.0700342
195	0x3d6edd2b	0.05831639
196	0x3d02b168	0.03190747
197	0x3d98a82d	0.07453952
198	0xbd3d6a28	-0.046243817
199	0x3ca0edb1	0.01964459
200	0x3d479a4c	0.048731133
201	0x3d21ee0a	0.039533652
202	0x3d817079	0.063202806
203	0xbc663af0	-0.014052138
204	0xbdbb6523	-0.0915015
205	0xbd81c5f1	-0.063365825
206	0x3d26cb85	0.040721435
207	0x3cf67e34	0.030089475
208	0xbdbcca22	-0.09218241
209	0x3c00ec31	0.007868812
210	0x3c167df7	0.009185306
211	0x3c991c95	0.018690387
212	0x3d0593c4	0.032611623
213	0xbcb8c4f3	-0.02255485
214	0x3ab818da	0.0014045492
215	0xbdb8b399	-0.090186305
216	0x3d7ec05e	0.062195174
217	0xbd9df416	-0.07712571
218	0x3adbceb7	0.001676998
219	0xbd8591e0	-0.06521964
220	0x3d95b127	0.0730918
221	0xbb65a38b	-0.0035040106
222	0xbda5e838	-0.08100933
223	0x3d8e2606	0.06940846
224	0xbd3f8393	-0.04675634
225	0xbdb1c5de	-0.08680318
226	0xbd8fdefd	-0.070249535
227	0xbca67b20	-0.020322382
228	0x3d2b59a2	0.041833527
229	0xbd8797f7	-0.06620782
230	0xbd88b51b	-0.06675168
231	0xbc9e3453	-0.01931206
232	0xbda09d61	-0.07842518
233	0xbd0b57a0	-0.034019113
234	0xbd3fe43f	-0.04684853
235	0xbb16b7e2	-0.0022997786
236	0xbcec931e	-0.028878745
237	0xbc64c75a	-0.013963545
238	0x3cd13b99	0.025541114
239	0xbd5bf104	-0.053696647
240	0x3b8aa3c6	0.004230949
241	0xbdaecf4a	-0.08535631
242	0xbda48cdf	-0.080346815
243	0x3d4b3c22	0.049617894
244	0xbca1ad35	-0.019735912
245	0xbc984d03	-0.01859141
246	0xbd16b152	-0.0367902
247	0xbd5d8dc1	-0.054090265
248	0xbc177a80	-0.009245515
249	0x3d8bc943	0.06825497
250	0xbd7a880a	-0.061164893
251	0x3da7333f	0.08164071
252	0xbc0fec68	-0.008784391
253	0x3c349915	0.011022826
254	0xbd989ba6	-0.074515626
255	0x3d6213ad	0.055194546

bias f4 [128]
0	0xbd48b266	-0.04899826
1	0xbdc40236	-0.09570734
2	0xbd821dba	-0.06353326
3	0x3d0c3bd1	0.034236733
4	0xbce0be73	-0.027434563
5	0x3d8c9a23	0.06865337
6	0x3c8b1bb2	0.01698098
7	0x3d3d4118	0.046204656
8	0xbc191350	-0.009342983
9	0xbdb09cc8	-0.08623654
10	0x3d515be9	0.051113043
11	0x3d6e2109	0.058136974
12	0x3d98695c	0.07441971
13	0x3d79a22a	0.060945667
14	0xbd988c4d	-0.07448635
15	0x3da79d7c	0.08184335
16	0x3d027ab2	0.031855293
17	0xbd8b5b40	-0.06804514
18	0xbcf11b41	-0.029431941
19	0xbc148cf3	-0.009066808
20	0xbc147a03	-0.009062293
21	0xbd4a9faa	-0.049468674
22	0x3c805b9f	0.015668688
23	0x3db5b0fb	0.08871647
24	0xbd6191c4	-0.055070654
25	0x3db8d381	0.09024716
26	0x3d3ea870	0.046547353
27	0x3d02c65e	0.03192746
28	0xbca99dae	-0.02070507
29	0xbda80ee7	-0.082059674
30	0x3d49b232	0.049242206
31	0xbd092513	-0.033482622
32	0x3d84e723	0.06489398
33	0xbd4edbfd	-0.050502766
34	0xbcffb339	-0.03121339
35	0x3dcc3fc5	0.099731006
36	0xbdcbff3f	-0.09960794
37	0xbdbc1e5c	-0.09185478
38	0x3d0afd78	0.033933133
39	0xbd8dc70d	-0.069227315
40	0xbda63766	-0.08116035
41	0x3d91616b	0.07098659
42	0x3d7640ca	0.06012038
43	0xbdc94154	-0.098269135
44	0xbd30b723	-0.043143403
45	0xbdc30dfa	-0.0952415
46	0xbd9ea3e8	-0.077461064
47	0x3d879fa9	0.0662225
48	0x3d85f614	0.06541076
49	0x3dca1f9e	0.09869312
50	0x3d655de4	0.055997744
51	0x3d97a57a	0.07404609
52	0xbcb81378	-0.02247022
53	0x3d34e7a4	0.044166222
54	0x3d28b737	0.041190352
55	0x3b824662	0.0039756754
56	0x3cef6205	0.029221544
57	0xbd063d31	-0.0327732
58	0xbcdcbdd0	-0.026945978
59	0xbd974dcc	-0.073878855
60	0xbc01c5cf	-0.007920696
61	0xbcf2beb9	-0.02963196
62	0xbcb57a33	-0.022152996
63	0x3d3d2a8b	0.04618315
64	0xbd82e734	-0.06391755
65	0x3ab2c3ac	0.0013638637
66	0x3ccfd751	0.025371226
67	0xbd17aec0	-0.03703189
68	0xbd905f85	-0.07049469
69	0x3d333905	0.04375555
70	0x3d48db65	0.049037356
71	0xbb3ce6f5	-0.0028824185
72	0xbd4e4181	-0.05035544
73	0x3d1aac7c	0.03776215
74	0x3b0b7c6c	0.0021283878
75	0xbd1fc97c	-0.03901051
76	0x3b1f52ea	0.0024310895
77	0x3cf95d5b	0.030440023
78	0x3d28bc30	0.041195095
79	0xbd8d18b9	-0.06889481
80	0xbd0d5bf8	-0.034511536
81	0xbd1eaec8	-0.038740903
82	0x3dc52717	0.096265964
83	0x3d1db24f	0.038500126
84	0x3c028065	0.007965182
85	0xbdbc75e7	-0.092021756
86	0x3c9cf096	0.019157689
87	0xbdc72e5c	-0.09725639
88	0xbd5eff57	-0.05444273
89	0xbd7ba9bb	-0.061441164
90	0xbcb7e896	-0.022449773
91	0xbd82f616	-0.063945934
92	0xbc9ea170	-0.019364089
93	0x3d266816	0.040626608
94	0x3d079713	0.03310306
95	0xbd85ae8b	-0.06527432
96	0x3d851186	0.06497483
97	0x3d0d9005	0.034561176
98	0xbd17744e	-0.03697615
99	0x3d06a02e	0.032867603
100	0x3d12f8e9	0.03588191
101	0x3c531855	0.012884219
102	0x3d929c9c	0.07158777
103	0x3d4e591e	0.050377958
104	0x3abce4a3	0.0014411401
105	0x3d66fb56	0.056392036
106	0xbc9a4ea5	-0.018836329
107	0xbd54cfd5	-0.051956017
108	0xbcfe99fb	-0.031079283
109	0xbb4fe422	-0.003172167
110	0x3ada7f91	0.0016670098
111	0xbbd568cf	-0.0065127383
112	0x3d4d9022	0.050186284
113	0xbd4a266f	-0.04935306
114	0xbd6972f4	-0.056994393
115	0x3d81a063	0.063294195
116	0xbd0eee43	-0.034895193
117	0x3c17f53f	0.00927478
118	0xbba1df9f	-0.004939988
119	0x3c719695	0.014745374
120	0xbd947421	-0.07248712
121	0x3ab560ae	0.0013838017
122	0x3ad804e6	0.0016480952
123	0xbd028973	-0.031869363
124	0x3a44f3f0	0.0007513156
125	0xbd398648	-0.045294076
126	0x3d90fcf4	0.07079497
127	0xbb8bb16c	-0.0042630937

weight f4 [20, 128]
0	0xbc2455e1	-0.010030241
1	0x3c4d18b6	0.012518099
2	0x3d98101d	0.07424948
3	0xbd765cfb	-0.060147267
4	0xbc1602a6	-0.009155905
5	0x3d728456	0.059208237
6	0x3d2f43a2	0.04278911
7	0x3d2c2a62	0.042032607
8	0xbd6296f6	-0.05531975
9	0x3c5d3c4b	0.0135031445
10	0x3cb47724	0.022029467
11	0x3d422508	0.047398597
12	0xbcffb4df	-0.031214176
13	0x3cc4afdf	0.024009643
14	0xbd315fdb	-0.043304306
15	0x3c7ea37a	0.015541906
16	0xbcc04c29	-0.023473816
17	0x3d28e860	0.041237235
18	0xbd6de5bc	-0.05808042
19	0xbd736837	-0.05942556
20	0x3d94ced7	0.07266014
21	0x3d4257e0	0.047447085
22	0xbcbd6713	-0.023120439
23	0xbd863772	-0.06553544
24	0xbd73b416	-0.059497915
25	0xbd687263	-0.056749713
26	0xbcb5ef4f	-0.022208838
27	0xbdbb2169	-0.09137232
28	0x3dcea245	0.10089544
29	0x3c50b0a2	0.012737425
30	0x3a489eb2	0.0007653042
31	0x3cfd0ba9	0.030889349
32	0x3d234195	0.039857466
33	0x3cfb8d2b	0.030706963
34	0x3ca6221f	0.020279942
35	0xbd617680	-0.05504465
36	0x3d0be876	0.03415724
37	0x3c675274	0.014118779
38	0x3a709722	0.0009177794
39	0x3badc698	0.0053032152
40	0xbd05c65b	-0.03265987
41	0xbc241c2a	-0.01001648
42	0x3b34d96c	0.0027595414
43	0xbd1f187b	-0.038841706
44	0x3d49c996	0.049264513
45	0x3db34730	0.08753812
46	0xbd77e10c	-0.060517356
47	0xbd405ddd	-0.046964515
48	0xbd93f064	-0.07223585
49	0xbd7afa1e	-0.061273687
50	0x3c9c24ca	0.019060511
51	0x3dc350b4	0.09536877
52	0xbc8c2ca4	-0.01711113
53	0xbd646350	-0.055758774
54	0xbd5835e1	-0.052785758
55	0x3bcccbf4	0.006249899
56	0x3d9269fe	0.07149123
57	0x3dafd2e4	0.08585146
58	0xbc09d082	-0.008411529
59	0x3c96da6e	0.018414702
60	0x3d95116f	0.07278716
61	0xbd2686eb	-0.04065601
62	0x3d54c52a	0.051945843
63	0xbe18a5ad	-0.1490695
64	0x3d6a1830	0.057151973
65	0xbd4d85f1	-0.050176565
66	0x3bc6e5f2	0.006069892
67	0x3d219d3e	0.0394566
68	0xbcc1e92e	-0.023670759
69	0x3e04ea99	0.12980117
70	0x3d866cae	0.06563698
71	0x3d7301a5	0.05932774
72	0xbbc1a895	-0.005909989
73	0x3d3df97f	0.046380516
74	0xbdbe9745	-0.09306196
75	0xbd99dced	-0.075128414
76	0xbcc1405a	-0.023590256
77	0x3cc7a6ca	0.024371523
78	0x3ddd415e	0.108034834
79	0xbd57cacc	-0.052683637
80	0xbd822995	-0.063555874
81	0x3d5bb9bb	0.053643923
82	0xbd723d1b	-0.059140306
83	0x3d6cf8b0	0.057854354
84	0xbd6f7257	-0.058458652
85	0xbc1362b9	-0.008995705
86	0x3a902da8	0.0010999935
87	0x3cd8b7b9	0.026454793
88	0xbd2b4b78	-0.04182002
89	0xbcf092ad	-0.029366815
90	0x3c34fc61	0.0110465
91	0x3d82d80a	0.063888624
92	0x3c1d08a3	0.009584579
93	0xbd04823b	-0.03235076
94	0xba1caeea	-0.0005976992
95	0x3ca1184b	0.019664904
96	0xbdb20b63	-0.08693578
97	0x3d3d0447	0.046146657
98	0x3a9f88cc	0.0012171506
99	0xbc3a6de0	-0.011378735
100	0x3b7e7ba1	0.0038831013
101	0xbd2c2c65	-0.042034525
102	0xbbb309fd	-0.005463837
103	0xbc5bb537	-0.013409904
104	0x3d535021	0.05159009
105	0xbb853442	-0.0040650675
106	0x3d62f787	0.05541184
107	0xbbfbcdd4	-0.0076844487
108	0x3d362f45	0.044478673
109	0x3cf81fe8	0.030288652
110	0x3c452872	0.012033569
111	0x3d71ca8f	0.059031066
112	0xbd13d8a4	-0.036095276
113	0xbcd22424	-0.025651999
114	0xbda10f3c	-0.07864234
115	0xbd1243c6	-0.035709165
116	0xbcc76a99	-0.024342822
117	0xbd72fc85	-0.059322853
118	0xbb8502e4	-0.0040591825
119	0xbbd47668	-0.0064838417
120	0x3d78eef6	0.060774766
121	0x3ae6e629	0.00176162
122	0xbd8e373d	-0.069441296
123	0x3d143c28	0.036190182
124	0xbc8a2954	-0.01686541
125	0xbc65da05	-0.014029031
126	0x3dbaf9dd	0.09129689
127	0xbcf19d97	-0.02949409
128	0x3d8f4e02	0.06997301
129	0xbd820ed6	-0.06350486
130	0x3d93e05a	0.07220526
131	0x3d840664	0.064465314
132	0xbd47efbc	-0.048812613
133	0xbd6f547d	-0.058430184
134	0x3d809b3c	0.062796086
135	0xbdc140c7	-0.094361834
136	0xbd91f059	-0.07125921
137	0xbd7acf6a	-0.06123296
138	0x3d757952	0.059930153
139	0xbd40b7eb	-0.047050398
140	0x3d8ab8c0	0.067735195
141	0x3c6bb703	0.014386895
142	0x3d3e1979	0.04641101
143	0xbdbda0f3	-0.09259214
144	0x3d64876b	0.055793207
145	0x3d77040a	0.060306586
146	0xbd06a95f	-0.03287637
147	0xbcd23868	-0.025661662
148	0xbd86a265	-0.06573943
149	0xbd484018	-0.04888925
150	0xbc95b4c5	-0.018274674
151	0x3bab52da	0.0052283825
152	0x3cca090c	0.024662517
153	0x3c5dbf78	0.013534419
154	0xbb887e5d	-0.0041654543
155	0xbcb59c61	-0.022169294
156	0xbdda3e03	-0.10656359
157	0x3d4efaa9	0.050532017
158	0x3cbadbd8	0.022809908
159	0xbc3b2713	-0.01142289
160	0x3cf7ee71	0.030265065
161	0xbe0ac2f5	-0.13550933
162	0xbad6e485	-0.0016395008
163	0xbd0bba4d	-0.034113217
164	0xbc4c0cd1	-0.012454228
165	0x3cbd4006	0.023101818
166	0xbc9d1dfa	-0.019179333
167	0x3d7940eb	0.060852926
168	0x3c628625	0.013825928
169	0xbdbf1176	-0.09329502
170	0xbd05a162	-0.03262461
171	0xbd89763c	-0.067120045
172	0xbc63adb5	-0.013896395
173	0x3dca25d4	0.098704964
174	0x3db5708f	0.088593595
175	0x3d5468d7	0.051857796
176	0xbcd25262	-0.025674049
177	0x3d268809	0.040657077
178	0x3d08de61	0.033415202
179	0xbb3af1e9	-0.0028525537
180	0x3d99d8b1	0.07512034
181	0x3d47c9fe	0.04877662
182	0x3d82784c	0.06370601
183	0xbd2ab5ec	-0.0416774
184	0x3c1d39e7	0.0095963245
185	0x3c77646e	0.015099628
186	0xbc6e5ccc	-0.014548492
187	0xbb6789e9	-0.0035330004
188	0x3d89625e	0.06708215
189	0xbd5c2804	-0.0537491
190	0x3c8103cb	0.015748879
191	0x3d47d025	0.048782486
192	0x3d959d2c	0.07305369
193	0xbdac41a1	-0.08410955
194	0x3cfb3565	0.030665109
195	0xbcf0e586	-0.02940632
196	0xbc6097e0	-0.013708085
197	0xbdcdc32a	-0.1004699
198	0xbcde185b	-0.027111223
199	0xbcf0bb74	-0.02938626
200	0x3da785fd	0.08179853
201	0xbd04000f	-0.03222662
202	0x3d383ba9	0.04497877
203	0x3cb74de1	0.022376003
204	0xbd1a947c	-0.037739262
205	0x3c426308	0.011864431
206	0xbde4c6b9	-0.11170716
207	0x3d73cd99	0.059522245
208	0xbcb24088	-0.021759287
209	0xbd20cf75	-0.039260346
210	0x3c8fdf07	0.017562402
211	0x3d113790	0.03545338
212	0x3cb2384e	0.021755364
213	0x3dad2d11	0.08455861
214	0x3d33f2d8	0.043932766
215	0x3d284099	0.04107723
216	0x3d921c50	0.071343064
217	0xbd89f30d	-0.067358114
218	0x3cdcf704	0.026973255
219	0xbd36cac6	-0.044626974
220	0xbc15f5fc	-0.0091528855
221	0x3c9abdc3	0.018889314
222	0xbdbbe8ad	-0.09175239
223	0xbc74eac2	-0.014948549
224	0xbd929a7a	-0.0715837
225	0x3c8abe68	0.016936496
226	0x3da9a745	0.08283857
227	0xbd333a79	-0.043756936
228	0xbd3e63bd	-0.046481837
229	0x3cc1bbf0	0.023649186
230	0x3d333202	0.043748863
231	0xbb2d5115	-0.0026446034
232	0xbcab7ee6	-0.020934533
233	0x3d0772bc	0.033068404
234	0xbc99cb4b	-0.018773695
235	0x3d93570d	0.07194338
236	0x3d096add	0.03354918
237	0xbc0c3a6c	-0.008558851
238	0x39c394b4	0.0003730409
239	0xbd2ef50a	-0.042714156
240	0x3c9a1781	0.018810036
241	0xbda893c5	-0.0823131
242	0x3ab5e3c0	0.0013877079
243	0xbd9f66cf	-0.07783281
244	0xbcfb0607	-0.030642522
245	0x3da4aab1	0.08040369
246	0x3c9142d3	0.01773206
247	0xbda7d102	-0.08194162
248	0xbc4f74a0	-0.012662083
249	0xbcecfa5b	-0.028927973
250	0x3d40a1dd	0.047029365
251	0x3cf1fe1d	0.029540116
252	0x3d9e6406	0.07733922
253	0xbcacb3dd	-0.02108186
254	0xbd63eac6	-0.05564382
255	0xbd61aaa6	-0.055094384

bias f4 [20]
0	0xbb502118	-0.0031758007
1	0x3d18bfee	0.037292413
2	0xbca79b48	-0.020459786
3	0xbd7c5847	-0.061607625
4	0x3c59aad2	0.013285356
5	0xbbb5eb66	-0.0055517433
6	0x3cf29d1b	0.02961593
7	0xbd66f234	-0.056383327
8	0x3d958ce6	0.07302265
9	0xbdb3513f	-0.08755731
10	0x3b56f6e0	0.0032800958
11	0x3b884f4f	0.004159845
12	0x3d3949fb	0.04523657
13	0x3c949695	0.01813821
14	0xbcd02b6d	-0.025411332
15	0xbd65cae4	-0.056101695
16	0xbd80b80a	-0.06285103
17	0x3d3d9484	0.046284214
18	0x3cbe080b	0.023197195
19	0xbb624e19	-0.0034531413
