abalone/abalone_exact_fastSHAP.pt (torch, 86735 bytes, 6 tensors)

weight f4 [128, 12]
00000000: f28a 803e 5d08 963d 9454 413c 4f22 44be
00000010: 0799 66be 6e89 4f3e 848b 083e 65ce 293d
00000020: d66a ac3d db6a b4bd 9b73 57be b8b9 063e
00000030: 1558 39bd 4498 513e cb6b 9dbd c9d9 4cbe
00000040: 2c8f 873e 8063 693e be2c bb3d aae5 78be
00000050: af62 263d 28b0 a13d 651b b2ba b756 c83c
00000060: a106 70be e340 53be 154f 78bd 77e0 713e
00000070: 9327 8f3d 34b2 7c3e 9e6c 2f3e 50be 8dbe
00000080: f614 88bd c603 83be f9ea f73d a55e 35be
00000090: 0f0e 87bc b3a2 77be f8ba 373e f1de 4e3e
000000a0: 6f63 c13d 677e 82bd 863a ab3c 1ddc 8ebe
000000b0: f8af 03bd 7841 a33c 62b4 69be f742 8c3d
000000c0: 27b8 853d c24b f93d 0936 9cbd 218b 69be
000000d0: e26f 083e d887 853d 452c b8bc efa0 70be
000000e0: 9d1d 8b3e 781e 143e bdc3 743e c8c2 193e
000000f0: 1eb0 5bbe 9381 e53d 8803 d63d c7f4 68be
00000100: 9e26 a0bd 3626 febd 554f 7bbd f963 a43d
00000110: 79f4 8abe 888e 253e 5901 68be 7cdc 0e3d
00000120: bf22 0abe 4e49 f53d 9a50 58be b90c 81be
00000130: 0898 463c 0eea 003e 1fa5 83be 3422 7f3e
00000140: 835e 803e 0256 d83d 7377 fcbd 7987 2ebd
00000150: 3b08 2cbd 56cb 99be 617f 2e3d 6b80 223e
00000160: 140e 7d3e 6283 493e 3102 b239 8e8d ecbc
00000170: 91b2 b13d f6f3 953e 9aae 943e 2a87 cf3d
00000180: 1d90 80be f1d8 8cbe eec0 6dbd 9bf5 963d
00000190: 2cbc 98be 078b 6ebe 5978 9abd 4f54 c8bd
000001a0: 9507 92be 34c6 543e ba9f d1bd 6e92 b7bd
000001b0: f360 273e 9042 93be 82c4 a8bd e409 93be
000001c0: 28b5 0e3e 1667 53be ea75 523e b6a5 84bd
000001d0: 536b 0e3e ddbd c73d 2867 6bbe a4fb 5b3e
000001e0: cd97 4dbe 9936 24bc ba79 143e 0566 e13d
000001f0: a85b 133e b561 453e 4222 97be 2496 7c3e
00000200: ed4b 833e 3532 563e 5066 173d 6762 8fbb
00000210: 77f0 60be 8274 ee3d c44b 35bd 0f6d 6abe
00000220: 30e5 21bd 5943 40be a9eb c93d b39d febc
00000230: 7595 53be f551 97bd ea98 74be cba1 5f3e
00000240: 0ea2 c8bd a79c 51bd 3a9c 2cbe cf1e 2f3c
00000250: de43 3a3d 552a 083d fabe 8b3e d5ad e73d
00000260: 0177 d53c 4abb ecbc ec0f 603d de3b 343d
00000270: 46ba 8bbe 4f87 4ebd d14b 073e ea82 0b3e
00000280: dbba a53c 101b 34bd 0188 89bd 2634 3c3e
00000290: ac0c ff3c 8fa9 ca3d e944 f33d 0d61 803e
000002a0: da1b 233d 3c44 453e fc3e 703e aae5 0a3e
000002b0: c6fe 113d 33b1 903e 59d3 353e 75e9 d73c
000002c0: 7c56 22be bb51 1a3e 5db4 afbd 84ea 773d
000002d0: 9a85 9bbd 93f2 393e b9a2 e13d a4e6 8d3e
000002e0: 3287 ed3d 444f 6d3c 4803 36be b6cd 3d3e
000002f0: 3b86 bd3c c02f 05be a4db 183e 546b 1fbe
00000300: ae6c 7f3e c412 ab3c 957e 9fbc c50d 713d
00000310: 71d8 8fbd 20e3 97bd e5dd fc3d ca09 633e
00000320: 0b58 2e3e d730 533e ac42 8b3e 7a6d 0abe
00000330: 630e 8fbe 28b9 a83d 556e 083d beaa 4f3e
00000340: c32c 483e e210 0abe d779 323e a64e b73d
00000350: b3df 90be c315 243e af85 8ebd 97fa 7fbd
00000360: 9327 30bd 3b77 d2bd 919e 61be 4132 79bd
00000370: 63aa 203e b217 9bbe e8cc b7bd 1fac 9a3d
00000380: ac2a dd3b 588f 40be 0eca 6fbe 8591 153e
00000390: 339b 81be 35c9 e8bd 7523 a6bb 496b ce3d
000003a0: 1174 6abe 7073 3d3e 159d 83be 2e00 39be
000003b0: 5f76 42be 7f44 f7bd 876c 32bc 6ca0 ca3d
000003c0: fe9e a83c fe45 29be c595 37be c7a6 883e
000003d0: 93e6 533e d393 5dbe abd3 9ebc 24be fbbd
000003e0: 9379 8e3d d97f 5fbe e445 773e 1f63 5bbe
000003f0: e6eb d9bd ea6b 69be a3e7 97be 7bbb 99bd
0.25106007 0.07325814 0.01179995 -0.19153713 -0.22519313 0.20267269 0.13334471 0.0414566
0.08418815 -0.088094436 -0.21040194 0.13156784 -0.045250017 0.20468241 -0.076865755 -0.20004953
0.2647642 0.22791862 0.09139393 -0.2430636 0.040621456 0.07894927 -0.0013588486 0.024455411
-0.23440029 -0.20630221 -0.060622294 0.23620783 0.0698997 0.24677354 0.17131278 -0.2768426
-0.06644623 -0.25588816 0.12105364 -0.17711885 -0.016486196 -0.24183159 0.17942417 0.20202233
0.094427936 -0.063717656 0.02090193 -0.27902308 -0.03215024 0.019928679 -0.22822717 0.0684871
0.06529265 0.12172653 -0.07627494 -0.2280698 0.1332393 0.06520051 -0.022482047 -0.23498891
0.2717103 0.14464748 0.23902793 0.1501571 -0.21453902 0.11206355 0.10449892 -0.22749625
-0.07819866 -0.12409632 -0.061354954 0.08026881 -0.27139643 0.16167653 -0.22656764 0.03487824
-0.13489817 0.119768724 -0.21124497 -0.2520502 0.012121208 0.12589285 -0.25711915 0.24915391
0.25072107 0.1056328 -0.12327471 -0.042609666 -0.042000037 -0.30037946 0.042601947 0.158693
0.24712402 0.19679025 0.00033952438 -0.028876092 0.08676637 0.2928769 0.2903946 0.101332024
-0.2510995 -0.27509263 -0.05804532 0.07371064 -0.29831064 -0.23295222 -0.07542486 -0.097817056
-0.2852141 0.20778733 -0.102355435 -0.08963476 0.16345577 -0.2876172 -0.08240606 -0.28718483
0.13936293 -0.20644793 0.20552793 -0.06476919 0.13908128 0.097530104 -0.2298857 0.21482712
-0.20077439 -0.010022783 0.1449956 0.11005787 0.14390433 0.19275554 -0.29518324 0.24666649
0.25643864 0.2091759 0.036962807 -0.004375744 -0.2196673 0.11643316 -0.04426171 -0.22893165
-0.03952521 -0.18775691 0.09859402 -0.031081056 -0.20662482 -0.07388679 -0.23886457 0.21839063
-0.097965345 -0.051174786 -0.1685647 0.010688498 0.04547488 0.033243496 0.2729414 0.11312453
0.026057722 -0.0288979 0.054702684 0.044002406 -0.27290553 -0.05042201 0.13212515 0.13624159
0.020230701 -0.04397112 -0.06715394 0.18379268 0.031133972 0.09895622 0.11878378 0.25074044
0.039821483 0.1926431 0.23461527 0.13564172 0.03564336 0.28260192 0.17756404 0.026356438
-0.15853304 0.1507024 -0.085793234 0.060526386 -0.07593842 0.18158941 0.11017365 0.27715027
0.11598052 0.01448423 -0.17774689 0.18535504 0.023135295 -0.13006496 0.14927536 -0.15568286
0.24943802 0.020882972 -0.019469539 0.058851022 -0.07023705 -0.074163675 0.123470105 0.22171703
0.17025773 0.206241 0.27199304 -0.13518324 -0.27940664 0.08238441 0.033308346 0.20279977
0.19548325 -0.13483003 0.1742929 0.08950548 -0.2829567 0.16023926 -0.06959092 -0.06249484
-0.04300649 -0.10276648 -0.22033145 -0.06083894 0.15689997 -0.30291516 -0.0897463 0.07552361
0.0067494716 -0.18804681 -0.23416921 0.14606293 -0.2531372 -0.11366502 -0.005070145 0.10079057
-0.22895838 0.18501067 -0.25705782 -0.18066475 -0.18990467 -0.120736115 -0.010890133 0.09893879
0.020583626 -0.16530606 -0.17928226 0.2668974 0.20693426 -0.21638422 -0.01938804 -0.12292126
0.06956782 -0.21826114 0.24147755 -0.2142453 -0.10640697 -0.22795072 -0.29668912 -0.07506462

bias f4 [128]
00000000: 9c90 333e 450a 8b3e 6b16 e8bd 9f94 3dbc
00000010: 961c ca3d 5ab1 3cbd b1ed 87be 5b3d 77bd
00000020: 22ea 5bbe 48dc 563e 71e5 f73d e3b1 d73d
00000030: a124 513e dcec ef3c eff2 3fbe 982a 303e
00000040: 2b90 25be 35fc 83be 384c f73d 3fb1 6c3e
00000050: db57 363e a1a6 8bbe 5046 3e3e bab7 0cbe
00000060: acc2 8b3e 494d 983d 32d2 873e 2fe6 c0bd
00000070: ca4a 123c 0a02 e23d e4f5 87bd f81c 32be
00000080: 0a74 6fbe f1ae 943e 1561 9bbe a1aa 073d
00000090: 9654 0abc 6f59 733e 56c9 86be 6f1b 793e
000000a0: b436 d6bd 34e3 37be 231c 0cbd 7e24 e9bd
000000b0: 25d6 cebc fa38 bd3d 338d 413e 9fce ff3d
000000c0: 414a 873e c5cb 2abe 656b 55be f066 60be
000000d0: b16a 4c3e bd06 513e 4e4a 8e3e 96b0 f83b
000000e0: 4cb3 683e d4e8 30bd 790f e13d 764d 383e
000000f0: 9f68 5e3e 1da3 79be 8ad0 8f3d a053 393e
00000100: ab70 813e b583 0abe f646 92bd 6726 113e
00000110: fd3a 5ebe e798 563e e7ac 893e 8dd7 6a3e
00000120: 5bf2 7cbe e777 8ebe 144b c83d b872 d9bd
00000130: 5d75 033e 5f13 9bbd c7f3 643e e46b bbba
00000140: a4e4 2b3e ed66 943d fc86 3c3e f663 ee3d
00000150: ab2b 903e 2c13 d53d ab36 8dbe 7f38 503e
00000160: dad8 2ebe fa85 94bd 1c77 75be 1569 503e
00000170: 094d 253e 0f15 06be a125 75be fb37 41be
00000180: 8ac1 173e ba9f 353e dc87 0c3e 38ae 96bc
00000190: dc76 80be 86d6 1f3d e167 353e c657 35bd
000001a0: 57dd 52be d381 873e 088b d3bd 551a 80be
000001b0: c42d 8b3e 5a75 abbd b145 93bd 5cfc cebd
000001c0: af1a 263e dac6 ca3c b3c5 c73d 3cf2 af3c
000001d0: 9343 3a3e 7180 5d3e 4bcb 203e d83a 34be
000001e0: 62b3 193e 7630 653c f803 8dbd 6a3d 403e
000001f0: d450 863e 3ed7 b63d 6b78 b33d e762 cebc
0.17535633 0.27156273 -0.11332401 -0.011571079 0.098687336 -0.046067573 -0.26548532 -0.060361248
-0.21476033 0.20982468 0.12104309 0.10531976 0.20424129 0.029287748 -0.18745016 0.17203748
-0.16168277 -0.25778356 0.120750844 0.23114489 0.17806952 -0.27275565 0.1858151 -0.13741961
0.2729696 0.07436616 0.26527554 -0.09418904 0.008928964 0.11035545 -0.06638697 -0.17393863
-0.23384109 0.2903972 -0.30347505 0.03312171 -0.008443018 0.23764585 -0.26325482 0.24326871
-0.104596525 -0.17957765 -0.03420652 -0.113839135 -0.025248596 0.09239383 0.1890152 0.12490582
0.2642384 -0.16679294 -0.20841749 -0.21914268 0.19962575 0.20412727 0.27791065 0.00758941
0.22724646 -0.043190792 0.10989279 0.17998299 0.21719597 -0.24378629 0.070221975 0.18098307
0.2528127 -0.13526805 -0.07142441 0.14174806 -0.2170219 0.20956765 0.26889727 0.22933789
-0.24701826 -0.27825853 0.09779945 -0.10617584 0.1283774 -0.07572054 0.22358619 -0.0014299122
0.16786438 0.07246194 0.18410867 0.1164016 0.28158316 0.10404047 -0.2758077 0.20334052
-0.1707491 -0.072521165 -0.23971218 0.20352586 0.16142668 -0.1309397 -0.23940136 -0.18869011
0.14819923 0.17736712 0.13723701 -0.01839362 -0.25090683 0.039022945 0.17715408 -0.04427316
-0.20592247 0.26466236 -0.103292525 -0.2502009 0.27183354 -0.083719924 -0.07191027 -0.101067275
0.16221116 0.024753023 0.09754505 0.021477811 0.1818984 0.21631028 0.1570255 -0.17600572
0.15009835 0.013988605 -0.068855226 0.18773428 0.26233542 0.08927773 0.08763202 -0.025193645

weight f4 [128, 128]
00000000: 0c68 933d 528c bfbb 2dba 99bd 50f9 eb3c
00000010: 4408 663d 9e6a 90bd 5f8e 183d d8de a63d
00000020: 5674 223d fe98 753c ea7e cabc 8fe7 e3bb
00000030: dcd4 b8bc ea22 e3bc d54e f7bb d5b7 983d
00000040: 211b bcbb d58b 7a3d d0db cfbc b521 15bc
00000050: 5e37 62bd c7fc d73b 9d58 893d be3d 0fbc
00000060: 937d 86bd 3b9d 493d bbd6 0dbd ea6c 153c
00000070: 8e75 3bbd 114a 053d 1dab 543b 83f3 6abb
00000080: ee76 713d 27d8 c4bc 419d 173d b301 8f3d
00000090: 55a8 15bd 0a8e b9bd 1c44 343d 062d 65bd
000000a0: 2bb5 52bc f07e 393c 2934 47bd 118a c03d
000000b0: 3ac7 a2bd 019a 453c 8998 943d 6a7b 2a3b
000000c0: 6d99 37bd 6bd2 49bc 5214 093d 38a0 32bc
000000d0: d4d4 8d3c 243e e3bc be31 f73c 45cf 6dbd
000000e0: 6f21 303d b73c 613d aba4 96bb c818 a1bd
000000f0: 26cf f9ba 948e 723d 3889 383d d831 51bb
00000100: 8c61 43bc be7e e73c 2eba 52bd 1151 b73b
00000110: 55c8 29bd afc9 3f3d 44bf 893c ae62 0dbc
00000120: 7c85 1d3d e8cb 21bd 061f 5d3d 0f23 523d
00000130: 89cd 303c 01f4 5f3c 3af6 303d 416a 6fbd
00000140: 4c17 d73c c30f f73c a94d 19bc 5c87 e3bc
00000150: dfaa 91bd 7593 04bb 77c9 5c3d ed11 18bd
00000160: cc07 233d 1ed3 9cbd 0df6 a23d e351 58bd
00000170: b37b 7bbd 7415 8a3b 1cb3 a1bc ccf5 a23d
00000180: 9c75 9e3d 63ae 4dbd 7a63 2f3d 1b3a d0bc
00000190: d8d2 463d 12cd 99bd 18d8 5a3d 8321 563d
000001a0: e5f4 a7bd d736 70bb acf2 70bd 7809 d73c
000001b0: 6710 b0bd b4c8 e93b 9d6a 923d c8a0 70bd
000001c0: a409 7b3d e017 223d e1e3 203d 2eac dcbc
000001d0: c583 0a3c 7f38 ad3c 7619 6fbd 72b8 9dbc
000001e0: 3739 ba3b f623 113d c44c a8bd 5e36 ebbc
000001f0: 0f46 9c3d b03e 2ebd 8acb 343d 17c6 493d
00000200: 8848 c83d e8c2 ad3d 76e8 423d 138b a1bd
00000210: 06ff 84bb db5f 773d c0d2 a6bd b66d 813d
00000220: b137 60bd aeed 963d 7dfa 7bbb ac33 803d
00000230: 53df 223d 366a 483d c825 823c de5f f23a
00000240: fb26 cabc 6d4c 91bd eb15 963d 50f9 57bd
00000250: 7c60 1d3a 0e46 003d b9fe a03c f03f 933d
00000260: d9ba 9bbd c382 bebd 1539 01bd 8c4c 22ba
00000270: 5227 83bd 5c3b 7cbd 602a f43c 2a55 04bd
00000280: 9446 793c f583 653d 513a dbbd e8a7 91bd
00000290: ad5b eebd 8897 84bd 99f5 b43b 70a1 143b
000002a0: 7561 133d 5d8b ca3d a4d1 8a3d 1716 a93d
000002b0: 7358 813b c0d0 95bc d8a7 5a3d 3382 f33c
000002c0: fa84 0ebd abff 08bd 8cfe ad3d c350 54bd
000002d0: d551 eabc 897f a63d 5de9 6abc fd13 a43d
000002e0: 6163 de3b 36cf 78bd ed30 40bc f682 643c
000002f0: 4272 223c 69b4 65bc 07ac 14bd 008d 573b
00000300: 8916 34bd 9ade cdbc 6d20 e0bd dd6c 29bd
00000310: d2bb 5abd 3582 043d 4499 8dbb 71ae 693d
00000320: 592d 9ebd a63b 20bc 98f9 aebd c2fc 783d
00000330: 67da 74bd 70ed 963d 8fbb 2abd 4993 843d
00000340: 8cac 823d 932a 603d 852c a23c fabb ef3c
00000350: 2134 543d fe8d 5e3b 5098 993d a38c 263d
00000360: 63a2 9fbd 2fd6 04bc 5a6b 5dbd 173d 0abd
00000370: 66ac 983d 6f0f cd3b b3fc 81bc 2276 a53d
00000380: a1dd a8bd 6f87 9abd cc21 863d 8b94 ec3b
00000390: 32d9 a53c a77e a33d 6522 413d 1e3a b73d
000003a0: 8726 623d cd04 00bd db27 fcbd f366 80bd
000003b0: 46b4 453c 567b 7e3d ea0e c4bd b5ca 38bc
000003c0: 071a af3d da3e 773d 1cd7 0f3c f77e 0d3d
000003d0: d4b1 773d a815 a9bd d8bb c7bc 0b79 283c
000003e0: eb55 923c 37b4 7b3d bd8e b93c 6329 113d
000003f0: 2711 4fbd 1085 1a3c 5a7a 37bd eea4 9b3d
0.0719758 -0.005845585 -0.07506213 0.028805405 0.056160226 -0.070515856 0.03724515 0.08147973
0.039661728 0.014990089 -0.02471872 -0.006955094 -0.022562437 -0.02772661 -0.0075472393 0.07456938
-0.0057405387 0.06116851 -0.02537337 -0.009102275 -0.055228584 0.0065914127 0.06706355 -0.008742748
-0.0656692 0.049222212 -0.03462861 0.009120205 -0.045766406 0.03254134 0.0032450624 -0.003585071
0.05895131 -0.02402885 0.037015203 0.06982746 -0.036537487 -0.09060295 0.044010267 -0.05595114
-0.012860577 0.011321768 -0.04863373 0.09401334 -0.07948156 0.012060643 0.07255656 0.0026013502
-0.044824053 -0.012318234 0.033466645 -0.010902457 0.017313398 -0.027739592 0.030175086 -0.058058996
0.043000635 0.054989543 -0.0045972667 -0.07866055 -0.0019058927 0.059218004 0.045052737 -0.0031920578
-0.011925112 0.028258678 -0.051447086 0.0055943807 -0.041450817 0.0468232 0.016814835 -0.008629484
0.03845738 -0.0395011 0.053984664 0.051302966 0.010791191 0.013669015 0.04320357 -0.05845094
0.026256226 0.030158883 -0.0093568945 -0.027774505 -0.07112669 -0.0020229493 0.05390307 -0.03712647
0.039802358 -0.07657455 0.07957087 -0.05281247 -0.061397266 0.004213983 -0.019738726 0.07957038
0.07737276 -0.050215136 0.042819478 -0.025418332 0.04854092 -0.07509817 0.05342874 0.052278053
-0.08201007 -0.003665378 -0.05882518 0.026249632 -0.085968785 0.0071345214 0.07149241 -0.058747083
0.06128849 0.03957355 0.039279822 -0.02693757 0.008454268 0.021145103 -0.05837389 -0.01925299
0.00568309 0.035434686 -0.08217767 -0.028712448 0.0763055 -0.042540252 0.044139422 0.04926118
0.09779459 0.08484441 0.047584973 -0.078878544 -0.0040587215 0.06039415 -0.08145666 0.06319754
-0.05474061 0.073695526 -0.0038448863 0.06259856 0.03976376 0.048929416 0.015887156 0.0018491705
-0.02467679 -0.07094655 0.07328399 -0.052727997 0.0006003452 0.03131681 0.019652711 0.071899295
-0.07603998 -0.093022846 -0.03154858 -0.0006191216 -0.06403984 -0.061580047 0.029805362 -0.03230778
0.015214581 0.056034047 -0.10704482 -0.07112104 -0.116385795 -0.06474215 0.0055224416 0.0022679232
0.035981614 0.09889863 0.06778267 0.082561664 0.0039473115 -0.018288016 0.053382725 0.02972517
-0.034794785 -0.03344695 0.084958166 -0.051834833 -0.028603474 0.08129794 -0.014337865 0.08011625
0.006786749 -0.060744487 -0.011730415 0.013947239 0.0099149365 -0.014020064 -0.03629687 0.003289044
-0.043966804 -0.025130559 -0.10943685 -0.041363586 -0.053401776 0.032350738 -0.004321249 0.057051126
-0.07723493 -0.009779846 -0.085437 0.060787924 -0.059778597 0.07369506 -0.041682776 0.06473405
0.06380567 0.054728102 0.01979662 0.029264439 0.051807526 0.0033959146 0.074997544 0.040661465
-0.07794645 -0.008107706 -0.054057457 -0.033749666 0.074547574 0.0062579433 -0.015867567 0.08079173
-0.08245397 -0.07545363 0.06549415 0.007219856 0.020245168 0.079831414 0.04715194 0.08946632
0.055212524 -0.03125458 -0.12312289 -0.06269636 0.012066906 0.06212934 -0.09573157 -0.011278798
0.08549886 0.060362674 0.008779313 0.03454491 0.060472324 -0.08256084 -0.024381563 0.010282765
0.017863235 0.061451163 0.02265107 0.03543986 -0.050553467 0.009431139 -0.044794418 0.07599817

bias f4 [128]
00000000: ea17 8f3d 1ce3 0a3d f718 8cbd bd11 87bd
00000010: 9325 1ebd 695e 53bd 6d51 afbc e350 adbd
00000020: c443 b1bd d443 df3c d8c9 babc 013b 8a3d
00000030: 6c8b 69bd fa0e 2d3c 32cd 2dbc 2469 803d
00000040: 02d5 18bc 42f3 46bd 26e5 943d 32a9 81bd
00000050: 4d08 9f3d a797 60bd ae6c e13c 03f8 e3bc
00000060: 1f57 9bbd b6f2 94bb ac4c 1cbd 5da1 573d
00000070: 6009 b03d ff04 b93c 9262 16bd f113 853d
00000080: 56cd 7fbc 5725 48bd 163d 9c3d 3ab7 a4bd
00000090: 321e b0bd 940c acbd c8c6 20bc 889d 943d
000000a0: c635 343d a9e6 8c3d 3f45 e1bb d0cd 2a3d
000000b0: 93cd 9fbd 1e45 163d 6817 0dbd ae8d 43bd
000000c0: 34dc 71bd ed5b 513d 1b8f acbd 847c 303d
000000d0: f0e8 0bbd a8a9 013d f35f 703d 0ac3 4dbd
000000e0: b3ce e6bc 578d 473c d4fe 1abd 95f9 803d
000000f0: 95e8 353d a742 913d 443b 98bd 7788 9cbd
00000100: 0e9a 7bbd 0005 9b3d f14b 2d3d 97f4 493d
00000110: 9bb7 693d 1f22 e13c 14d9 a13d 3280 debc
00000120: aed6 803c ff98 d0bb 1efb 2c3d 56c3 0a3d
00000130: 36b1 87bd d4c7 b83d 7798 36bd 5c39 f03c
00000140: da91 a2bc 8e87 593d c656 a9bd 4c6d 1b3d
00000150: 3162 b2bc 3000 443c 328f 1dbd a87d 0abd
00000160: 2001 a23c 078f b1bc 1082 71bd 2259 b7bc
00000170: 5de3 87bb 409a f7bc 630f a6bc 7a1d 9f3d
00000180: 7cf9 f03b 7a00 153d 4c6f bcbc d3bd 293d
00000190: 769e 56bd 9013 b5b8 3cf7 a6bd 8643 503d
000001a0: 6a8a e1bc 8632 b0bc 148e 273d 1c58 9bbd
000001b0: d547 71bd 3c49 803d 543d 813d 1534 16bc
000001c0: d8bf 883c 0c17 1dbd 4b5f 9abd 5369 c03c
000001d0: 134b 743b 293c 98bd 1d47 a6bc ca4d 98bd
000001e0: 3cde 8ebd 3420 343d b499 483d 0055 bfbc
000001f0: 229c 143d b142 2abd 6406 93bd ae9e 723c
0.06986983 0.033907995 -0.06840699 -0.0659518 -0.038610052 -0.05160371 -0.021401132 -0.084626935
-0.086555034 0.027254023 -0.022801325 0.06749535 -0.05701773 0.010562653 -0.010608004 0.06270054
-0.009328129 -0.048571832 0.07270269 -0.063310996 0.07765255 -0.054832127 0.027517643 -0.027828222
-0.075849764 -0.004545535 -0.038159057 0.052644122 0.08595538 0.02258539 -0.036715098 0.06497944
-0.015612921 -0.048863735 0.07628839 -0.0804276 -0.08599509 -0.084008366 -0.009813018 0.07256609
0.043996595 0.068799324 -0.00687471 0.041700184 -0.07802882 0.03668701 -0.03444615 -0.04774254
-0.059047893 0.051113058 -0.08425733 0.043087497 -0.034157693 0.031655937 0.058685254 -0.050234832
-0.028174734 0.012179694 -0.03784068 0.06297604 0.04441126 0.07092791 -0.07433179 -0.07643216
-0.061426215 0.07569313 0.04230875 0.049305525 0.057059865 0.02748209 0.079027325 -0.027160738
0.015727367 -0.006365895 0.04223167 0.033877693 -0.06625597 0.09022489 -0.044578996 0.029324226
-0.019844938 0.05310779 -0.08268504 0.03794603 -0.021775337 0.011962935 -0.03846664 -0.03381124
0.019775927 -0.021674646 -0.058961928 -0.022381369 -0.004146977 -0.03022492 -0.020271009 0.07769294
0.0073539596 0.036377408 -0.02300229 0.041440796 -0.052397214 -8.634396e-05 -0.08152625 0.050845645
-0.027531821 -0.021508466 0.04090698 -0.07585165 -0.058906395 0.06263968 0.063105255 -0.009167691
0.01669304 -0.038352057 -0.07537707 0.023487723 0.0037276193 -0.0743335 -0.020297581 -0.07436712
-0.069759816 0.043976024 0.048974708 -0.02335596 0.036281712 -0.041567508 -0.07178953 0.01480834

weight f4 [20, 128]
00000000: c2a5 37bd 395d 03bd d5b4 4f3d 4999 ee3c
00000010: b782 59bd fa36 a6bc 346a 4ebd 7895 edbc
00000020: 61b3 f83b 1b14 a6bd 7288 b13d 452d 893d
00000030: f420 3a3d 7074 113d d36b 1dbd 2b57 68bd
00000040: 6b92 de3c 5692 a33d 9b19 823d 2536 19bd
00000050: 69dc 893d 4ec6 c8bb ef4a ad3d 2d0f 1d3c
00000060: ec99 ebbc 50cb 29bc 0c81 96bc 7cca e2bc
00000070: 4b2b 983c b6f3 b43c ae6f f0bc 03c0 a83d
00000080: cbb8 86bd fa5e 04bd 6c0b f63c f9d6 51bc
00000090: 9ead 04bd bdcd 55bd 24e9 1abd a317 d63c
000000a0: 91f3 0e3c 0190 b0bd f3aa 213d 2145 eabc
000000b0: bb28 3cbd 040e 90bc e465 77bd fb91 743d
000000c0: aee8 94bd ef8c b7bd e260 56bd 179e 6c3d
000000d0: 42af 91bd 9dc4 cc3c 2b5d 023d e9ad 153d
000000e0: fb9f 2d3d a25e e63c 04bc da3d 4101 1bbd
000000f0: b2c2 9f3d 4cef b3bc 1063 99bd 82f1 fc3c
00000100: 0fdf 913c ef35 ff3c 1e88 753c 4f28 9abd
00000110: 76f3 04bc 8c67 17bc 1fb6 f0bc c182 023d
00000120: 0d68 a43d 9075 4bbd 7f63 89bb a15d 60bc
00000130: 5407 58bb 5c48 98bc 5489 b93b 3597 9e3d
00000140: 2994 7ebd 1f66 98bc 6c1e 43bd b0ac 9dbc
00000150: 148d c53d 6ba5 36bd d7fa 83bd 6e18 b6bc
00000160: 50d6 b43d 166f 95bc 45d3 c33c bacf aa3d
00000170: 8ffe 983c 8db4 82bd 8447 b33d bd34 8cbc
00000180: 43c9 07bd 6cb0 58bd a675 973d 1c69 2cbd
00000190: 700d da3d 62fc 713d 1a9d 3ebd e1ce 99bc
000001a0: f957 7c3d 998f a4bc cbc8 8e3d 1bbd 0c3b
000001b0: 8779 8e3d 3bda 21bd f9ee b83c f49f b2bd
000001c0: dc4e 4b3d d9a3 e8bc e8d2 083c 0ed2 133d
000001d0: 6011 233d 1ced 8c3d ed90 e23c e018 10bc
000001e0: a415 a7bc 8c5e 9cbd 33a7 8ebd ae51 4ebd
000001f0: 07fa 9d3d 2b60 c23c 7236 0bbd 61ed 4cbd
00000200: cf51 63bc a956 56bd 51a6 7abd c35a 893a
00000210: 3a93 25bd d0c7 73bd acae e5bc bf77 f13d
00000220: 83ca e7bc 776b 5a3d 9bae ff3c b4a3 78bd
00000230: 9dab 473d 7721 603d 7f4c aa3c 8e0f 8ebc
00000240: 5e5b 8abd fe75 6cbd 4d3a 87bd bf72 9b3d
00000250: 19ea 37bc 63fc 3abd 1918 a13c b849 09bb
00000260: e035 db3c 7ff1 37bb 0dd5 88bd 34ec a23c
00000270: ec64 b5bc 1296 89bd 0a80 81bc d940 50bd
00000280: 92a0 8cbd 933a 053d fc08 19bd 4926 f33c
00000290: 5867 13bb cb6c 463d 1f8f 33bd b921 8f3c
000002a0: 9f47 a8bd 2d85 9a3c b53c 56bd 3a72 20bc
000002b0: 56c6 913d 946c 1b3d e8ce aabd 16b8 aabd
000002c0: 0c28 83bd 5603 4d3d 58f3 913d bec3 efbb
000002d0: 3ed5 bf3b b556 01bd 1d5e 79bd 0820 d5bb
000002e0: d7b8 1fbd 4682 35bd 573b 8cbc d7d5 b0bd
000002f0: 6d26 ddbc 0338 52bd 4033 99bb ceeb c6bb
00000300: 4a81 c93c 46a2 e5bc 62cb 4b3a 2ad8 483d
00000310: b8c8 413c cb43 60bc 7a19 1d3d 2de0 f43c
00000320: c775 643c 0d6e 07bc 145f 73bd 92f3 ae3d
00000330: dfb5 d53c cf30 d2bc f24d c03c 43ec 9f3c
00000340: febc b1bb d00f b0bc 0afb 683d 14ff 9c3d
00000350: 1f6a f2bd fecf b5bd 1cf9 f2bc 3598 493d
00000360: 1d34 a9bc ece4 893c b229 80bc 9c5c 783d
00000370: 4935 57bd 0834 a6bd a79e 9fbd bf5f 9e3c
00000380: c0f6 96bd c267 863d ce1a 3bbd 0e1c 9abd
00000390: b946 7f3d 24c7 cdbb 5ca1 d53b 9e12 cbbb
000003a0: c0e1 26bd 7d43 ec3c 3255 ac3c 8d61 973d
000003b0: 5b18 8a3d e472 3bbd d05f 92bc 916a b13c
000003c0: ce4b 763d e0b7 e23b 7409 3b3d 611c df3c
000003d0: 8641 2f3d a12f 51bc cf2f 883d 68f4 663d
000003e0: bb2f ca3c 8c57 03bd 544c d6bc 62ce 8c3d
000003f0: 6d95 8bbd 4a1a 5b3d f124 613c 2e94 abbd
-0.044835813 -0.032071326 0.050709564 0.029125826 -0.053103175 -0.020289887 -0.050394252 -0.029001936
0.007589743 -0.081093036 0.08668603 0.066980876 0.045441583 0.035511434 -0.038432907 -0.056723755
0.027169427 0.07986896 0.0635254 -0.037405152 0.06731493 -0.0061271554 0.08461558 0.009586138
-0.02875992 -0.010363415 -0.018372081 -0.027684443 0.018575331 0.022088867 -0.029350128 0.08239748
-0.06578215 -0.03231714 0.030034743 -0.012807601 -0.032392137 -0.05219816 -0.037819996 0.026134318
0.008725063 -0.086212166 0.03946967 -0.028597416 -0.04593728 -0.017584808 -0.060399905 0.05970953
-0.07270943 -0.08962428 -0.05233849 0.057767954 -0.07113506 0.024996096 0.031827133 0.036542807
0.042388897 0.028121296 0.106803924 -0.037842993 0.07800807 -0.021964692 -0.07489598 0.030876879
0.017806558 0.031153647 0.014986066 -0.075272195 -0.008114686 -0.009240996 -0.029383717 0.031862978
0.080276586 -0.049672663 -0.004192769 -0.013694198 -0.0032963352 -0.018589191 0.0056621227 0.07743684
-0.062153015 -0.018603383 -0.047636434 -0.019247383 0.09646049 -0.04459135 -0.06444328 -0.022228446
0.08829939 -0.018241446 0.023904452 0.08340402 0.01867607 -0.063820936 0.08753875 -0.017114991
-0.033150923 -0.052902624 0.073954865 -0.042092428 0.10647094 0.05907858 -0.046536542 -0.018775405
0.061607335 -0.020088004 0.06971892 0.002147502 0.06956773 -0.03951476 0.022574889 -0.08721915
0.049635753 -0.028398441 0.008351065 0.036088996 0.039811492 0.068811625 0.027656997 -0.008794993
-0.020396061 -0.07635221 -0.069654845 -0.050370865 0.077137046 0.023727497 -0.03398747 -0.05003107
-0.013874485 -0.05232874 -0.061193768 0.001047932 -0.04042361 -0.059516728 -0.028037392 0.11790418
-0.028294807 0.053325143 0.031211188 -0.060702994 0.048747648 0.054719415 0.02078843 -0.017341401
-0.06755708 -0.057729714 -0.06602917 0.075902455 -0.011225247 -0.04565085 0.019664811 -0.002094848
0.026759088 -0.0028067527 -0.06681261 0.019888021 -0.02214285 -0.06718077 -0.015808124 -0.050843094
-0.06866564 0.032526564 -0.037362084 0.029681342 -0.0022492018 0.048443597 -0.043837663 0.017472135
-0.08216786 0.018862331 -0.05230399 -0.009792859 0.07117908 0.037945345 -0.083402455 -0.08335893
-0.06404123 0.05005201 0.07126492 -0.0073170355 0.005854278 -0.03157683 -0.06088077 -0.0065040626
-0.038994636 -0.04431369 -0.01711814 -0.08634537 -0.026995862 -0.05132295 -0.004675299 -0.0060705906
0.024597783 -0.02803148 0.0007774142 0.049034275 0.01182764 -0.013688038 0.038354374 0.029892052
0.013944096 -0.008265984 -0.059416845 0.08542551 0.0260877 -0.02565804 0.023474667 0.019521838
-0.005424141 -0.021491915 0.056880035 0.0766584 -0.11836647 -0.08877562 -0.0296598 0.04921742
-0.020654732 0.016832791 -0.015644882 0.060635194 -0.05254105 -0.08115393 -0.077939324 0.019332765
-0.073712826 0.06562759 -0.04567986 -0.07524882 0.062323306 -0.006279843 0.0065194797 -0.0061972877
-0.040742636 0.028840775 0.021036718 0.07391653 0.06742927 -0.045763865 -0.017867953 0.02165726
0.060130887 0.0069188923 0.045663312 0.027235212 0.042787097 -0.012767703 0.06649744 0.056385428
0.024680963 -0.032065913 -0.026159443 0.06875302 -0.0681561 0.053491868 0.013741718 -0.083778724

bias f4 [20]
00000000: 4333 84bd a66f 843d 4b9e a4bd 0481 3cbd
00000010: 67ba fe3b e895 5abd c1bf d1bc ab2f 2f3c
00000020: 7033 26bd 8ccb 933d 2e60 27bd 151c 8c3d
00000030: 8143 8cbd 515a 13bd 5a12 7b3d ebde 5c3d
00000040: 64be ad3c e3de 983d b926 da3b b0f1 4fbc
-0.0645509 0.06466608 -0.080380045 -0.046021476 0.0077736857 -0.053365618 -0.02560413 0.010692517
-0.0405764 0.07216558 -0.04086321 0.06841294 -0.06848813 -0.035974804 0.0612968 0.05392353
0.02120895 0.07464387 0.006657448 -0.0126919
