abalone/abalone_surrogate.pt (torch, 81639 bytes, 6 tensors)

weight f4 [128, 20]
000000 c1 f2 b6 bd 93 22 a1 3d da b6 3d bd 9e 7d f5 bd
       -0.089330204 0.07867923 -0.04631696 -0.1198685
000010 55 a0 6d be 04 4f 57 3d 41 38 98 3e cf bb ef 3c
       -0.23205693 0.05256559 0.29730418 0.029264359
000020 c1 69 94 3d 85 82 ab 3c a0 12 5a bd 8d ba 57 bc
       0.072467335 0.02093626 -0.05324042 -0.013167036
000030 49 19 51 3e 49 53 34 3e a0 10 23 3e 4a a3 c1 bd
       0.20419802 0.17609896 0.1592431 -0.09454973
000040 21 a6 2c 3d 4c a0 93 bd 8f ee 00 be 49 f3 ad 3d
       0.04215062 -0.072083086 -0.12591003 0.084936686
000050 b5 a1 b5 bb 8a 76 1f 3e a2 c5 5b 3c ef cd 07 3e
       -0.0055429586 0.15572563 0.013413819 0.13262151
000060 51 83 84 3e d3 09 d5 bd 66 b6 51 3e 99 f7 27 3c
       0.25881436 -0.104022644 0.20479736 0.010251903
000070 ed 33 22 3e 13 ae 37 3e 66 c2 38 bd 15 c3 5c be
       0.1584012 0.17937498 -0.045107268 -0.21558793
000080 51 b6 87 bd c7 71 13 3e d7 16 d5 3d c7 92 1d 3e
       -0.06626571 0.14398871 0.10404747 0.15388022
000090 64 2f 73 be ee 04 00 bd 42 a3 45 be 5a 8b 50 3e
       -0.23748547 -0.0312547 -0.19300559 0.20365658
0000a0 7e ac cb 3c 7c 4a 18 3d f8 ee 2c bb ea 5d 56 3e
       0.024862524 0.03718041 -0.0026387554 0.20934263
0000b0 ed 44 66 3e 1f 24 18 be d6 1f 59 3e e2 3d 19 bc
       0.2248723 -0.14857529 0.2120355 -0.009353133
0000c0 e2 25 51 3e 98 39 f7 3c 4b 3d 25 3e a7 fa 0f 3e
       0.20424607 0.03017883 0.16136663 0.1406046
0000d0 7d 4b 1d be 57 38 1c bd 71 3c 8b 3d 17 4d 57 3e
       -0.15360828 -0.038139667 0.06798638 0.21025501
0000e0 7a 20 1e 3e ab fa 25 3d 3a 34 d9 bd e3 10 6f 3d
       0.15442076 0.04052226 -0.106056646 0.058365714
0000f0 cc b5 88 3e d1 fa 5c bc b9 0e 1f 3e 52 9c ff 3c
       0.267012 -0.013487534 0.1553296 0.031202469
000100 23 99 8f 3e d4 7d d2 bd 7e a2 ec 3d 82 66 8d bc
       0.28046522 -0.10277906 0.115544304 -0.017260794
000110 d6 94 a1 bd 6c 2a 4c 3e ee 9d 0a be 69 bd 03 bc
       -0.07889716 0.19938058 -0.13536808 -0.008040764
000120 d0 dd 4b bd 55 d6 5b be 99 15 94 bc ca 5d f8 bb
       -0.049772084 -0.2146848 -0.018076705 -0.00757954
000130 bc db 92 3a ec b1 77 3e 1f 70 05 bc 21 33 21 be
       0.0011204402 0.24188966 -0.0081444075 -0.1574216
000140 85 c4 d5 3c aa 9b 45 3e 57 b4 89 3e 8e 13 35 3d
       0.026094684 0.19297662 0.268954 0.044208102
000150 87 6d 29 3e 2a 76 2d bc 51 af e8 3d 33 a1 e4 bd
       0.16545688 -0.010587255 0.11361564 -0.11163559
000160 b6 0d 30 3d 16 45 14 3e 6c 14 b8 3d 7c 5f b1 3d
       0.042981826 0.14479479 0.0898827 0.0866079
000170 d2 5d 4b 3e 48 27 03 be 50 2d 28 3e b7 9b 1b be
       0.19860008 -0.12807953 0.16423535 -0.15196119
000180 0b a3 42 3e 65 61 28 3e 4c 75 2e 3d 22 41 5d be
       0.19007508 0.16443403 0.04259233 -0.21606877
000190 08 8d 93 be 95 de a3 3d 4a 63 9c bd 00 d9 95 be
       -0.28818536 0.080014385 -0.076361254 -0.2926712
0001a0 a5 fa 2e 3b 06 0e 7e bc 58 72 ea 3d 2d 48 c9 bd
       0.0026699689 -0.015506273 0.114475906 -0.098282196
0001b0 a6 48 8f 3d 11 f2 59 bb 1e 51 88 3c 75 71 3c be
       0.069962785 -0.0033255855 0.016640242 -0.18402655
0001c0 ba e4 3c be c0 7f 42 bd 44 2e dd bb 28 0a 0f be
       -0.18446627 -0.047485113 -0.0067499 -0.13968718
0001d0 37 fb 8c bc b7 fa 32 3e de a8 ce bd d6 44 0c 3e
       -0.017209632 0.17478453 -0.100908026 0.13698134
0001e0 d9 d5 84 be dc 3c fe 3b 49 0c 91 be 87 a8 33 bd
       -0.25944403 0.00775872 -0.28329685 -0.043861892
0001f0 96 83 08 be 8a 60 ee bd 1e 0c 36 bd f0 6f 30 bd
       -0.13331446 -0.11639507 -0.04444515 -0.043075502
000200 69 aa 90 ba 15 89 f1 3c ae eb dc bc f3 6d c6 bd
       -0.0011037114 0.029484311 -0.02696785 -0.0968894
000210 89 be 64 be 36 18 86 be 1a cf 2e 3e 34 ed 54 bd
       -0.22338308 -0.26190346 0.1707119 -0.051984027
000220 00 a3 6c bd 87 7b 48 be 3e b4 97 3d 8d 73 11 3e
       -0.057772636 -0.19578372 0.07407425 0.14204235
000230 17 56 2a 3a cf ab 42 3d c6 e5 da bc 84 95 4e be
       0.0006497814 0.04752713 -0.026720893 -0.20174223
000240 89 a2 3d be 37 d8 52 be 82 3c a1 3e 1f 63 30 3e
       -0.18519033 -0.20590292 0.31491476 0.17225312
000250 85 2a 62 3e 28 f8 3b be 60 66 af 3d 7e 01 46 3d
       0.22086532 -0.18356383 0.08564448 0.048341267
000260 e7 49 a7 3c 8c ec 29 3e b2 c6 16 be 50 91 3b bd
       0.020420982 0.16594142 -0.14724234 -0.045792878
000270 8b 2b 17 3d f5 90 4a 3e cc d6 3d 3e 59 30 08 bd
       0.03690676 0.19781859 0.1853897 -0.033249233
000280 d2 75 f1 3d 42 65 ec 3d ec a5 87 be a7 82 a0 bd
       0.117900506 0.11542751 -0.26493776 -0.0783742
000290 6c b7 d2 3b 84 ec c8 3d ea dc d9 bd 31 de 16 3e
       0.006430557 0.09810737 -0.10637839 0.14733197
0002a0 23 02 44 be d5 63 08 bd 92 7f 1b be 41 4c f4 3d
       -0.1914144 -0.033298332 -0.15185383 0.11928607
0002b0 7e 0e 08 be 7a 91 ab 3d f8 7d db 3d 66 54 a8 3b
       -0.13286778 0.08377357 0.10717386 0.005137014
0002c0 49 39 68 be 4a 42 43 3e c1 f3 5f be 30 b3 24 3b
       -0.22678103 0.19068256 -0.21870328 0.0025131218
0002d0 ef 2c c0 3d 61 4c d4 3d f9 10 21 3e 85 f3 53 be
       0.093835704 0.103661306 0.15729131 -0.20698364
0002e0 c3 92 68 be ce 2f 16 3e 24 1e 95 3e 47 49 ed 3c
       -0.22712235 0.14666674 0.29124558 0.028965605
0002f0 c2 e6 25 be 15 aa 43 be 61 6d 09 be 68 e2 11 3d
       -0.16201308 -0.1910785 -0.13420631 0.03561631
000300 51 71 99 bd 82 b2 42 be 66 50 6b 3d 7b 3b 23 3e
       -0.074923165 -0.19013408 0.05744972 0.15940659
000310 b2 73 72 3c 63 c4 59 3e 7b 7a 38 be 54 39 6c 3e
       0.014798092 0.21266322 -0.18015473 0.23068744
000320 86 4f 85 bd 0b 2a 87 3c 8d 8d 87 bc b1 fd d3 bd
       -0.065093085 0.01649954 -0.016546989 -0.10351122
000330 da f0 06 3e 3d 9c 37 be 13 94 90 be 7b 44 5c bc
       0.13177815 -0.17930694 -0.28237972 -0.013444061
000340 cf 76 13 be fc b6 42 be 2d d8 3e be 16 74 98 3d
       -0.1440079 -0.19015115 -0.18637152 0.07444017
000350 1c 95 22 bd a6 e3 d0 bc 34 dd 22 3e 35 da a3 3d
       -0.039692983 -0.025499176 0.15904695 0.08000604
000360 c3 25 2a 3e df 61 54 3e 1c 9e 40 3c 77 f2 5c be
       0.16615967 0.2074046 0.011756446 -0.21576868
000370 89 82 8d 3d ea 3d 9d 3c ec ca 25 3e fc 8d 7f 3d
       0.06909663 0.019194562 0.1619069 0.062391266
000380 0b 86 8c bd 0d 4f 8e bd 3b b1 77 3e e1 98 6c be
       -0.06861504 -0.069486715 0.24188702 -0.23105194
000390 89 13 ca 3c 99 54 44 be f0 63 1f be 9b 38 13 3e
       0.024667518 -0.19172896 -0.15565467 0.14377062
0003a0 26 57 1c 3e d4 06 31 3d 6c ee 1b bd dc 6a 5c 3e
       0.1526762 0.043219402 -0.038069174 0.21525139
0003b0 74 d3 04 3d 66 a2 4d be c0 55 4e be 97 c2 e4 3d
       0.03242822 -0.20081481 -0.20149899 0.111699276
0003c0 06 fd 0b be 91 2b 1b be f0 ef 62 3e c1 32 3c bd
       -0.1367074 -0.15153338 0.22161841 -0.04594684
0003d0 63 7f 20 3e 86 64 a2 3d bb 1f 28 3c e6 1e c3 bd
       0.15673594 0.079293296 0.010261471 -0.09527378
0003e0 7a 85 3e 3c ec 05 17 be d9 c0 07 be f9 eb ae 3c
       0.011628503 -0.14748353 -0.1325716 0.021352755
0003f0 d5 e5 21 3d b1 a9 cc 3d 59 0c 40 bd 06 ba 45 3e
       0.039525826 0.099933036 -0.046886776 0.19309244

bias f4 [128]
000000 db 65 f4 bd d9 9c 13 3e d2 24 d6 3d 3b 44 af bd
       -0.1193349 0.14415301 0.10456242 -0.08557936
000010 35 bf a1 3d bc 17 81 bb c7 d6 bd bc b6 f1 25 be
       0.07897798 -0.003939597 -0.023173703 -0.16205487
000020 15 76 fa 3d 17 1b 6a bd 48 bf 4a bd cb 03 5a 3e
       0.122295536 -0.05715474 -0.049498826 0.2129051
000030 b4 b5 81 bd 64 47 39 3e 19 15 20 be 1f 7f 18 3e
       -0.06333485 0.1809364 -0.15633048 0.14892243
000040 a4 3f 56 3e 24 fb c8 bc a6 a0 cd 3d 03 41 c3 bd
       0.20922714 -0.024533816 0.10040407 -0.095338844
000050 09 be 05 bd 8e 5a 03 be be 0a 49 be c5 8f 6e bd
       -0.032651935 -0.12827513 -0.19633004 -0.058242578
000060 46 ab f8 3c 07 2a cf 3c b6 75 5d 3e e9 96 c6 bd
       0.030355107 0.025288595 0.21626934 -0.096967526
000070 78 76 08 3e a5 f0 e7 bd 44 cf be 3d d6 94 e8 bd
       0.13326442 -0.11325196 0.093168765 -0.11356513
000080 df 18 1c be 73 1c 14 bc b4 56 92 bc 8a 33 20 3e
       -0.15243863 -0.009039986 -0.017863609 0.1564466
000090 e2 da 55 3a 8b da 26 be 01 0f fe 3d 93 d6 b3 3d
       0.0008157921 -0.16294305 0.124052055 0.08781161
0000a0 fc c8 88 bc ca 0d e8 bd 4e 01 f9 3d 3c 27 43 be
       -0.0166974 -0.11330755 0.12158452 -0.19057935
0000b0 84 5d 0e 3d 96 68 09 3b cf 68 30 bd 87 ff e1 bd
       0.034757152 0.002096688 -0.043068703 -0.11035066
0000c0 60 1a 08 bd fc 5f 90 bd ed a4 4a bc ab 0b 85 bb
       -0.03322828 -0.070495576 -0.012368423 -0.004060229
0000d0 26 dd d5 3d 9d 41 29 3e 0b 20 c1 bd 3a 05 1e 3e
       0.10442571 0.16528936 -0.0942994 0.15431681
0000e0 18 b3 3d be 99 1f 1f 3c 4b 49 23 be 44 93 b6 bc
       -0.1852535 0.009712123 -0.15945928 -0.022287019
0000f0 c3 f3 b4 bd 4c b5 c2 3d 81 53 c9 3d 3f ce f1 bd
       -0.08835556 0.09507236 0.0983038 -0.118069164
000100 83 65 c8 b8 40 8f c7 bd f7 6c 12 3e 95 be c6 3d
       -9.555651e-05 -0.0974412 0.1429938 0.097043194
000110 56 3b d3 3c f4 2f 0c 3e db 26 a0 3c 20 0b 11 be
       0.02578513 0.13690168 0.019549778 -0.141644
000120 f6 82 b4 bd 46 26 f7 bd 23 19 02 3e 9c 9e c1 bd
       -0.08814041 -0.12067847 0.12704901 -0.094540805
000130 a7 4e f4 bd 77 2e cb bc e9 5c 1d 3c 78 1a 55 3d
       -0.11929064 -0.02480243 0.009604671 0.052027196
000140 f4 94 52 3d 2c 90 52 3d 27 3c 17 3d ea 2b 22 bd
       0.051411584 0.051407024 0.0369226 -0.03959266
000150 25 a2 8b bb fb d3 47 3e 0e df 12 3e 7b c4 e4 bd
       -0.0042612725 0.19514458 0.14342901 -0.11170288
000160 93 59 22 3e 2f 1a 8b 3c 8e 00 99 bd 12 10 14 be
       0.15854482 0.016980259 -0.07470809 -0.14459255
000170 24 9e c1 3d 66 a3 3b bb a8 a4 96 3b 39 2d 1a 3e
       0.09453991 -0.0028631329 0.0045972653 0.15056314
000180 31 ae 0e be 06 7b 93 3d 83 da c8 bd 2d dc 23 bd
       -0.13933636 0.07201199 -0.09807303 -0.040004898
000190 45 74 2d 3e 60 01 4a 3e 41 4b 21 3e 41 46 16 3d
       0.16938885 0.19727087 0.15751363 0.036688093
0001a0 e9 44 65 bd 9c bd eb bc ed 14 2c 3e da fa 1c 3d
       -0.05597392 -0.028776936 0.16804858 0.03832517
0001b0 9d d9 89 bd 6e 33 50 bc 65 85 c6 bd 01 8b 12 be
       -0.067309596 -0.012707574 -0.09693412 -0.14310838
0001c0 f7 51 8c bd 1e ba 2c 3e 55 8f 02 be 6a 8b e7 bd
       -0.06851571 0.16867873 -0.1274999 -0.11305888
0001d0 17 ff 5a be 84 4b 1e bd 04 57 22 3e cf ea d6 bd
       -0.21386372 -0.038646236 0.15853506 -0.10494005
0001e0 30 46 4e 3d af a6 86 bd c9 6d be bd cf 34 4a be
       0.050359905 -0.06574761 -0.092982836 -0.19746707
0001f0 bd c8 57 3d 60 9a ee bd 72 78 60 bd 65 4b 26 bd
       0.052681673 -0.116505384 -0.054802366 -0.040599246

weight f4 [128, 128]
000000 9f 2e f3 3b 12 9e a7 3d e6 37 95 3d 40 4d 69 3d
       0.007421329 0.081844464 0.072860524 0.056958437
000010 86 41 de 3c 50 b0 ea 3c f1 6a 5a bd a0 d8 05 be
       0.027130853 0.028648525 -0.053324644 -0.13070917
000020 cf 04 e9 3d 69 e8 c7 bd df a7 d4 bc 1c 6f 3d bd
       0.1137787 -0.097611256 -0.025958953 -0.04624854
000030 ad 02 2b 3d e4 f1 85 bd 10 d7 ab bd 86 25 42 bd
       0.0417506 -0.065402776 -0.08390629 -0.047399066
000040 7e 32 08 bd 6c 81 07 3d 47 71 f6 3c 65 65 b2 bd
       -0.033251278 0.03308241 0.030083312 -0.08710746
000050 0e fc 1e bd 93 3f 8d bd e2 8e 35 3d fa 05 bc 3c
       -0.038814597 -0.068968914 0.044325717 0.022952069
000060 99 be 90 bc 55 62 b3 bd 6d 5b ee 3b fd 53 48 3c
       -0.017669009 -0.0875899 0.0072740824 0.012227056
000070 0d 32 04 3d 99 f6 2f 3d 78 a4 90 3c eb 9e 00 3d
       0.032274295 0.042959783 0.01765655 0.031401556
000080 28 7b 99 bd 91 eb a2 3d d5 af b6 3d 11 51 17 3d
       -0.07494193 0.07955087 0.08920256 0.036942545
000090 5d b9 a5 3d 78 95 06 3d 9f 0d a5 bd d8 d0 65 3c
       0.08091996 0.03285739 -0.08059239 0.014026843
0000a0 fe 9d 76 3d 44 e6 e8 3c cc fd 96 bc d1 dd b7 3b
       0.060209267 0.028430112 -0.018431567 0.0056111594
0000b0 2f 10 9e bd 6b dc af bd e9 1f 8e 3d ef 37 e8 bc
       -0.077179305 -0.08586963 0.0693968 -0.028346984
0000c0 d0 22 cf 3c 2b bb 3a 3d 67 4b 93 3d a8 ee c4 3c
       0.025285155 0.045588654 0.07192116 0.024039581
0000d0 e6 61 b7 bd ec 1e bc bd d5 89 bc bc 41 7b c4 bd
       -0.089542195 -0.091855854 -0.023014942 -0.09593821
0000e0 01 7b b4 bc 47 27 aa bd 50 34 bf bd c9 1a 93 ba
       -0.02203131 -0.08308273 -0.0933615 -0.0011223193
0000f0 85 af f5 3b be ae 20 3d b0 4b 95 bd 12 6b 83 bb
       0.00749773 0.039229147 -0.07289827 -0.0040105665
000100 a3 12 67 bd 79 db 0a bd 1d da d2 bc cb 6f a2 bd
       -0.056414258 -0.03390071 -0.02573877 -0.07931479
000110 b7 78 98 bd fc 74 55 bc 51 5f 11 bc 22 ba 97 bd
       -0.074448995 -0.0130283795 -0.008872823 -0.07408549
000120 25 6a 07 bd 85 2a 7d 3c ad 55 9a bd 3d 47 4a bd
       -0.03306021 0.015452032 -0.075358726 -0.049384344
000130 23 d8 a3 bd a4 2f 94 bd 05 ec 8e 3d 6b 94 ae bd
       -0.08000209 -0.07235649 0.06978611 -0.08524402
000140 1d c6 e5 3c ad 03 b2 3c f5 f5 92 3d 2b 08 f7 3c
       0.02804857 0.021730268 0.07175819 0.030155262
000150 37 25 b1 bd 9e f2 13 3d 0e d1 97 bd 3c 3c f4 bc
       -0.08649676 0.03612005 -0.07412921 -0.029813878
000160 e8 23 ae 3c ee ac d4 bc 40 03 2e 3d e8 cf 61 3c
       0.021257356 -0.025961366 0.04248357 0.013782479
000170 a1 30 78 3c 55 6f c4 3c 46 11 92 bc 1b d7 9a 3d
       0.015148313 0.023978868 -0.017830502 0.07560559
000180 ad b3 9e 3d 9b b8 b2 3b 56 34 9e 3d cf c7 39 bd
       0.07749114 0.0054541356 0.07724826 -0.045356568
000190 f7 73 c7 bd ee eb 87 bd 91 59 71 3c 16 27 1f bc
       -0.097389154 -0.06636797 0.014730827 -0.009713909
0001a0 2b a6 e7 3d 4e 9a d7 3c 7b 64 06 be 34 65 bc ba
       0.11310991 0.026318695 -0.13124268 -0.0014373423
0001b0 d6 95 91 3d 3d 98 91 bd 20 8e 20 bd d0 8c 1e bc
       0.07108657 -0.07109115 -0.03919804 -0.009677127
0001c0 62 1f ab 3c d6 0e 84 bc 01 0b cc 3d 2f 33 33 3e
       0.020888988 -0.016120356 0.09963036 0.17499994
0001d0 c8 de a0 3d 43 af d9 3c 46 00 90 3d c3 ff 47 bd
       0.07854992 0.02657283 0.07031302 -0.048827898
0001e0 31 f8 b5 3d 19 cf 5c 3d 29 92 21 bd 01 62 bb bc
       0.088852294 0.05390844 -0.03944603 -0.02287388
0001f0 fb 0f 01 3e 4d 5d a6 bd d0 0d 23 3d f6 a9 57 3d
       0.12603752 -0.081232645 0.039808095 0.05265232
000200 d8 a4 3a 3c ce 5c 70 3d ff ea 9c 3d 80 d4 9b 3c
       0.011391841 0.058682255 0.076620094 0.019022226
000210 3e d9 2a 3d 3d 12 a1 3d 50 22 c6 bd 85 6c 7e 3d
       0.041711085 0.07864807 -0.09674513 0.06211521
000220 20 00 99 bd 58 da 11 3d e9 f6 36 bb 4c 1b e2 bb
       -0.07470727 0.03560862 -0.0027918166 -0.0069002267
000230 2f 53 fa bc d0 a8 be bb 76 65 cf bc 70 32 2d 3b
       -0.030557243 -0.005818464 -0.025316935 0.0026427768
000240 09 bd 97 bd 9d 2b c7 ba 0d 4c 8f bd 4e be 40 bb
       -0.074091025 -0.0015195493 -0.069969274 -0.0029410305
000250 4e 47 31 3b 04 7b 37 3d 98 1b 80 bd 3d aa f9 3c
       0.0027050558 0.04479505 -0.06255263 0.030476684
000260 eb a6 73 3d bf a4 bb 3d f5 02 82 bd 28 fa 25 bd
       0.059485357 0.09162282 -0.0634822 -0.04052177
000270 f7 c3 9f 3d da 8b e9 bb 2d 69 1c bd 66 89 d2 bd
       0.07801049 -0.0071272673 -0.03818624 -0.10280113
000280 24 55 15 3d 9e 38 3d bc 82 3c 47 3d a3 2a a4 bd
       0.03645815 -0.011549143 0.04864169 -0.08015945
000290 79 98 83 3d 47 c1 3b 3c 76 f3 6b 3b d4 3c 7e 3d
       0.06425566 0.011459655 0.0036003268 0.06206973
0002a0 b2 17 02 3c e3 8e 95 3d b2 ee 6a bc 04 70 4f bd
       0.00794022 0.07302644 -0.014339136 -0.050643936
0002b0 03 97 9f 3d 97 4c 80 3d 91 f2 6d bd 80 d0 78 3c
       0.07792475 0.06264608 -0.058092657 0.015186429
0002c0 59 88 64 bd 66 aa ca bd 36 af 70 3c df 54 8e bd
       -0.055794094 -0.09895782 0.014690211 -0.069497816
0002d0 3c 36 8f bd 2f 11 2c bd 7d f1 31 3d 49 52 b4 bd
       -0.06992766 -0.042008575 0.04344319 -0.08804757
0002e0 44 c2 ab 3c 1c 63 4b 3d 01 c8 fa bb c7 28 68 3d
       0.020966657 0.049655065 -0.007653237 0.056679513
0002f0 78 ab 5a bd 9d 5c 6f bd 5a 5a 95 3d 22 3d 01 3d
       -0.05338618 -0.058437932 0.07292624 0.03155244
000300 4c 21 9a 3d cb 63 74 bd b5 f5 50 3d 02 e5 21 bd
       0.07525882 -0.059665482 0.051015574 -0.03952504
000310 0b e5 1c 3c 27 69 9d bd 3d 46 97 3d ae b6 2e 3d
       0.0095760925 -0.07686072 0.07386444 0.042654686
000320 17 28 99 bb b3 19 55 3c 4f cd 0e 3d c9 11 fa bc
       -0.0046739685 0.013006615 0.034863766 -0.030526059
000330 6f f4 1d bc 36 00 85 bd 83 72 4f bd 6e 55 2a bd
       -0.009640797 -0.06494181 -0.050646316 -0.04158538
000340 61 3f 9b bc 1b bd 60 bd f1 5f 70 bc cd 16 9b 3d
       -0.01895112 -0.054867845 -0.014671312 0.07572708
000350 31 23 12 bd 1b 6e 70 bd 40 83 2c 3d 75 3d c0 3c
       -0.035678092 -0.058698755 0.042117357 0.023466805
000360 63 e5 b6 bd be 51 95 bd 5f af 97 3b 51 75 ac bd
       -0.08930471 -0.07290982 0.00462906 -0.08420814
000370 d8 fc 78 3d 70 67 08 bd 57 b0 f5 3c 52 f8 3c 3d
       0.060788006 -0.03330177 0.029991312 0.046135254
000380 59 86 a4 3d 29 f5 2c 3d c9 9b 3b 3d f9 bc 39 3d
       0.08033437 0.04222599 0.045802865 0.045346234
000390 48 a9 f8 3b 19 31 bb bd a0 af 90 bc 7e b2 38 bd
       0.0075885393 -0.09140224 -0.01766187 -0.0450921
0003a0 34 8c ea bc eb 10 ac 3d b3 ed 10 bd 01 a8 91 3b
       -0.028631307 0.08401664 -0.035382938 0.0044450765
0003b0 8f 87 f9 bc b7 47 c0 bd 47 3e 32 3d d9 f1 1d bb
       -0.030460147 -0.093886785 0.043516424 -0.0024100451
0003c0 19 59 9f 3d 6c 76 2a bd 04 b3 f9 3c 91 86 f5 bd
       0.07780666 -0.041616842 0.03048087 -0.11988557
0003d0 84 a9 a1 bd 84 e6 9c bb 0c 74 f4 bb a6 9a be 3d
       -0.07893661 -0.004788222 -0.007460123 0.093068406
0003e0 65 96 17 3d 65 9b ea bc 25 ee 95 bc 72 2a 2a bc
       0.03700866 -0.028638551 -0.018302033 -0.010386096
0003f0 27 b9 b3 3c a2 ee 12 3d b6 b0 87 3b 5a 80 d3 bc
       0.021938873 0.03587211 0.0041409386 -0.025818039

bias f4 [128]
000000 a8 c3 fc bc 51 aa 3b 3d c7 7b b6 bd ad ad 93 3d
       -0.030855015 0.045816723 -0.089103274 0.072108604
000010 dd d1 c0 bc 34 c3 0a bd f4 04 c8 bc fb 1b f0 3c
       -0.02353757 -0.033877566 -0.024416424 0.029310217
000020 6d 36 b8 3d c8 1d 9d 3c cd 7f 0a 3d 0d e8 af bd
       0.08994756 0.01917924 0.033813287 -0.08589182
000030 8d 1f d8 3c 6c 62 b4 bd 10 42 6f ba b6 9f 09 3d
       0.026382232 -0.08807835 -0.00091269705 0.033599578
000040 85 68 82 bc c1 78 10 bd d4 3a 90 bd a4 e5 29 bd
       -0.01591898 -0.03527141 -0.070424706 -0.041478768
000050 1f 2a 1a bd 0a 12 36 bd 8b cf ca 3c b4 1e 54 bd
       -0.037637826 -0.044450797 0.024757167 -0.051787093
000060 cf 70 e2 3c 73 dc 59 bd 31 88 c3 bc ef ca 6e bd
       0.027641682 -0.053188752 -0.023868652 -0.058299
000070 38 1d 79 bd ea a2 b7 3c e4 de 3f bd 2b c2 fa 3b
       -0.06081888 0.02241655 -0.046843424 0.007652541
000080 08 41 0d 3d b6 76 9b bd 86 ec 85 bd 45 39 24 bd
       0.034485847 -0.07591002 -0.06539254 -0.04009368
000090 e3 44 23 bd 73 b4 ab bd 64 0f 36 3d 19 72 ae bd
       -0.039860617 -0.08384027 0.04444827 -0.08517856
0000a0 4f 8f a3 bd 44 26 28 bd e8 f6 ad bc c5 9a 43 3d
       -0.07986318 -0.041052118 -0.021235898 0.04775502
0000b0 03 17 49 bd 31 19 ce bc 3c e8 2d bd cd c4 91 3d
       -0.04909421 -0.025158497 -0.042457804 0.07117615
0000c0 62 27 a4 bc c9 d0 20 bc f3 b6 32 ba 3b 00 7c bd
       -0.02003831 -0.009815403 -0.00068174227 -0.061523657
0000d0 3f 7d 89 3b 6c 57 9c 3d a0 b3 1c 3b 7e 07 4c 3c
       0.0041958387 0.07633862 0.0023910776 0.012452958
0000e0 b3 ec 25 bd ba a7 d8 3c 91 0c d9 3c e0 ff 1f 3b
       -0.040508937 0.026447166 0.02649525 0.0024413988
0000f0 f7 e9 10 3c 6b 8e cd bc 5a d2 17 3d 56 44 86 3d
       0.008844844 -0.025092324 0.03706584 0.06556003
000100 f4 e4 24 bc 3d 25 43 3d 36 d6 cd bc c1 75 82 bd
       -0.010064352 0.047642935 -0.025126558 -0.06370116
000110 fc d5 9a 3d 25 90 89 bd f3 02 8c 3c 6e c1 28 3d
       0.075603455 -0.067169465 0.01709125 0.041200094
000120 11 01 5a bd bc 65 58 bd 8f 45 01 bd b0 4d 91 bd
       -0.053223673 -0.052831396 -0.031560477 -0.07094896
000130 13 ed 44 3d 10 3b a7 bc 70 88 fe bb d0 5e 8d bd
       0.048077654 -0.020413905 -0.0077677295 -0.0690285
000140 f0 78 56 3d 62 b3 6e bd 53 1e ee bb c8 06 89 bd
       0.05236143 -0.05827654 -0.0072667985 -0.066907465
000150 4e 80 0d bd 39 16 62 bd 62 e7 9b bc 48 d5 55 bc
       -0.03454619 -0.055196974 -0.01903123 -0.0130513385
000160 75 62 69 bd 08 34 ad bd 07 e0 42 bd b6 01 85 bd
       -0.05697866 -0.0845719 -0.04757693 -0.06494467
000170 32 85 8a 3c 9a 41 f0 bc 6e 76 c3 bc bc 5b 22 3d
       0.016909216 -0.029328156 -0.023860183 0.039638266
000180 fe da 8c bd 7c 8a 10 bd ce e4 6a 3c db 12 88 3d
       -0.06877707 -0.03528832 0.014336778 0.066442214
000190 54 ad 9a bd 00 b7 bb bd 7a a8 31 bd f9 27 57 b9
       -0.07552591 -0.09165764 -0.043373562 -0.00020518889
0001a0 81 dd 83 bd 11 4a 6d bd c7 a5 25 3d c3 31 41 bc
       -0.06438733 -0.057931963 0.0404413 -0.011791649
0001b0 3c 2b 42 3d b1 47 5f 3d 36 91 69 3c 3f e4 09 3d
       0.047404513 0.05451173 0.014255812 0.033664938
0001c0 23 a5 69 3d 95 8b 0c bd cd db 81 3c a8 93 62 3d
       0.057042252 -0.034312803 0.01585188 0.055316597
0001d0 b4 37 8d bd 91 4b 79 bd 2a 4b 4b 3c ea 4e 4b 3d
       -0.0689539 -0.06086308 0.012408057 0.049635805
0001e0 71 a4 95 3d 7c 15 e8 bc eb 13 03 bc da 6a bb 3d
       0.07306755 -0.028330557 -0.008000354 0.0915124
0001f0 4d 79 fb bc b1 fc 33 3c 20 0e 81 bd c0 4b cb 3c
       -0.03069749 0.010985539 -0.06301522 0.024816394

weight f4 [2, 128]
000000 9d dd a7 bc a9 2e 98 bd 42 58 bf 3d 5c 2a 0b bd
       -0.020491416 -0.07430775 0.09343006 -0.033975944
000010 0d cb b7 3d d1 93 77 3d 4b 5a 37 bb 3d 11 55 bd
       0.08974276 0.060443703 -0.0027977403 -0.052018393
000020 14 7f 0d 3e 36 fc 80 bb 52 88 b7 3d b8 1b 01 bc
       0.13818008 -0.003936316 0.08961548 -0.007880144
000030 39 fd 87 3d 8c 5c 4e 3d 70 6d 4b bd e0 ad 8e 3d
       0.06640095 0.05038123 -0.049664915 0.06966758
000040 a9 77 47 3c 7c 39 1f bd b6 a2 0c bc c4 f6 82 bd
       0.012174525 -0.03887318 -0.008583715 -0.06394723
000050 a5 0e 22 3d 0b 9e 8c bd 03 4b 45 3d 44 f5 44 3d
       0.039564747 -0.06866082 0.04816724 0.048085466
000060 42 2a 32 bd 7d c1 8a bd 07 9c e1 3d 9e 77 5b ba
       -0.04349733 -0.06775186 0.11016088 -0.00083720114
000070 c3 1b 47 3c 13 1a 3c 3d af a5 eb bc a5 84 08 bd
       0.012152615 0.045923304 -0.028765528 -0.033329625
000080 7d e6 9e bb 58 de 3e 3d a3 c7 b5 3d 81 79 e5 3c
       -0.0048492537 0.046598762 0.08875968 0.02801204
000090 97 6a c6 bc ba 81 aa 3d b4 fc b5 bd d7 30 c0 3d
       -0.024220748 0.08325525 -0.0888609 0.093843155
0000a0 6f 85 84 3d 1e 76 5e 3d c1 92 99 3c 36 68 fd 3d
       0.06470763 0.054311864 0.018746736 0.12373392
0000b0 10 86 5b bd bb 1d 52 bc 54 6f 89 3b 9a 11 c0 bd
       -0.05359465 -0.012824471 0.0041941795 -0.09378357
0000c0 48 77 fa bd 24 c2 20 bd b8 e3 20 bd e0 27 dd bd
       -0.12229782 -0.039247647 -0.03927967 -0.10798621
0000d0 00 f8 67 3c 92 62 23 bc 86 55 a5 3c b3 48 1a 3d
       0.014158249 -0.009972231 0.020182382 0.037666988
0000e0 20 07 fc bc 4d 5d ac bd 3d a6 8b 3d cc 00 fb bb
       -0.030765116 -0.08416233 0.06818817 -0.007660007
0000f0 3e b3 ca ba ea 01 48 bd 57 67 c4 bc a2 e2 31 3d
       -0.0015464795 -0.04882995 -0.023975058 0.043429025
000100 7a ea e1 bc 35 51 33 bd 5a f3 4c 3b 93 c8 cf 3c
       -0.027577627 -0.043778617 0.0031272979 0.025364196
000110 92 4a 12 bb 4a 2c e1 bd 1b 10 8e 3d 8c 2b c0 3d
       -0.002232228 -0.109947756 0.069366656 0.09383306
000120 b3 1c 04 bb 26 f4 c8 3d 57 01 14 3d a0 8f b3 bd
       -0.0020158708 0.098121926 0.03613409 -0.08767629
000130 9b 46 9e bc 6a 0f ee 3b 83 d4 30 bd 5f b2 75 3d
       -0.019320777 0.007265021 -0.043171417 0.05998456
000140 88 09 41 bc e7 75 ad bc 6b a4 51 3d 61 fb f1 bd
       -0.011782058 -0.021174384 0.05118219 -0.11815525
000150 fd f3 87 bd 66 0d 28 39 8b ec b7 3b b0 b9 61 bd
       -0.06638334 0.0001602672 0.005612915 -0.055108726
000160 07 34 20 bd 5a 53 fc 3b 00 8b 5a bd 20 68 e7 3c
       -0.039112117 0.007700366 -0.053355217 0.028247893
000170 fc b4 9d bd 8d fa 27 3e 74 f6 19 3d dc d5 33 bc
       -0.07700536 0.16404171 0.03758855 -0.010976281
000180 46 80 03 3e 9e 98 93 bd 63 05 3c bc 25 62 d1 bc
       0.12841901 -0.07206844 -0.011475894 -0.025559494
000190 9a be fa 3d 07 12 bf bb 2d 08 19 3e 4c d4 30 3d
       0.122433856 -0.0058310064 0.14944525 0.043171212
0001a0 9a f8 9e bd ea fe 8f 3d a2 8c 08 bd c1 b1 df bc
       -0.07762261 0.07031043 -0.033337243 -0.02730644
0001b0 9d 56 79 bd 0e 17 05 3e 37 ea b8 bd 3c 72 06 bc
       -0.060873616 0.12997076 -0.09029048 -0.008205947
0001c0 0b f9 b1 bd 21 cf 11 bd a8 0a 81 3c 1b 06 8c bd
       -0.08690079 -0.035597924 0.015752152 -0.06837102
0001d0 f8 37 c4 3d d0 67 51 bc 1c f5 00 3e 6d 2b 3d 3d
       0.09580988 -0.0127810985 0.12593502 0.046183992
0001e0 d9 77 8b 3d 9a f4 b6 bd be 71 99 bb 03 ea 27 bd
       0.068099685 -0.08933373 -0.0046827486 -0.040994655
0001f0 81 f6 55 bd 62 e0 44 bd e3 87 16 be 74 9a 74 bd
       -0.052237038 -0.04806555 -0.14700274 -0.05971761
000200 3e fd d8 3d 1b 67 9e bd 1a e9 07 be 9b 6c c7 3d
       0.10595177 -0.077345096 -0.13272515 0.09737512
000210 7d a9 c0 bc 83 aa 52 3d 4d bc d8 3b b4 69 2e bd
       -0.023518318 0.051432144 0.006614244 -0.042581275
000220 b7 12 58 be f2 3d 93 39 b6 2d c3 bd bf 00 78 bd
       -0.21100889 0.00028084178 -0.09530203 -0.060547587
000230 cf 2a 83 3d ec 2e 07 3d d6 7b 2e 3d c4 92 62 bd
       0.064046495 0.033003733 0.042598568 -0.055315748
000240 e4 a6 40 3d cf b1 98 3d 9e a5 ef 3c 3d 7e 50 bd
       0.04703416 0.07455789 0.029253777 -0.05090164
000250 28 2a 82 3d 70 45 08 3c 87 fb fb bd ba 36 d5 bc
       0.06355697 0.008317336 -0.123038344 -0.026027072
000260 9a 83 05 bd ee 5f 9d 3b f4 b9 c7 bd 7d 4b 25 3d
       -0.03259621 0.0048026955 -0.097522646 0.040355194
000270 50 82 f4 bd ab d4 bc 3c 9f b0 b7 bd b5 e0 66 bd
       -0.11938918 0.023050627 -0.08969235 -0.05636664
000280 ac e0 af bb 49 ca 48 3d 1a eb 9a bd ac db 7e 3d
       -0.005367359 0.04902104 -0.07564373 0.062221214
000290 1a 1b 88 bc 88 e6 a8 bd 81 d6 6f bd e7 05 a2 3b
       -0.016614486 -0.08247095 -0.058554176 0.0049445513
0002a0 4a ca 95 bd 04 f3 9e bd 18 de 72 bc 23 5d 8c bd
       -0.07313974 -0.07761195 -0.014823459 -0.06853702
0002b0 e2 d7 1d 3d 0b 92 35 3d 0e 4a 8b 3d 3e 94 af bc
       0.03853596 0.04432873 0.06801234 -0.021432992
0002c0 4e 79 e6 3d da ab a6 bc 48 04 f5 bc 6b 07 e8 3d
       0.11253606 -0.020345617 -0.029909268 0.1132954
0002d0 c8 3d 93 3d 5f 66 c3 bc 5b 54 cf 3c 85 66 47 bd
       0.07189518 -0.023852525 0.025308779 -0.048681755
0002e0 eb 83 94 3d 4c c0 86 3c 9b ba c9 bd 55 c1 bb bd
       0.07251724 0.016449116 -0.09850045 -0.091677345
0002f0 fa 83 e3 3c c3 60 59 bd 87 b7 f0 3c 79 8a 81 bd
       0.027772892 -0.053070795 0.029384388 -0.0632524
000300 88 37 00 3e 38 ee da 3c f6 7b a3 bd b6 89 b6 3b
       0.12521183 0.02672492 -0.07982628 0.0055706156
000310 7f a5 36 bc 24 ae d6 3d 03 e0 ce bd 11 40 00 3d
       -0.011147856 0.104824334 -0.101013206 0.0313111
000320 b3 b8 e4 3d 76 f6 c8 bd f4 55 0d 3d f9 f5 b7 3d
       0.11168041 -0.09812634 0.0345058 0.089824624
000330 16 aa 0e 3e e6 30 0c 3c 25 29 18 bd bc 67 cb bd
       0.1393207 0.00855658 -0.037148613 -0.09931895
000340 8b 5b ac 3d 1a a0 59 bd e0 c2 ee bb 78 fd af 3c
       0.08415898 -0.0531312 -0.0072864145 0.021483168
000350 9e e9 2a 3e ed 29 02 bd de b5 94 3d b1 8c 0e 3e
       0.1669068 -0.031778265 0.07261251 0.13920857
000360 eb 7b 89 3d cc 02 bd 3d 50 5a 3b bd 0b cd 34 3d
       0.067130886 0.09229049 -0.045740426 0.044140857
000370 0d 7a c3 3d 40 72 24 be fc f0 bd 3c c4 5a 87 bd
       0.09544764 -0.16059208 0.0231862 -0.06609109
000380 31 05 e0 bd af a8 04 3d 3b 82 7f 3d 5a 40 59 bd
       -0.1093849 0.03238743 0.062380057 -0.053039886
000390 67 0a 8e ba 10 a2 20 3e aa 11 14 be a8 9f c8 bd
       -0.001083684 0.15686822 -0.14459863 -0.09796077
0003a0 04 12 fb 3d 80 2e ad bd 3a ec 5a bd 46 ed 4f bd
       0.122592956 -0.08456135 -0.05344794 -0.05076339
0003b0 9d 51 3b bc 69 bf b9 bd 59 23 dd 3d a8 f3 10 bb
       -0.011433032 -0.09069712 0.10797758 -0.0022117887
0003c0 4f e8 f3 3b 7f d2 c9 3d 8b 4a da bd 15 ca 86 3d
       0.007443465 0.09854602 -0.10658749 0.06581513
0003d0 b2 08 94 bd 18 da dc 3d 59 7e e1 bd 35 26 31 bd
       -0.07228221 0.107837856 -0.11010427 -0.043249328
0003e0 1f f3 77 3d 4f 03 33 3d eb c2 27 3d b6 6d c0 3c
       0.060534593 0.043704327 0.040957373 0.023489814
0003f0 f0 41 de 3d 0b d3 e4 3d 41 53 27 3d 68 4e d5 3d
       0.1085242 0.11173066 0.04085088 0.104153454

bias f4 [2]
000000 4b 34 a3 bd a0 39 43 bd
       -0.079689585 -0.047662377
