abalone/abalone_explainer_fastSHAP.pt (torch, 85743 bytes, 6 tensors)

weight f4 [128, 10]
0	0x3e4b4853	0.19851808
1	0x3d6a19ba	0.05715344
2	0x3db835b5	0.08994619
3	0x3d9ef177	0.077608995
4	0x3bc3b359	0.0059723076
5	0x3e0d02a8	0.13770545
6	0xbdf05c1f	-0.11736321
7	0xbe0324f9	-0.12807073
8	0x3e929d8c	0.28635824
9	0x3cc129b8	0.023579463
10	0xbe9150eb	-0.28382048
11	0xbe0081c3	-0.125495
12	0xbe8afd8e	-0.27146572
13	0xbe186321	-0.14881565
14	0xbe88db44	-0.26729786
15	0xbd3368b9	-0.043801043
16	0xbdf8e5fe	-0.121532425
17	0x3e13efee	0.14446995
18	0x3dba5b9f	0.090995066
19	0xbdfc61b6	-0.123233244
20	0xbe4a8010	-0.19775414
21	0xbb0097ca	-0.0019621723
22	0xbe975c25	-0.29562488
23	0x3d570ae2	0.052500613
24	0x3e684d6e	0.22685787
25	0x3bbfc5f3	0.005852455
26	0x3d5f4311	0.05450732
27	0x3d79880e	0.060920767
28	0xbd35b7c0	-0.04436469
29	0xbe30b584	-0.17256743
30	0xbe47e513	-0.19520979
31	0x3dd7673e	0.10517739
32	0xbe80bdc4	-0.2514478
33	0x3d9c973c	0.07646033
34	0xbe0a46ae	-0.13503525
35	0xbeaa7dac	-0.33299005
36	0xbdecd994	-0.11564937
37	0x3e3977e9	0.18112148
38	0x3e4d4130	0.20044398
39	0xbe4456ca	-0.19173732
40	0x3e88d564	0.26725304
41	0x3e712354	0.23548633
42	0x3d1c361c	0.03813754
43	0x3ce9c5a7	0.02853663
44	0x3c3356e5	0.01094601
45	0xbe5c1eef	-0.21496175
46	0xbe59ac18	-0.21257055
47	0xbc829886	-0.01594187
48	0x3e5b4018	0.21411169
49	0xbb987ce5	-0.0046535605
50	0x3e118403	0.14210515
51	0x3c051108	0.008121736
52	0x3e4b60bb	0.19861118
53	0x3e1a3105	0.15057762
54	0xbe87a3f4	-0.26492274
55	0xbe01d111	-0.12677409
56	0x3de200a8	0.110352814
57	0xbe457bff	-0.19285582
58	0x3e7042b7	0.2346295
59	0x3e6c9ad1	0.23105933
60	0x3e69e028	0.22839415
61	0x3d605847	0.054771688
62	0x3df02697	0.117261104
63	0x3e9945b1	0.29935983
64	0x3e0288a0	0.12747431
65	0x3e10c6ef	0.14138387
66	0x3e9fe274	0.31227458
67	0xbd79acf6	-0.060955964
68	0x3cd08905	0.025455961
69	0xbe0a3ea1	-0.13500454
70	0x3c0946f9	0.008378738
71	0x3dfb9ae0	0.122853994
72	0x3dda35e7	0.10654812
73	0x3e17fb1a	0.14841881
74	0xbd8d176b	-0.06889232
75	0xbdfab294	-0.12241092
76	0x3eaefced	0.34177342
77	0xbe5a57d0	-0.2132256
78	0x3d33f902	0.043938644
79	0xbe048e11	-0.12944819
80	0x3c170180	0.009216666
81	0xbd3e7038	-0.04649374
82	0x3e107e39	0.1411065
83	0xbe059db9	-0.13048448
84	0xbe236c2a	-0.1595923
85	0xbd828c91	-0.06374467
86	0x3e04d5ee	0.12972233
87	0xbe85e777	-0.26153156
88	0xbe5f549f	-0.21809624
89	0x3ea05e4a	0.31321937
90	0x3df3540d	0.11881266
91	0xbd9be2ca	-0.07611616
92	0x3e4403ba	0.19142047
93	0xbe1ef3d0	-0.15522695
94	0xbe4972ae	-0.19672653
95	0xbda8663f	-0.08222627
96	0xbd5ac347	-0.053408887
97	0xbe814396	-0.25246876
98	0xbe3815ea	-0.1797711
99	0x3e084b3d	0.13309951
100	0xbe9e6df6	-0.3094327
101	0x3d9bd85b	0.07609626
102	0xbe8b2e8b	-0.27183947
103	0xbe011287	-0.12604724
104	0xbdd983d4	-0.10620847
105	0xbea23294	-0.31679213
106	0x3d4ea858	0.050453514
107	0xbe910550	-0.28324366
108	0x3d7bb500	0.061451912
109	0xbc5afbbc	-0.013365682
110	0x3d784f45	0.060622472
111	0xbdfac2a1	-0.12244154
112	0x3e1a12b3	0.15046196
113	0xbe8e1d4a	-0.2775672
114	0xbe83a321	-0.25710395
115	0xbe8ffe42	-0.2812367
116	0x3e5f1ce3	0.21788363
117	0x3e8c484e	0.27398914
118	0x3bdfa2c7	0.0068248245
119	0x3e40dd14	0.18834335
120	0xbdf28d9f	-0.11843418
121	0x3e5d3cf0	0.21605277
122	0xbe2b6d54	-0.16740924
123	0x3d9370d7	0.07199257
124	0xbe20fba0	-0.15720987
125	0x3d053d95	0.032529432
126	0x3e4fe48e	0.2030203
127	0xbe01576d	-0.12631007
128	0xbe6f385b	-0.23361342
129	0x3db8db7f	0.090262406
130	0xbe3b1411	-0.18269373
131	0x3dbfc7c9	0.09364278
132	0x3e94a6c6	0.29033488
133	0xbe8eee6c	-0.27916276
134	0x3df61ea4	0.12017563
135	0x3dd784fb	0.10523411
136	0x3e59b7c7	0.21261512
137	0x3e0f2e84	0.13982588
138	0xbc37816a	-0.011200288
139	0xbe41d2c7	-0.18928061
140	0x3df47cb7	0.1193785
141	0xbd552377	-0.052035775
142	0x3cc29d47	0.023756636
143	0x3e84d197	0.25941154
144	0x3d542976	0.051797353
145	0x3d2182ee	0.039431505
146	0x3eba762e	0.3641829
147	0xbe59e071	-0.21277024
148	0x3d9c7ebe	0.07641362
149	0xbe42f9ea	-0.19040647
150	0xbe23496f	-0.15945981
151	0x3e67d360	0.22639227
152	0xbd9b014a	-0.07568605
153	0x3e1fa785	0.15591247
154	0x3d32bfc1	0.043639902
155	0x3e35fe7b	0.17772858
156	0x3e25f018	0.1620487
157	0x3dea4b46	0.114401385
158	0xbe51336f	-0.20429777
159	0xbe959526	-0.29215354
160	0x3e1897dd	0.14901681
161	0xbe6ce6c2	-0.23134902
162	0x3e41c8c6	0.18924245
163	0x3d570683	0.052496444
164	0xbe072f84	-0.1320172
165	0xbe3b64d1	-0.18300177
166	0x3e530901	0.20608903
167	0x3e97c7c4	0.29644597
168	0x3e136308	0.14393246
169	0xbdc43172	-0.095797434
170	0xbddc007d	-0.10742281
171	0x3e410b12	0.18851879
172	0xbe155a78	-0.14585292
173	0x3e894c99	0.26816252
174	0x3d64e2af	0.055880245
175	0xbe143b4f	-0.1447575
176	0xbe8fc51e	-0.28080076
177	0xbdbb3d18	-0.09142512
178	0xbe6a26f7	-0.22866426
179	0x3daee3d6	0.0853955
180	0x3dcb070e	0.09913455
181	0xbdd57348	-0.10422379
182	0x3d9ffaf6	0.07811539
183	0x3e7746bc	0.24148077
184	0x3e9a5ef8	0.3015058
185	0x3d9f7a94	0.07787052
186	0xbe56f7da	-0.20992985
187	0xbced2be8	-0.0289516
188	0xbe462cbd	-0.19353004
189	0xbe0d9e3b	-0.13829891
190	0x3d199762	0.037497886
191	0xbbd4e242	-0.0064966986
192	0x3cffc722	0.031222884
193	0xbe225907	-0.15854274
194	0x3e08110c	0.13287753
195	0xbe922fb1	-0.2855201
196	0x3ea85902	0.32880408
197	0x3e55a39e	0.20863196
198	0x3e1d528a	0.15363517
199	0xbe81cc80	-0.25351334
200	0xbd5538e0	-0.052056193
201	0x3d49ea06	0.049295448
202	0xbe9907f7	-0.2988889
203	0xbcdc84fc	-0.02691888
204	0xbb56a9df	-0.003275506
205	0x3e8c153a	0.27359945
206	0x3de2f86a	0.110825375
207	0xbe02c1f1	-0.12769295
208	0x3e862f92	0.26208168
209	0xbd7acb56	-0.061229073
210	0xbc90ccfd	-0.017675871
211	0x3e43ecc3	0.19133286
212	0x3e8248dd	0.25446215
213	0x3d9c193a	0.07621999
214	0x3b632526	0.0034659593
215	0xbd3e71d4	-0.046495274
216	0x3eb25204	0.34828198
217	0xbe27c5c9	-0.16384043
218	0xbe9e8567	-0.30961153
219	0x3d342e7a	0.043989636
220	0xbd8525ae	-0.065013275
221	0x3e15b357	0.14619194
222	0xbe11faf6	-0.1425589
223	0x3cada0a9	0.021194773
224	0xbdaa4676	-0.083142206
225	0x3e772632	0.24135664
226	0x3d136519	0.035985086
227	0xbdeb23ba	-0.11481424
228	0xbe09072b	-0.1338164
229	0x3d098608	0.033575088
230	0x3cea75ef	0.028620688
231	0xbe4aa7f0	-0.19790626
232	0xbe1be340	-0.15223408
233	0x3e5f7e17	0.21825443
234	0xbeb174b2	-0.34659344
235	0xbe253c19	-0.16136207
236	0xbcf13cd9	-0.02944796
237	0x3de2bf9b	0.11071702
238	0x3e81b511	0.25333455
239	0x3d91428f	0.07092773
240	0x3e924b01	0.28572848
241	0x3e99c1d8	0.30030704
242	0xbe30b709	-0.17257322
243	0xbe854d8d	-0.2603573
244	0xbcd2bb35	-0.025724033
245	0xbdd46f83	-0.10372832
246	0xbdc304ac	-0.095223755
247	0xbda635a3	-0.08115699
248	0xbd4d674e	-0.050147347
249	0xbeaeb7b8	-0.3412454
250	0xbe65c090	-0.22436738
251	0x3d93378d	0.0718833
252	0x3d841886	0.0644999
253	0xbd6cdc9a	-0.05782757
254	0xbc6188e1	-0.013765545
255	0xbe9b2179	-0.30298975

bias f4 [128]
0	0xbe68afea	-0.22723356
1	0xbd46d349	-0.04854134
2	0xbdb3c5bb	-0.087779485
3	0x3e88bc69	0.26706246
4	0x3ea3ac86	0.31967562
5	0xbdc195eb	-0.09452423
6	0xbd7b3b8e	-0.061336093
7	0xbe0c2f57	-0.13689934
8	0xbc11f023	-0.008907351
9	0xbe4defcd	-0.20111008
10	0xbdf16aad	-0.11787925
11	0xbe2aef81	-0.16692926
12	0xbe1d21c2	-0.15344909
13	0xbda80e9e	-0.08205913
14	0xbe18d6b7	-0.14925657
15	0xbd66c1d0	-0.056337178
16	0x3c2eed30	0.010676667
17	0x3e0c0d0c	0.13676852
18	0x3e518acd	0.20463105
19	0x3dee764e	0.116436586
20	0xbddb8b66	-0.107199475
21	0x3e8a1b17	0.26973793
22	0x3e8e292f	0.27765796
23	0xbdceb09c	-0.10092279
24	0xbe0c3c01	-0.13694765
25	0x3c024cbe	0.007952867
26	0xbd48c385	-0.049014587
27	0x3e25e445	0.16200359
28	0x3e3da265	0.1851898
29	0xbe276682	-0.16347697
30	0x3e5bc6c1	0.21462537
31	0x3d60b722	0.05486215
32	0xbd4e1cbe	-0.05032038
33	0x3e061547	0.13094054
34	0x3e576a44	0.21036631
35	0xbe600a9b	-0.21879046
36	0xbe74e020	-0.23913622
37	0xbe51a53e	-0.20473191
38	0x3c2f685d	0.0107060345
39	0xbc3ecd41	-0.011645616
40	0xbdfca8d2	-0.123368874
41	0xbe2b9dbe	-0.16759393
42	0x3ea40c17	0.32040474
43	0x3daf811e	0.08569549
44	0x3e7ee031	0.2489021
45	0x3d6f2dfd	0.058393467
46	0x3e6908fe	0.22757336
47	0xbbd238ea	-0.006415476
48	0xbe276818	-0.16348302
49	0xbe9933a2	-0.29922205
50	0xbe870616	-0.2637183
51	0xbda712d7	-0.0815789
52	0xbe80bb44	-0.25142872
53	0xbe8ac741	-0.27105144
54	0x3e99c67b	0.3003424
55	0xbe124d35	-0.14287265
56	0x3e812fe4	0.2523185
57	0x3db04602	0.08607103
58	0x3d50c0b4	0.050965026
59	0x3e86aaf7	0.2630231
60	0xbe88033a	-0.26564962
61	0x3e251148	0.16119874
62	0xbdb6860d	-0.08912287
63	0x3e77797e	0.2416744
64	0x3c8d6ebd	0.017264718
65	0x3eb6c380	0.3569603
66	0x3d478e9e	0.048719995
67	0x3e8da6de	0.27666372
68	0xbe08baa7	-0.13352452
69	0x3da96889	0.082718916
70	0x3da9d6e7	0.082929425
71	0xbe9007c6	-0.2813093
72	0x3e99d00b	0.30041537
73	0x3e02eb7d	0.12785144
74	0x3eab66d8	0.334769
75	0x3e4b076a	0.19827047
76	0xbe4200a4	-0.18945557
77	0x3e6e8103	0.23291402
78	0xbda73781	-0.081648834
79	0xbe4d0607	-0.2002183
80	0x3d2a2413	0.04153831
81	0xbe80f64c	-0.2518791
82	0xbe340ab0	-0.17582202
83	0xbdfc00ac	-0.12304816
84	0xbe8c87c1	-0.27447322
85	0xbe8cc109	-0.27491024
86	0x3e834901	0.25641635
87	0x3e3682d1	0.1782334
88	0xbdcede0d	-0.101009466
89	0xbe3155eb	-0.17317931
90	0xbd3ca147	-0.046052244
91	0x3e8b421b	0.27198872
92	0xbe3188cf	-0.17337345
93	0xbe8ca3af	-0.2746863
94	0x3dcd0787	0.10011201
95	0xbe48bcd8	-0.19603288
96	0x3d8b38a0	0.0679791
97	0x3e6fb9cf	0.23410724
98	0x3e224281	0.15845682
99	0xbe33b437	-0.17549215
100	0x3e0af6c0	0.1357069
101	0xbe0fa6cc	-0.14028472
102	0x3e88e581	0.26737598
103	0xbe82fbe6	-0.25582808
104	0xbe04d733	-0.12972717
105	0x3e04218b	0.1290342
106	0x3e8d9af5	0.27657285
107	0x3c1cb669	0.009564974
108	0xbe1031dc	-0.1408152
109	0x3dcd93c9	0.100379534
110	0xbe0254a8	-0.12727606
111	0xbe956998	-0.29182124
112	0x3dc145b4	0.09437123
113	0xbe703a39	-0.2345971
114	0x3e7378ae	0.23776504
115	0xbdff610f	-0.12469684
116	0xbe7c3dce	-0.24632952
117	0xbe228287	-0.15870105
118	0xbe89cef8	-0.26915717
119	0x3e9959bf	0.29951283
120	0xbc8a447a	-0.016878355
121	0x3e113378	0.1417979
122	0xbe3477dd	-0.17623849
123	0x3e570e85	0.21001633
124	0x3e986d9a	0.2977112
125	0xbe238fab	-0.15972774
126	0xbe42386f	-0.1896684
127	0x3e484202	0.1955643

weight f4 [128, 128]
0	0xbc871cfc	-0.016493313
1	0x3d53b813	0.05168922
2	0x3c66221b	0.014046217
3	0x3dc38121	0.09546114
4	0xbc9a1614	-0.018809356
5	0xbd60d52b	-0.054890793
6	0x3d9c27b9	0.07624764
7	0xbd157de0	-0.036496997
8	0x3bff4a65	0.007790851
9	0xbd1c6c90	-0.03818947
10	0xbc040525	-0.008057867
11	0xbcca2c7f	-0.02467942
12	0xbcc4a098	-0.024002358
13	0x3cae60a4	0.021286316
14	0xbd4ab160	-0.049485564
15	0xbc7c2f13	-0.015392083
16	0x3d4c02e4	0.049807444
17	0xbd24672c	-0.040137455
18	0x3d6017a8	0.05471006
19	0x3ca325c1	0.019915463
20	0xbc172bb3	-0.009226727
21	0xbd4d3a67	-0.050104525
22	0xbcfa1843	-0.030529147
23	0xbc615544	-0.013753239
24	0x3d4f877e	0.050666325
25	0x3d2da2f1	0.04239172
26	0x3b5d79c7	0.0033794509
27	0xbd95b289	-0.073094435
28	0xbd3ffc6e	-0.046871595
29	0x3d1672fb	0.036730748
30	0x3d16de04	0.036832824
31	0xbd423502	-0.047413833
32	0x3d5ba80f	0.05362707
33	0xbcb3ffe0	-0.021972597
34	0xbc68e397	-0.014214418
35	0x3d76bcd0	0.06023866
36	0xbdc1c7ba	-0.09461923
37	0x3c9736a1	0.018458666
38	0xbd91b70f	-0.07114994
39	0x3d6f14be	0.05836939
40	0x3d4b9972	0.049706884
41	0xbd26f1e2	-0.04075802
42	0xbda26edd	-0.07931302
43	0xbd373936	-0.044732295
44	0x3d4d0f26	0.050063275
45	0x3d30f1a2	0.04319919
46	0x3d0618a2	0.032738335
47	0x3dcd3b97	0.100211315
48	0x3da76644	0.081738025
49	0xbd73fd60	-0.05956781
50	0x3c3bf59d	0.011472133
51	0x3d4d4e1c	0.05012332
52	0x3d079d8d	0.033109237
53	0x3cd5b916	0.026089232
54	0xbd4016da	-0.046896793
55	0x3d12c9aa	0.035836853
56	0x3d76d75e	0.060263984
57	0xbc8abec6	-0.016936671
58	0x3d72bb77	0.05926081
59	0x3d9e04a0	0.07715726
60	0xbd5431d7	-0.051805343
61	0x3d626dc2	0.055280454
62	0xbd968753	-0.0735003
63	0xbd810b4f	-0.06300985
64	0xbdc0a387	-0.0940619
65	0x3d768ecd	0.06019478
66	0x3dbfb98f	0.09361564
67	0x3d663fff	0.056213375
68	0xbcf5a5fd	-0.029986376
69	0xbd0e67c8	-0.034766942
70	0xbd1757d7	-0.036949005
71	0x3c88327a	0.016625632
72	0x3cd70238	0.026246175
73	0xbbe414bf	-0.006960481
74	0xbc942f65	-0.018089006
75	0x3c8c9bbb	0.017164102
76	0x3b149233	0.002267015
77	0x3d569ec4	0.052397504
78	0xbd99cdc5	-0.075099505
79	0x3b54b5ee	0.0032457071
80	0xbb4cf1d7	-0.0031272077
81	0xbd8c1a39	-0.06840939
82	0xbd8ff274	-0.07028666
83	0x3d662b38	0.05619356
84	0x3d7f7834	0.062370494
85	0x3c74b99c	0.014936831
86	0xbd244391	-0.0401035
87	0xbd3f167c	-0.046652302
88	0x3db35e41	0.08758212
89	0xbdc48de7	-0.09597378
90	0x3d1e9784	0.038718715
91	0xbd5a12cb	-0.05324058
92	0x3d8aba88	0.06773859
93	0xbd086035	-0.033294875
94	0xbd10fe4a	-0.03539876
95	0x3d852ec2	0.06503059
96	0x3d2b9b41	0.04189611
97	0x3d8bde96	0.06829564
98	0xbc9632da	-0.018334795
99	0xbde155ba	-0.11002679
100	0x3c54bb24	0.012984071
101	0x3d7bf1d8	0.061509937
102	0xbd845f03	-0.064634345
103	0x3d010ded	0.03150742
104	0x3d1d3527	0.03838077
105	0xbcd1b059	-0.025596784
106	0x3d75b35c	0.059985504
107	0xbd4a8f3f	-0.049453016
108	0xbd88c892	-0.06678881
109	0xbd052220	-0.032503247
110	0x3d759a91	0.05996186
111	0xbc47660c	-0.012170326
112	0x3dce71b7	0.10080283
113	0x3cef31b2	0.029198501
114	0xbc3b1699	-0.011418962
115	0x3da06d07	0.07833295
116	0x3cd2ca08	0.025731102
117	0xbd3b7849	-0.04576901
118	0xbd326825	-0.04355635
119	0xbd610a30	-0.054941356
120	0x3b4b5713	0.0031027242
121	0xbd0f3d54	-0.034970596
122	0x3d7ab8aa	0.061211266
123	0x3d4b1ac5	0.049586076
124	0x3db1d96d	0.08684049
125	0xbdbfe7fd	-0.0937042
126	0x3da550ac	0.080720276
127	0xbdcc4471	-0.09973992
128	0x3bf777a8	0.007552106
129	0xbd91607e	-0.070984825
130	0xbd0f1340	-0.034930468
131	0xbd817fbd	-0.06323192
132	0x3d9ce5a9	0.07660992
133	0x3cbe4321	0.023225369
134	0xbdfc8969	-0.123308964
135	0xbcd6c5e2	-0.026217405
136	0x3c8aad1f	0.016928254
137	0xbc8dae17	-0.017294927
138	0xbd2120ff	-0.03933811
139	0xbdb8f95f	-0.09031939
140	0xbdba7938	-0.09105152
141	0xbd26fa1c	-0.040765867
142	0xbd992f28	-0.074796975
143	0xbdb5550e	-0.088541135
144	0xbceeb89a	-0.02914076
145	0x3db1e6f1	0.08686627
146	0x3d8983ac	0.067145675
147	0x3cdc2869	0.026874738
148	0x3d0c40e9	0.03424159
149	0x3d8f8ddb	0.07009479
150	0x3d9304c8	0.07178646
151	0xbdee2574	-0.11628237
152	0x3d788128	0.060670048
153	0xbdb4867b	-0.088147126
154	0xbd971b73	-0.073782824
155	0xbd816bc3	-0.06319382
156	0x3b487172	0.0030585197
157	0xbc112421	-0.008858711
158	0xbd4da711	-0.050208155
159	0x3d7f87d7	0.062385406
160	0x3ccffc14	0.025388755
161	0xbb5950a5	-0.003315964
162	0xbbd096b2	-0.0063656205
163	0xbdba6a38	-0.09102291
164	0x3dd4bba5	0.10387353
165	0xbddb205d	-0.10699532
166	0xbd07e598	-0.033177942
167	0xbd8ec1bc	-0.06970546
168	0x3d890861	0.06691051
169	0xbe279b2c	-0.16367787
170	0x3cc1f4b6	0.023676258
171	0x3df03577	0.117289476
172	0x3d23e721	0.040015344
173	0xbd0049ef	-0.03132051
174	0xbd28e561	-0.041234378
175	0xbd74ee99	-0.059797857
176	0x3cc8e8e9	0.024525123
177	0xbcd55342	-0.026040677
178	0x3bd7039c	0.0065617096
179	0x3d983b34	0.07433167
180	0xbdad6f79	-0.08468527
181	0xbca48df3	-0.020087218
182	0x3d5d2959	0.05399451
183	0xbdbb05d0	-0.09131968
184	0x3c48f4e0	0.012265414
185	0x3dc769d0	0.09736979
186	0xbdc01b02	-0.09380151
187	0xbddac988	-0.1068297
188	0xbd900fc6	-0.070342585
189	0x3d158abf	0.03650927
190	0xbd82f313	-0.06394019
191	0xbd6da7aa	-0.058021225
192	0x3c4532b8	0.012036018
193	0xbbfe85b3	-0.007767403
194	0xb8905e42	-6.884012e-05
195	0x3d16bb63	0.0367998
196	0xbd1058b8	-0.03524086
197	0x3d6b9195	0.057511885
198	0x3e2e0673	0.16994648
199	0xbd8e5990	-0.069506764
200	0xbc09e74c	-0.008416962
201	0x3d860afd	0.065450646
202	0x3df3dfc8	0.11907917
203	0xbcf3b670	-0.029750079
204	0x3ce54b61	0.027990045
205	0xbd037682	-0.03209544
206	0x3cd3d7a6	0.025859665
207	0x3d37ded6	0.044890247
208	0x3e01c7c7	0.12673865
209	0x3ca5c057	0.020233316
210	0xbaeef6b5	-0.0018231483
211	0xbcdc9d7f	-0.026930569
212	0xbd8af8b6	-0.06785719
213	0xbdaf911a	-0.08572598
214	0xbcd359e1	-0.025799694
215	0x3dbfff3a	0.093748525
216	0x3d15e5f3	0.03659625
217	0xbd0f9734	-0.035056308
218	0xbdb5ae9d	-0.088711955
219	0x3d7c0a89	0.061533485
220	0xbd22b5ad	-0.03972404
221	0xbddaa582	-0.10676099
222	0xbe191781	-0.14950372
223	0x3d880ba5	0.06642846
224	0xbdd5a80b	-0.10432442
225	0x3b758e58	0.0037468877
226	0x3cf82df2	0.030295346
227	0x3cb1598a	0.02164914
228	0x3cdbabc2	0.026815299
229	0xbe001574	-0.12508184
230	0x3d5bd061	0.053665522
231	0xbcc76b97	-0.024343295
232	0xbd0b74b4	-0.034046844
233	0xbda564e4	-0.08075884
234	0x3de47a23	0.11156108
235	0xbde7895e	-0.113054976
236	0x3db8509e	0.089997515
237	0xbe25fc96	-0.16209635
238	0x3d829e4d	0.0637785
239	0xbc12b5f3	-0.008954513
240	0x3d0098a3	0.031395566
241	0x3d566449	0.052341733
242	0xbda26353	-0.07929101
243	0x3cf44908	0.02981998
244	0x3cb58752	0.022159252
245	0x3d1def9a	0.03855858
246	0x3ca89a52	0.020581398
247	0xbdf65443	-0.120277904
248	0x3d88f6cd	0.066876985
249	0xbe107647	-0.14107619
250	0x3d97cf82	0.07412626
251	0x3dbca030	0.09210241
252	0x3d93e764	0.07221869
253	0xbd2ea792	-0.042640276
254	0x3cb3fb4c	0.021970414
255	0x3dd5ba26	0.104358956

bias f4 [128]
0	0xbdabd57d	-0.08390329
1	0xbc6f6566	-0.014611578
2	0x3d2f204e	0.042755418
3	0xbb868f9b	-0.0041064746
4	0x3cb60238	0.022217855
5	0xbd13354d	-0.035939503
6	0x3d918499	0.07105369
7	0xbd38dea4	-0.0451342
8	0xbd95bb2c	-0.07311091
9	0xba4624cf	-0.00075585855
10	0xbdbc5f10	-0.09197819
11	0x3d882d40	0.06649256
12	0x3c5dd848	0.013540335
13	0xbda92d03	-0.082605384
14	0xbd3f5069	-0.046707544
15	0xbd19b4df	-0.037526008
16	0x3d82c315	0.06384865
17	0x3d9b5e08	0.075862944
18	0x3c4ae15e	0.012382833
19	0x3d90a729	0.07063133
20	0x3d8fc115	0.07019249
21	0x3dc4e2ee	0.09613596
22	0x3cf67922	0.030087058
23	0x3d78d43f	0.06074929
24	0xbd8dcf7f	-0.06924342
25	0x3d8584a5	0.065194406
26	0xba1a3f1d	-0.00058840384
27	0x3bb412e6	0.005495417
28	0x3db5306b	0.088471256
29	0xbc93c6f5	-0.018039206
30	0x3d7832d0	0.060595334
31	0xbbb2a057	-0.005451243
32	0xbd42ffa0	-0.047607064
33	0x3d73a1e0	0.059480548
34	0x3da23c0b	0.079216085
35	0x3dc558f4	0.09636107
36	0xbc74fd8c	-0.014953028
37	0x3ba6b3c9	0.00508735
38	0x3d8854fc	0.066568345
39	0xbc00414a	-0.007828066
40	0x3c0ae387	0.008477098
41	0x3da5e591	0.08100427
42	0x3d4e03c7	0.05029657
43	0xbc8cce19	-0.017188119
44	0x3db790a5	0.08963136
45	0x3c935b74	0.017987944
46	0x3db8bfb6	0.09020941
47	0xbd85f8f2	-0.06541623
48	0xbd19f7a5	-0.037589688
49	0xbd60a95e	-0.05484902
50	0xbd1bcb27	-0.038035538
51	0xbc297992	-0.010343926
52	0x3b629cf6	0.003457842
53	0xbc27f1c5	-0.010250513
54	0x3cc783b6	0.024354797
55	0xbd9c75a0	-0.07639623
56	0xbdacefee	-0.084442005
57	0xbd5ee0da	-0.054413654
58	0xbdb3b6f9	-0.08775134
59	0x3c1e419f	0.0096592
60	0x3daf8192	0.085696355
61	0xbd3027d7	-0.043006744
62	0xbd86acc6	-0.06575923
63	0x3c15e2b9	0.009148293
64	0x3d31b34b	0.043383878
65	0xbd54bdb9	-0.051938746
66	0x3d33389e	0.043755166
67	0xbd429016	-0.047500692
68	0x3d795486	0.060871623
69	0x3d778155	0.060426075
70	0xbb872a9b	-0.004124952
71	0xbda2f05a	-0.07956
72	0xbd20caf7	-0.039256062
73	0x3d8249d6	0.06361739
74	0xbd449c23	-0.048000466
75	0x3dc7be29	0.09753067
76	0x3d8c3270	0.06845558
77	0xbd862397	-0.06549757
78	0x3c5ffb8f	0.013670816
79	0xbcd75f35	-0.026290515
80	0xbd722645	-0.059118528
81	0x3c560b8c	0.013064276
82	0xbd320362	-0.043460257
83	0x3bd60fef	0.006532661
84	0x3cfe90a5	0.031074831
85	0x3d89d8ea	0.06730826
86	0xbdb83a2b	-0.0899547
87	0x3d3604a2	0.044438012
88	0xbd24b972	-0.040215917
89	0x3d1ef6d2	0.038809605
90	0x3b22d46f	0.0024845859
91	0xbcf11816	-0.02943043
92	0x3cc11fa1	0.023574652
93	0x3d0a5aba	0.03377793
94	0x3d3df10a	0.04637245
95	0xbcb950aa	-0.022621471
96	0xbbcbb3ed	-0.006216517
97	0xbd12e820	-0.035865903
98	0xbb567d51	-0.0032728503
99	0x3d958e93	0.073025845
100	0x3d6d9c71	0.058010522
101	0xbcdc049d	-0.026857669
102	0x3d989650	0.07450545
103	0x3db329cf	0.08748209
104	0x3d6d571a	0.057944395
105	0x3c3bc47f	0.011460423
106	0xbd22a3fa	-0.03970716
107	0xbc5bf6a8	-0.013425507
108	0xbd2425d0	-0.040075123
109	0x3c9c9ad7	0.019116802
110	0x3c940833	0.018070316
111	0xbd907e0a	-0.0705529
112	0xbd925318	-0.07144755
113	0xbd0936e1	-0.033499602
114	0x3db52178	0.08844274
115	0x3c6a458b	0.014298807
116	0xbb8dd3f8	-0.004328247
117	0x3c159a5f	0.009131043
118	0xbc9e4f24	-0.019324847
119	0x3d361707	0.044455554
120	0x3c3413a8	0.010991015
121	0x3bec6b46	0.0072149364
122	0x3cff6b0a	0.03117897
123	0x3cd2e70b	0.025744935
124	0x3d8d3537	0.068949156
125	0x3cf17dbd	0.029478902
126	0xbdd5ffdb	-0.10449191
127	0xbcf5bf1c	-0.029998355

weight f4 [20, 128]
0	0xbdad9b54	-0.08476892
1	0x3c02066a	0.0079361
2	0xbd77e677	-0.060522523
3	0xbd93c7b0	-0.07215822
4	0xbcd282b3	-0.025697088
5	0xbd72c7c7	-0.059272554
6	0x3d945542	0.07242824
7	0x3da79d1e	0.081842646
8	0x3cb7f95c	0.022457771
9	0xbdb7a6fa	-0.08967395
10	0xbd832d58	-0.06405133
11	0xbc19b6b5	-0.00938194
12	0x3d25d4db	0.040486198
13	0x3d01ffeb	0.031738203
14	0xbc1ed368	-0.009693958
15	0x3d5e0b8a	0.054210223
16	0xbb554d79	-0.0032547398
17	0x3c4832bb	0.012219126
18	0x3d16cd50	0.036816895
19	0x3d9d2e3b	0.076748334
20	0xbcf706f7	-0.030154688
21	0xbd729d3b	-0.059231978
22	0xbd2a33a4	-0.041553155
23	0x3c6c6b8a	0.014429936
24	0x3d4fb1aa	0.050706543
25	0x3cd0e8ac	0.025501572
26	0xbcd04f02	-0.025428299
27	0xbd52884c	-0.051399514
28	0xbd0d6e43	-0.034528982
29	0xbde0e24f	-0.10980665
30	0xbd06ec41	-0.032940153
31	0xbd18f427	-0.037342217
32	0xbd83d1b7	-0.06436484
33	0xbdc66c03	-0.0968857
34	0xbd02db69	-0.031947527
35	0xbacc2978	-0.0015576323
36	0x3c4cb456	0.012494167
37	0x3c72f5c2	0.014829101
38	0x3c544db0	0.012957975
39	0x3d932453	0.07184663
40	0x3b825d42	0.0039784024
41	0xbc99470b	-0.018710634
42	0xbd888cd5	-0.066674866
43	0xbca6573a	-0.020305265
44	0xbd21ed05	-0.03953268
45	0xbd81d026	-0.06338529
46	0xbc02c05f	-0.007980435
47	0xbb93d9cc	-0.0045120474
48	0x3b769229	0.003762374
49	0x3d5a5a13	0.053308558
50	0x3d4e23ec	0.050327227
51	0x3cb82407	0.022478117
52	0x3d8422b2	0.0645193
53	0xbdf3cc4e	-0.119042024
54	0x3d54f7a6	0.05199399
55	0xbb97fb2d	-0.004638097
56	0x3d986888	0.07441813
57	0xbceaf514	-0.028681315
58	0x3d8c663a	0.06855436
59	0x3d0ff92f	0.03514975
60	0xbd97255c	-0.073801726
61	0x3dc604b2	0.09668864
62	0x3d9b3ecb	0.07580336
63	0x3c7c759a	0.015408898
64	0x3d8497e2	0.06474282
65	0x3d951c3c	0.07280776
66	0xbceaf8f9	-0.028683173
67	0xbd98386a	-0.07432635
68	0x3da7ce1d	0.0819361
69	0xbd054fdb	-0.03254686
70	0x3d01bfa7	0.031676915
71	0xbcaa32d0	-0.020776182
72	0xbc3eb9e8	-0.011641003
73	0x3ccf14af	0.025278417
74	0x3d6e5dca	0.058194913
75	0xbca14304	-0.019685276
76	0xbc558a18	-0.013033412
77	0x3d0f2ade	0.03495299
78	0xbbadfb77	-0.005309518
79	0x3cb1495f	0.021641431
80	0x3d186a32	0.03721065
81	0xbc0b4477	-0.00850021
82	0xbd914e06	-0.0709496
83	0xbd5c0940	-0.05371976
84	0x3cb29b6f	0.021802632
85	0xbcc8eb47	-0.024526251
86	0x3d5168fb	0.051125508
87	0x3d1d14af	0.038349804
88	0xbd83896e	-0.06422697
89	0x3cfdd901	0.030987265
90	0xbb96632f	-0.0045894603
91	0xbdb2c060	-0.08728099
92	0xbd48bbd4	-0.04900725
93	0xbc472e5c	-0.012157049
94	0xbd36de1c	-0.044645414
95	0xbd362c6f	-0.04447597
96	0x3b4a8cc2	0.0030906652
97	0xbd2b2b11	-0.04178912
98	0xbd3e9d37	-0.04653665
99	0xbcaaa9d7	-0.02083294
100	0x3c1485f8	0.009065144
101	0x3d102df9	0.035200093
102	0xbdb587bc	-0.0886378
103	0x3cff1e8c	0.031142496
104	0x3c8107b3	0.015750742
105	0x3d1190f0	0.035538614
106	0x3da6f0dc	0.08151409
107	0xbcd0bf10	-0.02548173
108	0x3bbfc897	0.0058527696
109	0xbcb2d154	-0.021828331
110	0x3d7b95f3	0.0614223
111	0xbd8b9f15	-0.06817452
112	0xbda8f958	-0.082506835
113	0x3dedbf87	0.116087966
114	0xbdb6d623	-0.08927562
115	0x3d9440ca	0.0723892
116	0xbbfdba14	-0.0077431295
117	0xbd23fcbb	-0.040035944
118	0xbd16413f	-0.036683317
119	0x3d9d03ec	0.07666764
120	0xbc99151a	-0.01868682
121	0x3d8c9d14	0.06865898
122	0xbc07c005	-0.008285527
123	0x3bb131e7	0.00540756
124	0x3ca34da8	0.01993449
125	0x3d7c7ede	0.061644427
126	0x3daf22ae	0.085515365
127	0xbca28876	-0.01984046
128	0x3d9044b8	0.07044357
129	0xbd0f9d29	-0.03506199
130	0xbc91a64e	-0.017779496
131	0xbd6e75a2	-0.058217652
132	0x3d2f7447	0.0428355
133	0xbb0994ce	-0.0020993236
134	0x3c0a17ad	0.008428496
135	0xbd0f01dd	-0.034913886
136	0xbd4b07ec	-0.0495681
137	0xbcb517b9	-0.022106038
138	0x3daef605	0.08543018
139	0x3b36dc66	0.0027902364
140	0x3d8023f7	0.0625686
141	0xbc85fcdc	-0.016355924
142	0x3ce4cd90	0.027930051
143	0x3a861258	0.0010228856
144	0x3c7e0b76	0.015505662
145	0x3d8f58d1	0.06999362
146	0xbd80df8f	-0.062926404
147	0x3c900f8c	0.017585538
148	0xbd193bc3	-0.03741051
149	0x3d9181f3	0.07104864
150	0xbc62af04	-0.013835672
151	0xbd8c3ff9	-0.06848139
152	0x3d91c232	0.07117118
153	0x3cd711df	0.026253639
154	0x3c6ccef3	0.014453637
155	0x3d6c5f91	0.057708327
156	0x3d10e964	0.03537883
157	0x3dac95e9	0.084270306
158	0x3cbea43d	0.023271674
159	0x3c71f2f4	0.014767397
160	0xbcbfee31	-0.023429008
161	0x3d015452	0.031574555
162	0xbb8e27cd	-0.0043382407
163	0xbd64feb3	-0.055906963
164	0xbc3cfda6	-0.011535084
165	0xbc82ff4b	-0.015990874
166	0xbd87c3c9	-0.0662914
167	0xbd4ba2cf	-0.049715813
168	0xbcd42f86	-0.025901567
169	0xbd8231a6	-0.06357126
170	0xbd5631ca	-0.052293576
171	0xbd618202	-0.055055626
172	0x3d5ad873	0.05342908
173	0x3d4720c6	0.04861524
174	0xbda9e80c	-0.082962126
175	0x3d4ca3ad	0.04996078
176	0x3d4698f0	0.048485696
177	0xbd89a920	-0.06721711
178	0x3d3684a5	0.044560093
179	0xbda1a8b4	-0.07893506
180	0x3db55dc2	0.088557735
181	0x3cca2eba	0.024680484
182	0x3d2e3b88	0.042537242
183	0xbd900bee	-0.070335254
184	0xbc3ca923	-0.011514935
185	0xbd354ad1	-0.044260804
186	0x3cbbc98d	0.022923255
187	0xbcba66a9	-0.02275403
188	0x3d597132	0.053086467
189	0x3c5f57c0	0.013631761
190	0x3b9d342e	0.00479748
191	0x3d6970cb	0.056992333
192	0x3c6d9e6a	0.014503101
193	0xbd609e5c	-0.054838523
194	0xbd19c3a9	-0.03754011
195	0xbd158022	-0.03649915
196	0xbd9c9803	-0.076461814
197	0x3d950623	0.07276561
198	0xbcddfc68	-0.027097896
199	0xbce1c6a6	-0.027560543
200	0x3dbd3f67	0.09240609
201	0x3d98afea	0.07455428
202	0xbd2fa66b	-0.042883318
203	0xbc377e10	-0.011199489
204	0x3d86a009	0.06573493
205	0x3bb5b83a	0.005545643
206	0x3bab14f5	0.005221004
207	0x3cbe5519	0.023233937
208	0x3d54c87b	0.051949006
209	0xbd9755c7	-0.073894076
210	0x3d36f223	0.044664513
211	0xbdba6349	-0.091009684
212	0xba078d91	-0.00051709363
213	0xbd902ca4	-0.070397645
214	0x3d8d8446	0.06909995
215	0xbdab4de6	-0.08364467
216	0x3b9b7299	0.0047438857
217	0xbce0dace	-0.027448084
218	0x3d9bd7e0	0.07609534
219	0x3c99c104	0.018768795
220	0xbd381345	-0.04494025
221	0x3d57d98b	0.0526977
222	0x3d8b163d	0.06791351
223	0xbd4f08ad	-0.050545383
224	0x3c91a77e	0.017780062
225	0xbd938aab	-0.07204183
226	0xbc6a937f	-0.014317392
227	0xbd1488b1	-0.03626317
228	0x3d37abbf	0.044841524
229	0x3ce4e89e	0.027942952
230	0xbd3dc204	-0.046327606
231	0xbcf8ac3e	-0.030355569
232	0xbdb82c30	-0.08992803
233	0xbd34f9ef	-0.044183668
234	0xbd9a2c10	-0.075279355
235	0xbcf7febc	-0.030272834
236	0x3c872f25	0.016501972
237	0xbd22ff0f	-0.039794024
238	0x3ce15261	0.027505102
239	0xbd5e1b0d	-0.054225016
240	0xbc793768	-0.015210964
241	0xbd2e1be0	-0.042507052
242	0x3db82d01	0.08992959
243	0x3b869dec	0.004108181
244	0x3c836a72	0.016041968
245	0x3cc0a82c	0.02351769
246	0xbdb95152	-0.09048714
247	0xbdbaadee	-0.09115206
248	0xbd90fff2	-0.07080068
249	0xbcacbf93	-0.021087443
250	0xbd6d068c	-0.05786757
251	0x3da381c5	0.07983736
252	0x3d33632a	0.043795742
253	0xbd58d224	-0.05293478
254	0xbda8eec7	-0.08248668
255	0xbd6dfd5f	-0.05810296

bias f4 [20]
0	0x3d96a123	0.07354953
1	0x3d87cf34	0.06631318
2	0xbd419913	-0.047265124
3	0xbd8f2233	-0.06988945
4	0x3c518d24	0.012789998
5	0xbd29da8f	-0.0414682
6	0x3bbfaf2f	0.005849741
7	0x3b97fdde	0.0046384176
8	0xbc6511ae	-0.013981266
9	0xbd82dab1	-0.06389368
10	0xbc04febc	-0.008117374
11	0xbc3cbadb	-0.011519159
12	0xbcabd9c9	-0.020977871
13	0x3b8ff2c7	0.004392955
14	0x3d052731	0.03250808
15	0x3c9ecce2	0.019384805
16	0xbd2c9395	-0.042132933
17	0xbd82aa8f	-0.06380188
18	0xbd9c6e3b	-0.07638212
19	0xbce88c5f	-0.028387247
