abalone/abalone_10_ffastSHAP.pt (torch, 86655 bytes, 6 tensors)

weight f4 [128, 12]
0	0xbe1fe9f4	-0.1561659
1	0x3e749325	0.23884256
2	0xbdf52446	-0.11969809
3	0xbdfd21e6	-0.12359981
4	0xbcd202f3	-0.025636172
5	0x3e2f51cf	0.17121051
6	0xbe5100db	-0.20410483
7	0xbe588f37	-0.21148382
8	0x3e82b608	0.25529504
9	0xbe629a7b	-0.22129242
10	0xbe80c230	-0.25148153
11	0xbdb9623f	-0.09051942
12	0x3e2db999	0.16965331
13	0x3c1f6d3e	0.009730635
14	0x3e3f8712	0.18703869
15	0xbd8e924f	-0.069615
16	0xbae356a2	-0.0017344544
17	0x3dbd4539	0.09241719
18	0xbe71c88e	-0.23611662
19	0xbcef5f35	-0.029220203
20	0xbe7abc45	-0.24485882
21	0xbc98c38c	-0.018647932
22	0xbdcda47b	-0.10041138
23	0xbe3917e2	-0.18075517
24	0x3e8f7bbc	0.2802409
25	0xbe32a0ca	-0.17444149
26	0xbe68d0e5	-0.22735937
27	0xbe750450	-0.23927426
28	0xbe6d74f0	-0.2318914
29	0x3e85809f	0.26074693
30	0x3e3d292e	0.1847274
31	0x3df0bd73	0.117548846
32	0x3cc7926b	0.02436181
33	0x3b7c4560	0.00384935
34	0x3d8d0fd3	0.06887784
35	0x3b2782e9	0.0025560206
36	0x3e84dae0	0.25948238
37	0x3d81eb63	0.063437246
38	0x3deb2112	0.11480917
39	0xbe7c5c67	-0.24644624
40	0x3e86091a	0.2617882
41	0x3dcfc536	0.10145037
42	0x3d3152f8	0.043292016
43	0x3dafa0a0	0.08575559
44	0xbe1f7408	-0.15571606
45	0xbe3ad157	-0.1824392
46	0x3c210449	0.009827682
47	0xbd4b0a1e	-0.049570195
48	0x3e6e3941	0.23264028
49	0x3e28d75f	0.16488408
50	0x3d091f54	0.033477142
51	0x3d5c0692	0.053717203
52	0xbe88dc67	-0.26730654
53	0x3e2144ad	0.15748854
54	0x3e804e2a	0.25059634
55	0x3dd37dc8	0.10326725
56	0x3dbaf874	0.0912942
57	0xbe135cec	-0.14390916
58	0x3e9ab814	0.30218565
59	0x3d6218a7	0.05519929
60	0xbe6a8e4f	-0.22905849
61	0xbd825162	-0.06363179
62	0x3e824617	0.254441
63	0x3e7299c8	0.23691475
64	0xbdc6c11b	-0.09704801
65	0x3e4aee80	0.19817543
66	0x3e18a7c4	0.14907748
67	0x3e4be135	0.19910128
68	0xbdaec2d3	-0.085332535
69	0xbe449346	-0.19196805
70	0xbd92aa14	-0.07161346
71	0x3e3f0637	0.18654715
72	0xbe667d45	-0.22508724
73	0x3e22971a	0.15877953
74	0xbbecdaec	-0.007228246
75	0x3de5802e	0.11206089
76	0x3e538d9d	0.2065949
77	0xbe8e3018	-0.27771068
78	0xbe48f6af	-0.19625352
79	0xbc19cb40	-0.0093868375
80	0x3da7c8c4	0.0819259
81	0x3cad38e7	0.021145297
82	0xbdb5bf1f	-0.08874344
83	0x3e14faa2	0.14548734
84	0xbd690ca6	-0.056896828
85	0xbdb07873	-0.08616724
86	0xbe0a1811	-0.13485743
87	0x3e75db01	0.24009325
88	0xbe910d78	-0.28330588
89	0xbcf8be52	-0.03036419
90	0x3e81ddf8	0.2536466
91	0x3e7a0950	0.24417615
92	0xbe2c3b1f	-0.16819428
93	0x3e0a468a	0.13503471
94	0x3b213da8	0.00246034
95	0x3e989b9e	0.29806226
96	0xbe70596d	-0.23471613
97	0x3d901bc4	0.07036546
98	0xbe5e9473	-0.21736316
99	0x3d356e0f	0.044294413
100	0xbe1e66c6	-0.15468892
101	0xbdae8ef2	-0.085233584
102	0x3e0b74f6	0.13618836
103	0xbdb39438	-0.08768505
104	0x3d9f5737	0.07780307
105	0xbe2e8136	-0.17041478
106	0xbe96efd2	-0.29479843
107	0x3e517a5b	0.20456831
108	0x3d946707	0.072462134
109	0x3e4dbf0b	0.20092408
110	0xbd2b6e26	-0.041853093
111	0xbe832712	-0.25615746
112	0x3e938313	0.2881094
113	0xbe772de5	-0.24138601
114	0xbdf31840	-0.1186986
115	0x3d85d8e2	0.06535508
116	0x3beb2f51	0.0071772714
117	0xbe32e9ce	-0.17472002
118	0xbe45934c	-0.1929447
119	0xbe7f650d	-0.24940892
120	0x3c88eedd	0.016715461
121	0xbd4df2c6	-0.050280355
122	0x3ce6bd58	0.028166458
123	0x3e7c1714	0.24618179
124	0xbbe2820c	-0.0069124755
125	0xbe0ac63f	-0.13552187
126	0x3c283550	0.010266617
127	0x3e6a39cf	0.22873615
128	0x3d956fb9	0.072967
129	0xbe6c95af	-0.23103975
130	0x3df275c4	0.11838868
131	0xbe9320ff	-0.28736112
132	0xbe30c55a	-0.17262784
133	0xbe6b3f8b	-0.22973458
134	0x3e56dd80	0.20982933
135	0x3e32bcd5	0.17454846
136	0xbde7595d	-0.112963416
137	0x3c83f614	0.01610855
138	0xbdb7c0c4	-0.08972314
139	0x3e53c1ad	0.2067935
140	0x3de7f2e6	0.11325626
141	0x3d820890	0.063492894
142	0xbe229b64	-0.1587959
143	0x3e2b10c7	0.16705619
144	0x3d073bc9	0.033016
145	0xbc20dd3d	-0.009818372
146	0xbdaf2fd3	-0.085540436
147	0xbe34f338	-0.17670906
148	0xbe40548e	-0.18782255
149	0xbe3f6dd2	-0.18694237
150	0xbe0bfac1	-0.13669874
151	0x3d9daace	0.07698594
152	0x3d8d7117	0.06906336
153	0x3d489912	0.048974104
154	0x3cd8d924	0.026470728
155	0x3cc508b0	0.024051994
156	0x3e8144b6	0.25247735
157	0xbdd0557f	-0.10172557
158	0xbbacb0f7	-0.0052701193
159	0xbd8cd735	-0.06876985
160	0xbe5de9b0	-0.21671176
161	0x3e846731	0.2585998
162	0xbe5ca619	-0.21547736
163	0xbe6d5f14	-0.231808
164	0x3e1795f5	0.14803298
165	0xbd439333	-0.047747802
166	0xbe035b4c	-0.12827796
167	0xbe93ea64	-0.28889763
168	0x3de34f36	0.11099093
169	0xbe54b69a	-0.20772782
170	0x3e54b0ba	0.20770541
171	0xbb8ffe0a	-0.0043942975
172	0x3e834ea3	0.25645933
173	0x3df1033c	0.11768195
174	0x3e861d22	0.26194102
175	0xbdd6031f	-0.10449814
176	0xbe435c2c	-0.1907813
177	0xbdad8e5a	-0.08474417
178	0xbd1fa868	-0.038978964
179	0xbe83e47d	-0.2576026
180	0x3e5219f5	0.20517714
181	0xbe179353	-0.14802293
182	0xbd48ef54	-0.049056366
183	0xbd604228	-0.05475059
184	0x3d387cb8	0.045040816
185	0x3d8eeed1	0.06979144
186	0xbe782a07	-0.24234782
187	0xbc9794cc	-0.018503569
188	0xbe0e68b6	-0.13907132
189	0x3e48fbf1	0.19627358
190	0xbdf720a8	-0.120667756
191	0x3e12d5c0	0.14339352
192	0xbdd5e094	-0.104432255
193	0x3df14ef4	0.11782637
194	0x3e88f302	0.267479
195	0x3cd5c505	0.026094923
196	0xbe9d6861	-0.30743697
197	0xbe788470	-0.24269271
198	0xbe922193	-0.2854124
199	0x3de193cf	0.110145204
200	0xbe1a10c4	-0.15045458
201	0x3e0e78eb	0.13913314
202	0x3d92f590	0.071757436
203	0xbe4a7bae	-0.19773743
204	0x3e31261f	0.17299698
205	0x3e94e59c	0.29081428
206	0xbd2fe092	-0.042938776
207	0x3d48a790	0.048987925
208	0x3db1118c	0.08645925
209	0xbe35b758	-0.17745721
210	0x3e9fdb99	0.31222227
211	0xbe20699b	-0.15665285
212	0xbe83ecd5	-0.25766626
213	0x3e1f23dc	0.15541023
214	0x3dbb9028	0.09158355
215	0xbe50ff61	-0.2040992
216	0x3e425871	0.1897905
217	0xbe737de9	-0.237785
218	0xbe26a459	-0.16273631
219	0x3d8616fa	0.06547351
220	0x3dc1f93f	0.09471368
221	0xbe78627b	-0.24256317
222	0xbe16879c	-0.14700168
223	0xbe3ea13e	-0.18616197
224	0x3e37de5d	0.17955919
225	0x3e1ae8bb	0.15127842
226	0xbe103586	-0.14082918
227	0x3e146427	0.1449133
228	0xbe1b6d1b	-0.15178339
229	0xbe110d60	-0.14165258
230	0x3d2ed9e2	0.042688258
231	0x3e8d1adc	0.27559555
232	0xbe89fe3f	-0.26951787
233	0x3e0562c6	0.1302596
234	0x3dba3d14	0.09093681
235	0xbd1bda20	-0.038049817
236	0x3e64d3ce	0.22346422
237	0xbdcb1580	-0.0991621
238	0xbdde08c7	-0.10841518
239	0x3db825aa	0.08991559
240	0x3dd44394	0.10364452
241	0xbe81c721	-0.25347236
242	0x3e37602c	0.1790778
243	0x3db4133f	0.087927334
244	0x3e976cf9	0.29575327
245	0xbbd9af7d	-0.0066432343
246	0x3dda6ba7	0.10665064
247	0x3e14b604	0.14522558
248	0xbdab54da	-0.083657935
249	0x3db315cf	0.08744394
250	0x3d47016b	0.048585337
251	0x3e191b96	0.1495193
252	0xbd15156e	-0.03639739
253	0xbde56c1f	-0.11202263
254	0xbb4b5dab	-0.0031031172
255	0x3d43f280	0.047838688

bias f4 [128]
0	0x3e4f06a8	0.20217383
1	0xbd61efd8	-0.055160373
2	0x3e74449b	0.23854296
3	0x3d99655e	0.074900374
4	0x3d9351a1	0.07193304
5	0xbe8f5844	-0.2799703
6	0x3e566344	0.20936304
7	0x3e8bf889	0.27338055
8	0xbe662d08	-0.22478116
9	0xbe704543	-0.23463921
10	0x3ddb1752	0.10697807
11	0x3e2cbd89	0.16869177
12	0x3e92c201	0.28663638
13	0x3e26ed92	0.16301563
14	0xbe863fd3	-0.2622057
15	0xbc822ca8	-0.015890434
16	0xbe4192ad	-0.18903609
17	0x3defdd34	0.11712113
18	0x3e0832e6	0.13300666
19	0x3dc90c7b	0.098168336
20	0xbe81ea1e	-0.2537393
21	0xbdcc17cd	-0.09965477
22	0xbe93999f	-0.2882814
23	0xbd05965e	-0.032614104
24	0x3e053cd7	0.1301149
25	0x3dd0b7de	0.1019132
26	0xbe1885c3	-0.14894776
27	0x3e5ac8a1	0.21365596
28	0x3e8fdc83	0.28097925
29	0x3d0c494b	0.034249585
30	0x3bcfb500	0.0063387156
31	0xbe7226b2	-0.23647574
32	0xbe699344	-0.22810084
33	0xbe92b2b9	-0.2865198
34	0x3e3f19c6	0.18662176
35	0x3e8a476d	0.2700762
36	0x3e3d77c5	0.1850272
37	0x3e89e636	0.2693345
38	0x3e1ba7f5	0.1520079
39	0xbe2437d5	-0.16036923
40	0xbe52ef65	-0.20599134
41	0x3e87435d	0.26418582
42	0x3dc03cf3	0.09386625
43	0x3ded6b94	0.115927845
44	0x3d9cd77b	0.07658287
45	0xbc652a5e	-0.013987152
46	0x3b313b48	0.002704339
47	0xbe65c6f4	-0.22439176
48	0x3ca0e297	0.019639296
49	0xbda76a1c	-0.08174536
50	0xbd89e4b0	-0.06733072
51	0x3e425d49	0.18980898
52	0x3e5477cf	0.20748828
53	0x3e8e5d6b	0.27805647
54	0x3e71b4ba	0.23604098
55	0x3e82748a	0.25479537
56	0x3d65c46f	0.056095537
57	0xbe51c569	-0.20485462
58	0x3d2414a3	0.040058743
59	0xbcaf48d3	-0.02139703
60	0x3c18f222	0.009335073
61	0x3dc2ed70	0.09517944
62	0x3e895cf9	0.26828745
63	0xbe2071f7	-0.15668474
64	0xbe555262	-0.20832208
65	0xbdfc797d	-0.123278596
66	0xbe0bbe7e	-0.13646886
67	0x3dcb86ed	0.099378444
68	0xbbe35a98	-0.00693829
69	0xbdc56309	-0.0963803
70	0x3e06c056	0.13159308
71	0x3e4387a6	0.19094715
72	0x3e618ab0	0.22025561
73	0x3d96c3e9	0.07361586
74	0x3e2f781b	0.1713566
75	0xbe68a3da	-0.22718754
76	0x3e744f3f	0.23858355
77	0xbded8269	-0.115971394
78	0xbe6bbec7	-0.23021995
79	0xbc1de1ad	-0.009636325
80	0xbd4d95c4	-0.050191656
81	0xbe9797ae	-0.2960791
82	0xbe7be131	-0.24597622
83	0xbd888306	-0.06665616
84	0x3d61e1e5	0.05514707
85	0x3c903474	0.017603137
86	0x3dd811f1	0.10550297
87	0xbe0d677f	-0.13809012
88	0x3d9a09d8	0.07521409
89	0xbd41f344	-0.047351137
90	0xbe808f71	-0.25109437
91	0x3e0b09be	0.13577935
92	0xbe5121bf	-0.2042303
93	0xbe6d4234	-0.23169786
94	0xbde00737	-0.10938876
95	0x3e8bee96	0.27330464
96	0x3e5aa1cb	0.21350782
97	0xbd7e8ac3	-0.062144052
98	0x3e0b0409	0.13575758
99	0x3e815163	0.25257406
100	0xbe552650	-0.20815396
101	0xbd129b16	-0.035792433
102	0xbe15ea4a	-0.14640155
103	0xbe6b1e55	-0.2296079
104	0x3e644d02	0.22295001
105	0xbda1e0a9	-0.07904179
106	0x3e31961c	0.17342418
107	0xbe97361f	-0.2953348
108	0xbd0634ac	-0.032765076
109	0x3e0bb85b	0.13644545
110	0xbe2dffb1	-0.1699207
111	0x3d83073b	0.063978635
112	0xbe031160	-0.12799597
113	0x3e829566	0.25504607
114	0x3e28415d	0.16431184
115	0xbd033850	-0.032036126
116	0x3d207555	0.039174397
117	0x3e34f0a8	0.17669928
118	0xbdcc2c61	-0.09969402
119	0xbe6761fd	-0.22595973
120	0xbe194023	-0.14965872
121	0x3d87e5a6	0.06635599
122	0xbe7f8d41	-0.24956228
123	0x3e84f87e	0.25970834
124	0x3dea45aa	0.114390686
125	0xbe318e4f	-0.17339443
126	0xbe736022	-0.2376714
127	0xbe25335e	-0.16132876

weight f4 [128, 128]
0	0x3be0bf62	0.006858752
1	0xbbcaf93d	-0.0061942623
2	0x3b375cf5	0.002797899
3	0x3db4fa0d	0.08836756
4	0x3d9f4bda	0.077781394
5	0xbd87475f	-0.0660541
6	0xbcc03e0b	-0.023467084
7	0x3ce1b2c7	0.027551068
8	0x3d681346	0.056659006
9	0x3d7c9ce4	0.06167306
10	0xbc503fbd	-0.012710509
11	0xbc88ae2c	-0.016684614
12	0xbd928890	-0.071549535
13	0xbd1bd5d9	-0.038045738
14	0xbdbc2edc	-0.09188625
15	0x3cca643b	0.024705997
16	0x3cc2c519	0.023775624
17	0x3d9506f9	0.072767206
18	0xbd991ebe	-0.07476567
19	0x3d3107ca	0.04322032
20	0xbc75f5df	-0.0150122335
21	0xbc8c3ae6	-0.017117929
22	0xbd6b80c4	-0.057495847
23	0xbd9abb79	-0.07555289
24	0xbb9d3f32	-0.0047987932
25	0x3d7d55d6	0.061849438
26	0xbc27df60	-0.010246128
27	0x3c30a874	0.01078235
28	0xbd40ccb5	-0.047070224
29	0x3db9d236	0.09073298
30	0xbdd64efa	-0.10464282
31	0x3dcdeaa8	0.10054523
32	0xbbed5a30	-0.007243417
33	0xbd9e76a3	-0.07737472
34	0xbb035957	-0.0020042264
35	0xbd21b691	-0.03948075
36	0x3d779ae8	0.060450464
37	0xbd87c974	-0.06630221
38	0xbc781ff5	-0.015144338
39	0xbd0214f7	-0.031758275
40	0xbcc779a3	-0.024349993
41	0xbd867226	-0.06564741
42	0xbcd264ce	-0.025682833
43	0x3d889523	0.066690706
44	0x3d6d6400	0.057956696
45	0xbc860bf6	-0.016363125
46	0xbda3696f	-0.07979094
47	0xbdb977a6	-0.09056024
48	0x3d1e7ddd	0.03869425
49	0xbcdcbbd8	-0.02694504
50	0xbda3b03e	-0.079926
51	0x3c9de699	0.019274997
52	0xbd8f2968	-0.069903195
53	0xbd4665cc	-0.048436925
54	0x3dbf12e0	0.09329772
55	0x3d303bf4	0.043025926
56	0x3da5925d	0.08084557
57	0x3d483984	0.048882976
58	0xbd100c6f	-0.035168108
59	0x3d86f10e	0.06588946
60	0x3d4c78c3	0.049919855
61	0xbdc8d272	-0.09805764
62	0xbb4e9ced	-0.003152664
63	0x3d1a591d	0.03768264
64	0x3d68381e	0.056694143
65	0xbd21f320	-0.039538503
66	0x3ddc2111	0.107484944
67	0x3c2d67c1	0.010583819
68	0x3cac7f1c	0.021056704
69	0xbc7f1ac9	-0.015570351
70	0x3d9548b3	0.07289257
71	0xbd02d681	-0.031942848
72	0x3d23ab48	0.03995827
73	0xbda49367	-0.08035927
74	0xbd5c4c9c	-0.053783998
75	0xbd9da775	-0.076979555
76	0xbd840e5d	-0.06448052
77	0xbd9cf581	-0.07664014
78	0xbcc83f08	-0.024444118
79	0x3d175d15	0.036954004
80	0xbda0521a	-0.0782816
81	0x3d5470fc	0.051865563
82	0x3d9f86d5	0.07789389
83	0x3d356db4	0.044294074
84	0x3db75eec	0.08953652
85	0xbd491b1a	-0.04909811
86	0x3c44ebd5	0.012019117
87	0xbd81d43e	-0.0633931
88	0x3d47675e	0.048682563
89	0x3d903c9b	0.070428096
90	0xbd7fc41d	-0.062442888
91	0x3d4024db	0.046910148
92	0xbdd48b7e	-0.103781685
93	0xbd5bc961	-0.053658847
94	0xbdbedb0d	-0.09319124
95	0xbdb74bc4	-0.08949998
96	0x3d889189	0.06668384
97	0xbc700ada	-0.014651025
98	0xbcbd3a75	-0.023099164
99	0xbc651ebf	-0.013984381
100	0xbdf71838	-0.12065166
101	0xbaf68c41	-0.001881011
102	0x3d8c8aab	0.06862386
103	0x3c5db554	0.0135320015
104	0xbd8d5720	-0.069013834
105	0x3da096ae	0.0784124
106	0x3d11b175	0.035569627
107	0xbdb3b28d	-0.0877429
108	0xbddbb58a	-0.10727985
109	0xbd6afe51	-0.05737144
110	0xbc28b392	-0.010296719
111	0x3ce93cc6	0.028471362
112	0x3c754df1	0.014972196
113	0xbdb49608	-0.08817679
114	0x3ca06d4d	0.019583369
115	0xbdad5fb9	-0.08465523
116	0x3da6900e	0.08132945
117	0x3d7acbd5	0.061229546
118	0x3d858421	0.06519342
119	0x3d58249c	0.05276929
120	0x3c0c7ab2	0.008574175
121	0x3c9bacd1	0.019003304
122	0x3d31035c	0.043216094
123	0xbd9d2bcd	-0.0767437
124	0xbbc2d4cd	-0.005945778
125	0x3c52b093	0.012859481
126	0x3d680da5	0.056653637
127	0x3d69039b	0.056888204
128	0xbd94b2a4	-0.072606355
129	0x3dc30333	0.095220946
130	0xbd4727e2	-0.04862202
131	0xbce46680	-0.027880907
132	0x3cfb29e3	0.030659622
133	0xbdb65d32	-0.08904494
134	0xbb9466df	-0.0045288648
135	0x3d3dbd46	0.046323083
136	0xbccdc163	-0.025116628
137	0xbdbc1ecb	-0.09185561
138	0xbd83c145	-0.064333476
139	0x3d158a2d	0.036508728
140	0xbdd201ee	-0.10254274
141	0x3d9bdc39	0.076103635
142	0xbd90c2f7	-0.070684366
143	0x3d5e407a	0.05426071
144	0xbccb7924	-0.024838038
145	0x3d4ab7fd	0.04949187
146	0x3cbc1880	0.022960901
147	0xbdb21a96	-0.08696477
148	0x3d406df6	0.046979867
149	0x3d4c0141	0.049805883
150	0xbd2fbe6a	-0.042906202
151	0xbd073cb1	-0.033016864
152	0xbb89f06c	-0.0042095687
153	0x3d68be2e	0.056821994
154	0x3dcfe5c4	0.10151246
155	0xbd8842d5	-0.06653372
156	0x3d611ef0	0.054961145
157	0x3ce9737f	0.028497456
158	0xbc803637	-0.015650852
159	0x3e09323b	0.13398068
160	0x3d62073a	0.055182673
161	0xbda40fa6	-0.08010797
162	0x3d4e66cc	0.050391003
163	0xbd526558	-0.05136618
164	0xbd94d238	-0.072666585
165	0xbcb36016	-0.021896403
166	0xbb804e73	-0.003915602
167	0x3caa0d3e	0.020758267
168	0x3c5ae178	0.01335942
169	0xbda2bcd8	-0.07946175
170	0x3d40c6e8	0.04706469
171	0xbda935b6	-0.08262198
172	0xbd4b7f08	-0.049681693
173	0xbd222728	-0.039588124
174	0x3d8eec8b	0.06978711
175	0xbd859af7	-0.06523698
176	0x3d72ee58	0.059309334
177	0xbdc66a7d	-0.0968828
178	0xbd904401	-0.07044221
179	0xbb9db480	-0.004812777
180	0x3d2f9905	0.04287054
181	0x3b8fda2a	0.004390021
182	0x3c365a4f	0.01112993
183	0xbd32e653	-0.043676686
184	0xbd77e09c	-0.06051694
185	0xbc0c282a	-0.008554498
186	0x3d5bd4f3	0.05366988
187	0x3d258ce4	0.040417567
188	0xbd12e6b4	-0.035864547
189	0xbd800837	-0.06251567
190	0x3d649b74	0.055812314
191	0x3db04441	0.086067684
192	0xbb4face7	-0.0031688751
193	0x3d5f7497	0.054554548
194	0x3d54daa5	0.05196633
195	0x3ccf9f59	0.025344538
196	0x3d30634e	0.043063454
197	0xbd82de0c	-0.06390008
198	0xbd6fac97	-0.058514204
199	0x3d0368d5	0.032082397
200	0xbd8dd4ab	-0.06925329
201	0x3d7b5513	0.06136043
202	0x3d880cf5	0.06643096
203	0xbda8e8e7	-0.082475476
204	0x3d77cfce	0.060500912
205	0x3c3a96ea	0.01138852
206	0x3b945a0f	0.0045273374
207	0x3d53993c	0.051659808
208	0xbcd767d5	-0.026294628
209	0x3d579d85	0.052640457
210	0x3da2098e	0.07911979
211	0x3cfe86d2	0.031070147
212	0x3daa8160	0.083254576
213	0xbd5f57d9	-0.054527137
214	0xbd7b1d7c	-0.061307415
215	0x3c4f6df3	0.012660491
216	0xbd89e49a	-0.067330554
217	0xbbef74d8	-0.00730763
218	0x3d9b0434	0.07569161
219	0x3ce9fc2a	0.028562624
220	0x3ce2f747	0.027705802
221	0x3aad68f1	0.0013230128
222	0xbd6780cd	-0.05651932
223	0x3af00bb2	0.0018314032
224	0x3a2d86eb	0.00066195306
225	0x3d8964ce	0.0670868
226	0xbd243e38	-0.0400984
227	0x3c4883fe	0.012238501
228	0xbd0cbd67	-0.034360316
229	0x3d587aa6	0.05285134
230	0xbd70a41a	-0.05875025
231	0xbd5f6b4c	-0.054545686
232	0x3bd5553c	0.006510405
233	0x3d506c4a	0.050884522
234	0x3cd94a1a	0.026524592
235	0xbe02b8f2	-0.12765864
236	0xbd8961f9	-0.0670814
237	0x3d062446	0.032749437
238	0x3d3419dc	0.043969974
239	0xbd506cd0	-0.05088502
240	0x3cfbab54	0.030721344
241	0xbc1b217c	-0.0094684325
242	0x3cccb1ce	0.024987128
243	0x3cc06cdb	0.023489406
244	0x3c8b0583	0.016970402
245	0xbcff8ad3	-0.031194126
246	0xbd187b03	-0.037226688
247	0xbc8ad0be	-0.01694524
248	0x3da4e72e	0.080519065
249	0x3d42b27a	0.04753349
250	0xbd80ace0	-0.06282973
251	0x3d081399	0.033221815
252	0xbd89850a	-0.06714828
253	0x3d32df4f	0.043669995
254	0x3d4d8cb4	0.050183013
255	0xbd739967	-0.059472468

bias f4 [128]
0	0xbd3e2dd8	-0.04643044
1	0x3d1b11e2	0.03785885
2	0xbdb5a4ef	-0.08869349
3	0x3c63e637	0.013909868
4	0xbd8bbb0c	-0.06822786
5	0xbd8e56e7	-0.06950169
6	0xbd6a7d2b	-0.057248276
7	0xbd65779a	-0.056022264
8	0xbda04a1f	-0.078266375
9	0xbd60b7b8	-0.054862708
10	0xbd8c849b	-0.0686123
11	0xbb60b670	-0.0034288429
12	0x3c46db2b	0.012137215
13	0xbd3c8c26	-0.046032093
14	0xbcf13988	-0.029446378
15	0xbd5a1c1c	-0.053249463
16	0xbd9adacb	-0.07561263
17	0x3d85695f	0.065142386
18	0x3d6a0974	0.05713792
19	0x3d910fae	0.07083069
20	0x3c5a7ea8	0.013335861
21	0xbccd1cb8	-0.025038108
22	0xbcf584c2	-0.02997053
23	0xbcc058d6	-0.02347986
24	0xbcc02674	-0.023455836
25	0xbc63fe6a	-0.0139156375
26	0xbd1c9fc6	-0.03823831
27	0xbd4006ce	-0.04688149
28	0x3d7feb81	0.062480453
29	0x3d61f360	0.05516374
30	0xbd7b72e4	-0.061388865
31	0xbc3936ed	-0.011304599
32	0xbd004cce	-0.031323247
33	0xbd8c00be	-0.06836079
34	0x3b9462ee	0.004528395
35	0xbc11bff9	-0.0088958675
36	0xbcfd12e0	-0.03089279
37	0xbd99546d	-0.07486806
38	0xbd867832	-0.06565894
39	0xbc09daf4	-0.008414019
40	0x3c9d0cb3	0.019171095
41	0xbdbfe407	-0.09369665
42	0xbda4f345	-0.080542125
43	0xbd8f9dab	-0.07012495
44	0xbd3d0505	-0.046147365
45	0x3dacc58e	0.08436118
46	0x3d5b5d27	0.053555634
47	0xbd355013	-0.044265818
48	0xbc45f433	-0.012082147
49	0xba2f3832	-0.0006684094
50	0xbd0d2ad7	-0.034464683
51	0x3cd1c1c3	0.025605088
52	0xbd7b7545	-0.061391134
53	0xbd3e16e1	-0.046408538
54	0xbd210776	-0.039313756
55	0xbd94842a	-0.07251771
56	0xbd2629ec	-0.040567324
57	0x3d45855f	0.048222896
58	0x3d5b4a31	0.05353755
59	0x3cc46240	0.02397263
60	0xbb838d4f	-0.004014648
61	0x3ca2c545	0.019869456
62	0x3be05c40	0.0068469346
63	0xbd1328ce	-0.035927586
64	0x3da56e78	0.08077711
65	0x3c8c6751	0.017139109
66	0xbcaae22d	-0.020859802
67	0xbd609855	-0.054832775
68	0xbd2eba20	-0.04265797
69	0xbcb2eb9d	-0.021840865
70	0xbdd27d4a	-0.10277803
71	0x3db1fcd4	0.08690801
72	0xbd040e5a	-0.03224025
73	0xbc8edcd5	-0.017439285
74	0xbd0592fe	-0.032610886
75	0x3d61efe1	0.055160407
76	0xbd488aef	-0.048960622
77	0x3d3eba39	0.046564315
78	0x3d958349	0.07300431
79	0xbd55d162	-0.052201636
80	0x3d258acf	0.04041558
81	0x3c7d7368	0.0154694095
82	0xbd826a4a	-0.06367929
83	0x3d09653a	0.033543803
84	0xbcc36a98	-0.023854539
85	0x3c9759b6	0.018475395
86	0xbd318bbb	-0.043346148
87	0x3ca75f23	0.020431107
88	0xbc455d09	-0.012046107
89	0x3baa6319	0.0051998016
90	0x3d7015fb	0.058614712
91	0x3c5c26cb	0.013436983
92	0x3c0f39b8	0.008741789
93	0xbc943bc6	-0.018094908
94	0xbb100dab	-0.0021980803
95	0x3d7f8e60	0.06239164
96	0xbd1afc58	-0.03783831
97	0xbd96a289	-0.0735522
98	0x3d902cca	0.07039793
99	0xbc92f2c8	-0.017938033
100	0x3d5ea680	0.054358006
101	0xbd345f54	-0.044036224
102	0xbb0da4a8	-0.0021613035
103	0xbb9cb7a8	-0.0047826357
104	0xbdaece62	-0.08535458
105	0xbd6ee038	-0.0583193
106	0xbcae5f02	-0.021285538
107	0xbd800495	-0.06250874
108	0xbccdf165	-0.02513952
109	0x3d149115	0.036271174
110	0x3cc861c9	0.02446069
111	0x3c68aa85	0.014200811
112	0x3c860694	0.016360559
113	0xbd26bfdd	-0.04071032
114	0xbb1518bd	-0.002275034
115	0xbd05d2f4	-0.032671884
116	0xbd6afc6c	-0.057369635
117	0xbc52bc81	-0.012862326
118	0xbd4091a2	-0.047013886
119	0xbda4799e	-0.08031009
120	0x3d269e85	0.04067852
121	0x3d31e24a	0.043428697
122	0x3bacce83	0.0052736416
123	0xbdbfc08d	-0.09362898
124	0x3cdd0d3c	0.02698385
125	0x3dc82c0d	0.09774027
126	0x3d9aefc1	0.07565261
127	0x3d26522d	0.040605713

weight f4 [20, 128]
0	0x3d0f1ed6	0.034941517
1	0x3d15651b	0.036473375
2	0x3d0f6661	0.035009746
3	0x3cb423e2	0.021989767
4	0x3ca2811c	0.019836955
5	0x3c8b6f47	0.017020835
6	0xbb34445c	-0.0027506566
7	0x3c8985d4	0.016787447
8	0xbb8e264e	-0.0043380624
9	0xbc9b5374	-0.018960692
10	0x3d1342a3	0.03595222
11	0x3da7df2b	0.08196863
12	0x3d5529f6	0.05204197
13	0x3c916e76	0.017752867
14	0x3d515fa3	0.051116597
15	0xbd0d349d	-0.034474004
16	0x3d98f4af	0.07468545
17	0xbd512c22	-0.05106748
18	0x3c97c34d	0.018525744
19	0x3ca39f70	0.019973487
20	0x3d888bcf	0.066672914
21	0x3d6dd195	0.0580612
22	0x3c041c8a	0.008063445
23	0xbd818436	-0.06324045
24	0xbce2f044	-0.027702458
25	0xbb89c942	-0.0042049
26	0xbd9903f1	-0.07471455
27	0xbcaa27c1	-0.02077091
28	0xbd812c9b	-0.06307336
29	0xbc9962d2	-0.018723879
30	0x3c7c89cc	0.015413713
31	0x3d1e4d3d	0.03864788
32	0xbd31b443	-0.0433848
33	0xbd84b02e	-0.06478916
34	0xbd9efe58	-0.07763356
35	0x3d661c48	0.056179315
36	0xbc7478e8	-0.014921404
37	0x3d87a683	0.066235565
38	0xbd508f13	-0.050917696
39	0x3d30b6b5	0.043142993
40	0xbd200b10	-0.03907305
41	0xbc206afe	-0.009791134
42	0x3d82b480	0.06382084
43	0x3d39a4be	0.045323126
44	0xbd8fde50	-0.070248246
45	0xbcbf7171	-0.023369523
46	0xbd607bc8	-0.054805547
47	0xbd5d2f97	-0.054000463
48	0xbc60d4cf	-0.0137226125
49	0xbd5f50f4	-0.054520562
50	0xbd89dc27	-0.06731444
51	0x3c7b93e1	0.015355081
52	0xbd97fbf0	-0.074211
53	0xbca01e8c	-0.019545816
54	0x3b0bb8d1	0.0021319876
55	0x3d3e9fc9	0.0465391
56	0x3ceeb3c8	0.02913846
57	0x3d8e95d6	0.06962173
58	0xbdcefc12	-0.10106672
59	0xbdaa82d1	-0.083257325
60	0xbcbf8b89	-0.023381965
61	0x3d5c6325	0.05380549
62	0x3d1e40e7	0.038636114
63	0xbdac4e66	-0.08413391
64	0x3d26afd5	0.04069503
65	0xbcddeb35	-0.027089695
66	0xbc8b3689	-0.016993778
67	0x3c69201e	0.014228849
68	0x3d50994a	0.050927438
69	0xbd0c2096	-0.034210764
70	0xbc40f50c	-0.011777174
71	0x3d50b9f2	0.05095858
72	0x3d53c02c	0.05169694
73	0xbd91cca7	-0.071191125
74	0x3b3f2329	0.0029165244
75	0x3c8922da	0.016740251
76	0xbd5420b6	-0.051789008
77	0x3cae9169	0.021309571
78	0x3c9f6a9c	0.019460015
79	0xbcba5c80	-0.022749186
80	0xbc4c6003	-0.012474063
81	0xbd8bb42d	-0.06821475
82	0xbd1e089b	-0.038582426
83	0xbdb068e8	-0.08613759
84	0x3cd14fd8	0.025550768
85	0xbcb1b11d	-0.0216909
86	0xbdc067b7	-0.09394782
87	0x3d396834	0.04526539
88	0xbd16db6d	-0.036830354
89	0xbd059fe9	-0.032623205
90	0xbcc55b9a	-0.02409153
91	0xbd457ae9	-0.04821292
92	0x3b61f2f7	0.0034477094
93	0x3d1b3bcf	0.037898835
94	0xbccc02e4	-0.024903722
95	0xbc616a37	-0.013758234
96	0x3ca31e62	0.019911949
97	0x3980e12a	0.00024581823
98	0xbda768db	-0.081742965
99	0x3d820c3e	0.06349991
100	0xbd4c682c	-0.049904034
101	0x3de4a19f	0.11163639
102	0xbd4c6f73	-0.049910974
103	0xbd2cdfc8	-0.042205602
104	0xbd4316dd	-0.047629226
105	0xbd503ed2	-0.05084116
106	0x3d1131b8	0.035447806
107	0xbd9f87e2	-0.077895895
108	0x3c66378f	0.014051332
109	0xbcd4a745	-0.025958667
110	0xbd80209b	-0.06256219
111	0xbbeb891e	-0.0071879765
112	0x3d286eac	0.04112117
113	0x3d391e5b	0.045194965
114	0x3c701785	0.014654045
115	0xbccd5d3c	-0.025068872
116	0x3afa30b2	0.0019087999
117	0x3d17ab26	0.037028454
118	0xbd321c28	-0.043483883
119	0xbcff0e5c	-0.031134777
120	0xbd81d01d	-0.063385226
121	0xbc85341e	-0.016260203
122	0x3d191a5b	0.03737865
123	0x3cd877bd	0.026424283
124	0xbd255257	-0.04036173
125	0xbd83fe1b	-0.06444951
126	0x3dc8e67e	0.09809588
127	0xbdc7bf29	-0.09753258
128	0x3d137446	0.03599956
129	0x3b24ea71	0.0025164152
130	0x3c96a54a	0.018389363
131	0x3cc47421	0.023981156
132	0x3d777d4a	0.06042222
133	0x3cbeb36e	0.023278918
134	0x3da7ad87	0.081873946
135	0xbc185d34	-0.009299565
136	0x3da18c5d	0.078881
137	0x3db9f7a3	0.09080436
138	0x3d869458	0.06571263
139	0xbc6ac9f2	-0.014330374
140	0xbb3818bf	-0.0028090922
141	0xbd306b8d	-0.04307132
142	0x3c546bff	0.012965201
143	0xbd97289a	-0.07380791
144	0xbd5f72a7	-0.0545527
145	0x3d8e8289	0.06958491
146	0xbc55b9bc	-0.013044771
147	0xbd062eb4	-0.032759383
148	0x3d84b397	0.064795665
149	0x3c0c9257	0.008579812
150	0xbcce31c9	-0.025170224
151	0xbd4e6fb1	-0.050399486
152	0x3ceeaebc	0.029136054
153	0xbd506176	-0.050874196
154	0x3da72eb3	0.08163204
155	0xbcd16c8a	-0.02556445
156	0xbd3d686b	-0.04624216
157	0xbd01c7e6	-0.03168478
158	0xbca591f1	-0.020211192
159	0x3c114653	0.008866864
160	0xbd2029b8	-0.039102286
161	0xbd6fa93e	-0.05851101
162	0x3c1e3ef7	0.009658567
163	0x3d4e2d9d	0.05033647
164	0xbcea15c6	-0.028574836
165	0xba209105	-0.0006125125
166	0xbc272888	-0.0102025345
167	0xbd81ac94	-0.06331745
168	0x3d4ab96b	0.049493235
169	0x3cd12fe7	0.025535537
170	0xbde47623	-0.11155345
171	0x3d5910f0	0.05299467
172	0xbbdff853	-0.0068350225
173	0xbc6dc90a	-0.0145132635
174	0xbd8b0ac1	-0.067891605
175	0x3d7a9148	0.061173707
176	0x3d2e0363	0.0424837
177	0xbb05af9f	-0.0020398868
178	0xbd950921	-0.07277132
179	0x3d6c7e80	0.057737827
180	0xbd46c8d8	-0.048531383
181	0xbcd208dd	-0.025638992
182	0xbc9beea9	-0.0190347
183	0x3c1df172	0.009640085
184	0x3d3dad1d	0.04630767
185	0xbd8c1f11	-0.06841863
186	0x3ce5e831	0.028064819
187	0x3aa48b13	0.0012553654
188	0xbdb854c0	-0.0900054
189	0x3d6254fc	0.05525683
190	0xbd706a3d	-0.058695067
191	0x3dac8523	0.08423831
192	0x3d751088	0.05983022
193	0x3d70c21d	0.05877887
194	0xbcf7023e	-0.030152436
195	0xbd874571	-0.06605042
196	0x3d9bc54c	0.07605991
197	0x3ca77b35	0.020444492
198	0xbda1350c	-0.07871446
199	0xbcd988ae	-0.026554432
200	0x3d0b22ad	0.033968616
201	0x3d625af8	0.055262536
202	0x3b2cd90f	0.0026374494
203	0xbd683e85	-0.05670025
204	0x3cbff7ca	0.023433585
205	0x3d5dd423	0.054157387
206	0xbd0bc5ef	-0.03412431
207	0x3d1068a8	0.035256058
208	0xbcf17109	-0.029472845
209	0xbce94215	-0.028473893
210	0x3d38e920	0.0451442
211	0xbbf1c809	-0.0073785824
212	0xbd2809c2	-0.04102493
213	0xbd44eb63	-0.048076045
214	0x3c728087	0.014801151
215	0xbd64bdd1	-0.055845086
216	0x3d397fb5	0.045287807
217	0xbd05e1f4	-0.03268619
218	0xbd6e53e6	-0.05818548
219	0x3d9ead4c	0.077478975
220	0x3cdb6c76	0.026785117
221	0xbd74437c	-0.05963467
222	0x3d112651	0.035436932
223	0x3dc34d91	0.09536279
224	0xbcb69ba8	-0.02229102
225	0x3d76bd38	0.060239047
226	0x3c8d775e	0.017268833
227	0x3cce2af1	0.02516696
228	0xbc5653b0	-0.013081476
229	0xbdb8bc3b	-0.09020277
230	0xbd539e04	-0.051664367
231	0xbd5cef6d	-0.05393927
232	0x3d226a04	0.039651886
233	0x3d7bda16	0.06148728
234	0x3d90f8a5	0.07078675
235	0x3d813abc	0.06310031
236	0x3d220fc7	0.039565828
237	0xbc4f4942	-0.012651743
238	0xbd8bd284	-0.06827262
239	0xbc8be49f	-0.017076788
240	0xbca919d1	-0.020642193
241	0xbd690764	-0.056891814
242	0x3d649bcc	0.055812642
243	0x3d202494	0.039097384
244	0xbcb384bb	-0.021913877
245	0xbd7a8035	-0.061157424
246	0xbd44e31e	-0.04806816
247	0x3d66f956	0.05639013
248	0x3d6892af	0.056780513
249	0xbd8465d5	-0.064647354
250	0xbd883af7	-0.06651872
251	0xbcabdb36	-0.020978551
252	0xbd7f74b4	-0.062367156
253	0xbd6aeed9	-0.05735669
254	0x3d224973	0.039620828
255	0x3cd8ed57	0.02648036

bias f4 [20]
0	0x3d16090e	0.03662973
1	0xbcb899fd	-0.022534365
2	0xbd1a630c	-0.037692115
3	0xbc448bb3	-0.0119961975
4	0xbd7c9dc3	-0.06167389
5	0xbd763e77	-0.060118165
6	0xbd0967c2	-0.033546217
7	0x3cdbe2e9	0.026841598
8	0xbcbc0cd8	-0.022955343
9	0x3d294832	0.041328616
10	0x3cd0dd8d	0.025496269
11	0x3ccb98c7	0.024853123
12	0x3b24861d	0.0025104352
13	0xbda33272	-0.07968606
14	0xbd1d2157	-0.038361873
15	0xbce1aa33	-0.027546978
16	0xbcc8ae39	-0.024497138
17	0xbc92c7d9	-0.01791756
18	0x3b710d0e	0.0036781463
19	0x3d3fc12b	0.04681508
