abalone/abalone_explainer_fastSHAP_bb.pt (torch, 85767 bytes, 6 tensors)

weight f4 [128, 10]
-0.29005948 -0.17418468 -0.026064515 -0.051270563 0.05617328 0.11038825 -0.098296866 0.3073708
0.21808822 0.06213924 -0.10528615 -0.2272048 -0.26547903 -0.2843221 -0.2201121 0.18307057
-0.22478054 -0.16305405 0.11929929 0.20554318 0.08658193 0.2713055 0.15925768 -0.24445279
-0.26960173 -0.123151325 0.15414566 -0.005305597 0.15011962 -0.29841003 0.22528788 -0.08136077
-0.2677522 -0.18905757 0.08681746 -0.16998127 -0.1717021 0.10234406 0.11088335 -0.09281419
-0.16378085 -0.13113262 -0.28931943 0.15590724 -0.28501558 0.006282868 0.15950063 -0.07936695
0.23294419 0.12779908 -0.1957781 -0.020678345 0.1812296 -0.10559458 -0.2890387 0.22586429
-0.271438 0.15571772 0.15375413 0.08197709 0.2449684 0.25040346 -0.14858708 -0.09229205
-0.05640886 -0.20326346 0.18036936 -0.10891602 0.18062909 0.13068295 0.010623762 -0.057933155
-0.036656946 -0.19926642 -0.009191185 -0.26671758 -0.0030577208 -0.23043847 -0.06478663 -0.017191187
0.13855353 -0.13573824 -0.087481454 -0.20392771 0.34612665 -0.0062339962 0.28884473 0.074822314
-0.31969187 0.06605928 0.18614872 -0.1887702 -0.11357699 -0.24921376 0.15933979 0.19996853
-0.122930095 -0.045869924 -0.09598016 -0.25597635 0.2581669 0.14401014 -0.09533673 0.253237
0.33333564 0.04270317 0.08858078 -0.12490779 0.24028891 -0.1930618 -0.23928091 0.17184822
-0.022936659 0.27297404 0.2950004 0.017720204 0.27016962 -0.21118857 0.20555414 0.04090378
0.12973897 -0.04693276 -0.19537127 0.27902722 -0.09414609 -0.12067006 -0.29867902 0.1736295
0.06253541 0.054880746 -0.09555582 -0.13250053 0.09654829 0.16938397 -0.06588077 -0.13381058
-0.224126 -0.1294358 -0.19708179 -0.31168625 0.075506225 0.2492474 -0.05869618 -0.29780972
-0.088181555 -0.0065329215 0.06213515 0.25760964 0.20974931 -0.108329736 0.2506839 0.16163425
-0.14160141 -0.025156775 0.037845336 0.08406618 -0.15167809 -0.14009444 0.1278208 0.057629023
0.22032389 -0.30796114 -0.039893087 -0.06965713 -0.33989713 -0.07939005 0.22295812 -0.0047873026
-0.023281181 -0.09076199 0.25031424 -0.2907093 -0.14068952 -0.081840485 -0.21919079 0.051845085
0.029366182 -0.11321076 -0.047678933 -0.11808498 0.17663333 -0.08640212 0.019184679 -0.3170057
-0.09705723 -0.13753603 -0.31660303 0.1896804 -0.020017127 -0.043245345 0.21067528 0.26431543
0.303314 -0.11017072 0.017957438 0.2571644 -0.23219647 -0.21599859 -0.2688914 -0.20362741
0.08588784 -0.15964283 0.12708673 -0.22942114 0.18913612 0.20135061 -0.3542272 0.18927336
0.16377842 -0.021520358 -0.23815176 0.2707734 0.10437185 -0.15531436 0.10836798 0.12214377
-0.27331814 0.14536823 -0.080531724 0.2754398 0.050573427 0.25819594 0.21417424 -0.10434612
0.25909185 0.19004846 -0.08387981 -0.031051729 0.23032653 0.11789764 -0.26091892 -0.25057328
0.062690556 -0.18111905 0.27765182 -0.30179477 -0.08010372 -0.24741764 -0.168853 0.17830086
-0.19527125 0.16056237 0.23738487 0.007897349 0.12888075 -0.2186193 0.2528979 -0.04291399
-0.014111206 0.15857267 -0.17095011 0.07054009 0.21957771 -0.15293024 -0.13010405 0.03568843
00000000: ad82 94be 785d 32be 4085 d5bc 1501 52bd
00000010: f415 663d 3c13 e23d de4f c9bd b55f 9d3e
00000020: 8552 5f3e b785 7e3d 44a0 d7bd 60a8 68be
00000030: deec 87be ab92 91be 1165 61be da76 3b3e
00000040: df2c 66be a4f7 26be 3053 f43d e979 523e
00000050: de51 b13d 8ee8 8a3e 7214 233e d551 7abe
00000060: 3d09 8abe c336 fcbd 5cd8 1d3e 93da adbb
00000070: f5b8 193e 33c9 98be deb1 663e 7aa0 a6bd
00000080: d116 89be 4f98 41be 5acd b13d 920f 2ebe
00000090: add2 2fbe c399 d13d cf16 e33d 5e15 bebd
000000a0: 2bb6 27be a147 06be ad21 94be 26a6 1f3e
000000b0: 90ed 91be 84e0 cd3b 2254 233e 248b a2bd
000000c0: ec88 6e3e c3dd 023e 0e7a 48be a265 a9bc
000000d0: 4194 393e f941 d8bd e1fc 93be f848 673e
000000e0: ecf9 8abe 7774 1f3e b971 1d3e 9be3 a73d
000000f0: ffd8 7a3e e234 803e 3627 18be 9d03 bdbd
00000100: fa0c 67bd 4c24 50be bfb2 383e 5d0f dfbd
00000110: d5f6 383e c0d1 053e 4a0f 2e3c 514b 6dbd
00000120: 9825 16bd 7f0c 4cbe a096 16bc 358f 88be
00000130: 0b64 48bb 10f8 6bbe daae 84bd 88d4 8cbc
00000140: fae0 0d3e f7fe 0abe 7a29 b3bd 6dd2 50be
00000150: 8337 b13e 8d46 ccbb 75e3 933e 713c 993d
00000160: a7ae a3be 164a 873d c59d 3e3e fa4c 41be
00000170: 0e9b e8bd e431 7fbe f829 233e 8dc4 4c3e
00000180: c6c2 fbbd 1ae2 3bbd 3f91 c4bd 550f 83be
00000190: 742e 843e 6577 133e e73f c3bd 48a8 813e
000001a0: f8aa aa3e 85e9 2e3d d769 b53d a8cf ffbd
000001b0: 4c0e 763e feb1 45be 0e06 75be fbf8 2f3e
000001c0: a9e5 bbbc 41c3 8b3e 4b0a 973e f629 913c
000001d0: ac53 8a3e d141 58be c97c 523e b98a 273d
000001e0: 4bda 043e 913c 40bd 680f 48be a8dc 8e3e
000001f0: aacf c0bd dd21 f7bd 75ec 98be efcb 313e
00000200: 9112 803d a2ca 603d c5b2 c3bd 38ae 07be
00000210: 1cbb c53d fe72 2d3e 7fec 86bd a405 09be
00000220: 4981 65be d18a 04be cfcf 49be 5795 9fbe
00000230: 02a3 9a3d b63a 7f3e 686b 70bd 847a 98be
00000240: 8898 b4bd 1e12 d6bb 6d81 7e3d 69e5 833e
00000250: 86c8 563e fbdb ddbd a459 803e 7383 253e
00000260: f6ff 10be 9515 cebc b603 1b3d e42a ac3d
00000270: 8051 1bbe eb74 0fbe 75e3 023e 690c 6c3d
00000280: 969c 613e 15ad 9dbe ef66 23bd 66a8 8ebd
00000290: ff06 aebe 4097 a2bd 224f 643e cede 9cbb
000002a0: 2db8 bebc 6ce1 b9bd 3029 803e d9d7 94be
000002b0: ea10 10be fc9b a7bd 8d73 60be 835b 543d
000002c0: 5991 f03c 0bdb e7bd fc4a 43bd 8ad6 f1bd
000002d0: 5edf 343e 98f3 b0bd 3029 9d3c 924e a2be
000002e0: f1c5 c6bd 3fd6 0cbe cb19 a2be 943b 423e
000002f0: f5fa a3bc 0822 31bd 43bb 573e 5a54 873e
00000300: f94b 9b3e 30a1 e1bd 7a1b 933c 0dab 833e
00000310: e9c4 6dbe bc2e 5dbe 22ac 89be b483 50be
00000320: f7e5 af3d 6979 23be 0623 023e 60ed 6abe
00000330: e6ac 413e db2e 4e3e 445d b5be e0d0 413e
00000340: 88b5 273e 764b b0bc 0ede 73be d0a2 8a3e
00000350: e9c0 d53d ba0a 1fbe 08f0 dd3d 8326 fa3d
00000360: 5bf0 8bbe 69db 143e d1ed a4bd 7206 8d3e
00000370: 1526 4f3d 4232 843e 7e50 5b3e 6bb3 d5bd
00000380: b0a7 843e 109c 423e 2ec9 abbd 3260 febc
00000390: b8da 6b3e 5174 f13d 2a97 85be 244b 80be
000003a0: e863 803d 4677 39be 6128 8e3e d884 9abe
000003b0: 6b0d a4bd 0d5b 7dbe cde7 2cbe 8094 363e
000003c0: 30f5 47be 766a 243e 0515 733e e263 013c
000003d0: 51f9 033e bddd 5fbe d57b 813e 94c6 2fbd
000003e0: b032 67bc e060 223e 8c0d 2fbe 5377 903d
000003f0: fbd8 603e bf99 1cbe ff39 05be 082e 123d

bias f4 [128]
-0.1555057 -0.21912342 -0.2948032 -0.085968964 -0.2730415 0.24548483 -0.25846788 0.077435166
-0.07168132 0.079534926 0.16729732 0.03616822 0.19648463 -0.27659777 0.0778195 0.25831702
0.21268253 0.13110693 -0.07610465 0.30578756 -0.022218235 -0.12655534 0.021622598 -0.26286107
-0.05524365 -0.27455306 0.2559145 0.1586115 -0.10914853 0.06733756 -0.25458276 0.21933623
-0.19607806 0.1580189 0.34113604 -0.29781014 -0.21895185 0.07284345 -0.068478286 -0.09570606
-0.10336297 -0.18623959 -0.128866 -0.25690296 0.2135022 0.19118336 -0.2835365 -0.252414
-0.05624041 0.2404625 0.07646335 -0.07991255 0.18722612 -0.17872187 0.2603282 -0.048157267
-0.25809968 0.14410503 0.2875074 0.069816135 -0.21476698 -0.30520645 -0.12614341 0.12954383
-0.0657358 0.26992247 0.30672732 -0.12099222 -0.21374275 -0.2577583 -0.113353364 -0.07434523
-0.032253165 -0.15435424 -0.16368587 -0.068415835 0.16531773 0.3087943 -0.25304863 -0.29778174
-0.073819876 0.2080514 -0.058600813 -0.19325551 -0.06757791 -0.26569647 0.14674675 -0.08389272
-0.29432732 -0.16733749 -0.08730165 0.2608822 -0.17566761 -0.048307605 0.25299928 -0.2847022
0.21321678 -0.1607643 0.19793896 -0.25588802 0.13590232 -0.22780558 -0.103967644 0.2119919
0.21419641 0.15202248 0.22171108 -0.033549216 -0.30654076 -0.18027808 -0.11275581 0.13843897
-0.019519394 -0.044054404 -0.11271459 -0.17091498 -0.21510358 -0.017909992 -0.12697902 -0.20892614
-0.15866095 0.25115123 0.21401627 -0.056352824 0.15179962 0.077217564 -0.08392429 0.30565554
00000000: e33c 1fbe e461 60be 72f0 96be 7f10 b0bd
00000010: 18cc 8bbe 6060 7b3e e755 84be 5496 9e3d
00000020: a8cd 92bd 35e3 a23d fd4f 2b3e 2125 143d
00000030: 4433 493e 399e 8dbe d45f 9f3d 2142 843e
00000040: 73c9 593e e540 063e c1dc 9bbd 3090 9c3e
00000050: 0403 b6bc b997 01be e021 b13c ba95 86be
00000060: 2a47 62bd 3892 8cbe 3a07 833e 0e6b 223e
00000070: 4489 dfbd 46e8 893d ac58 82be ad99 603e
00000080: b0c8 48be b5cf 213e 62a9 ae3e 927a 98be
00000090: ea34 60be f22e 953d 583e 8cbd 8a01 c4bd
000000a0: f7af d3bd 97b5 3ebe 73f5 03be c988 83be
000000b0: 52a0 5a3e 92c5 433e b22b 91be 683c 81be
000000c0: 585c 66bd cd3b 763e d198 9c3d 31a9 a3bd
000000d0: 34b8 3f3e de02 37be bd49 853e 8e40 45bd
000000e0: a425 84be 4590 133e 2c34 933e c3fb 8e3d
000000f0: e0eb 5bbe 0544 9cbe bd2b 01be 23a7 043e
00000100: 7ea0 86bd 4733 8a3e 5d0b 9d3e c5ca f7bd
00000110: 61df 5abe e5f8 83be cf25 e8bd 5042 98bd
00000120: e51b 04bd 0a0f 1ebe 459d 27be 9a1d 8cbd
00000130: 0d49 293e 491a 9e3e 978f 81be d976 98be
00000140: e02e 97bd 6d0b 553e 6807 70bd c6e4 45be
00000150: 4a66 8abd 5e09 88be c844 163e f2cf abbd
00000160: 12b2 96be 855a 2bbe 35cb b2bd 5a92 853e
00000170: 36e2 33be 32de 45bd 1f89 813e 7dc4 91be
00000180: 8055 5a3e 669f 24be 83b0 4a3e c103 83be
00000190: fa29 0b3e de45 69be fdec d4bd 6814 593e
000001a0: 4e56 5b3e c8ab 1b3e 3b08 633e e76a 09bd
000001b0: e9f2 9cbe d19a 38be 85ec e6bd f2c2 0d3e
000001c0: 23e7 9fbc 6472 34bd e8d6 e6bd 5604 2fbe
000001d0: 1d44 5cbe fab7 92bc ca06 02be bcf0 55be
000001e0: 0478 22be e596 803e 1527 5b3e 38d2 66bd
000001f0: 5c71 1b3e 3e24 9e3d 80e0 abbd e27e 9c3e

weight f4 [128, 128]
-0.01673563 -0.038260672 0.04189451 -0.01781426 -0.024452219 -0.022329636 0.0016172989 -0.05126769
-0.07342409 -0.015217479 -0.052188307 -0.07147463 -0.06917795 -0.077997126 -0.06536783 0.018385252
-0.008336925 0.051878057 0.0836684 -0.039039537 -0.08921193 0.036439914 0.096198075 0.022674954
-0.037963588 -0.053608302 0.03998317 0.065967835 0.06793155 -0.07545679 0.03658155 -0.046636652
-0.012337296 -0.03794499 -0.054324515 -0.055335693 0.033946592 0.08926306 -0.02806556 0.103081256
0.050490223 0.04946366 0.0033799063 0.056640603 0.0076130205 0.058436017 0.118109286 0.061963007
0.06381581 0.07637429 -0.017534956 0.031053971 -0.035756577 0.041111555 0.022063747 -0.054064464
0.064559035 0.035789724 -0.027780475 -0.044570185 0.07806034 -0.016941804 0.006104912 -0.044481862
0.011321651 0.049186632 0.021386351 -0.031678524 -0.071345046 0.076389596 -0.023876293 -0.059528448
-0.03380819 -0.048126172 0.018912615 -0.085938156 -0.031149257 -0.051612463 0.10836631 0.022160955
0.022301951 0.057187583 -0.03961142 0.05986614 0.045987412 0.068307675 -0.042853106 0.0068767895
0.056532547 0.058844846 -0.058497794 0.04918723 0.039305452 -0.011590732 0.034954634 0.030317565
0.059013985 0.075441234 0.05527578 0.06464774 0.06928451 0.03264146 0.04668919 0.046695292
0.077781215 -0.10682172 -0.06486178 0.001362222 0.082252 0.04164436 -0.053875025 -0.0029690785
-0.06765173 -0.05778688 -0.058405656 0.06747972 -0.037694126 -0.020034151 -0.032624323 -0.0025714543
0.00032871022 -0.05439597 0.033372205 0.01837806 -0.07430479 0.013197243 -0.067898326 0.001988965
0.009211946 0.06706562 -0.006419161 0.070565686 0.04152307 -0.07467855 0.025222536 -0.06118322
-0.0693663 -0.043334663 0.051786873 0.019458933 -0.03213258 -0.003910667 0.07705019 0.058088433
-0.019399967 0.028270235 -0.010182714 0.052012995 -0.052592743 0.07226453 0.026838925 -0.049551316
-0.08871814 0.02445969 -0.01855245 -0.053970333 0.029935125 0.011380688 0.044226307 0.0686431
0.037628174 0.03018653 0.0481004 -0.059559137 0.08283751 -0.008353698 -0.05494598 -0.09006037
0.029988581 0.042442728 0.0249668 -0.053277764 0.026191626 -0.07170037 -0.06926329 0.060359333
-0.0011050869 -0.010493815 -0.053352002 0.024618769 -0.07970301 -0.06867117 -0.01736028 0.06170399
-0.08727274 0.030808108 -0.078901105 -0.052443206 -0.061630048 0.056405872 0.037894968 0.041269008
-0.04234067 -0.090702064 -0.062928155 0.01672493 -0.038046665 -0.021114381 -0.02754053 0.03769579
0.071964405 -0.037461545 0.011530516 -0.044940848 0.014331517 0.11573801 0.020562783 0.0102400975
0.0642136 -0.08983745 -0.016850265 -0.057731032 -0.07189279 0.056279548 -0.009411099 -0.041928012
0.0725537 0.008198197 0.027021652 -0.079863936 -0.07424358 -0.079132326 -0.022349019 0.015191141
0.064024195 0.08323541 -0.13822725 0.020442829 0.036615547 -0.06746165 -0.05935889 0.06811599
-0.023680508 -0.0430997 -0.02905291 0.018561155 0.06499412 -0.050127245 -0.061275434 -0.023618396
0.023219708 0.0845805 0.035655763 0.056912467 -0.065524064 -0.080625646 0.06297238 -0.0690263
0.034057695 -0.012965503 -0.048756212 -0.035106327 -0.04924681 0.058447786 -0.049580876 0.020608822
00000000: 2919 89bc 39b7 1cbd 9499 2b3d 36ef 91bc
00000010: 0550 c8bc a4ec b6bc 8cfb d33a 12fe 51bd
00000020: 5f5f 96bd bc52 79bc 68c3 55bd 4a61 92bd
00000030: 2bad 8dbd f5bc 9fbd 92df 85bd ab9c 963c
00000040: 9997 08bc 167e 543d 575a ab3d ece7 1fbd
00000050: bfb4 b6bd 0542 153d 7f03 c53d d3c0 b93c
00000060: b57f 1bbd 6194 5bbd 64c5 233d 251a 873d
00000070: b21f 8b3d 1789 9abd 89d6 153d 1306 3fbd
00000080: 5f22 4abc 356c 1bbd 6283 5ebd aea7 62bd
00000090: 950b 0b3d 8dcf b63d bfe9 e5bc 441c d33d
000000a0: d6ce 4e3d 689a 4a3d 6b81 5d3b faff 673d
000000b0: a576 f93b 9b5a 6f3d 48e3 f13d eccc 7d3d
000000c0: ddb1 823d 206a 9c3d 78a5 8fbc e664 fe3c
000000d0: 7d75 12bd 9764 283d 08bf b43c b372 5dbd
000000e0: 8737 843d 3f98 123d e193 e3bc 3a8f 36bd
000000f0: 19de 9f3d 8ac9 8abc b70b c83b 9d32 36bd
00000100: 727e 393c ec77 493d 6e32 af3c 57c1 01bd
00000110: 5a1d 92bd 2672 9c3d 3798 c3bc 1ad4 73bd
00000120: 757a 0abd f31f 45bd a1ee 9a3c 5800 b0bd
00000130: ba2c ffbc 9767 53bd 28ef dd3d e48a b53c
00000140: 95b2 b63c 873d 6a3d 963f 22bd 3336 753d
00000150: 4c5d 3c3d e5e4 8b3d bd86 2fbd b156 e13b
00000160: ac8e 673d 4b07 713d 629b 6fbd 8d78 493d
00000170: c1fe 203d 0ee7 3dbc 972c 0f3d 8b5c f83c
00000180: a6b8 713d ef80 9a3d db68 623d 0966 843d
00000190: 0ae5 8d3d 0db3 053d 2a3d 3f3d 9043 3f3d
000001a0: c24b 9f3d 59c5 dabd 41d6 84bd 968c b23a
000001b0: bd73 a83d 4793 2a3d 0fac 5cbd df94 42bb
000001c0: fd8c 8abd efb1 6cbd c53a 6fbd cf32 8a3d
000001d0: 2865 1abd a91e a4bc 15a1 05bd d885 28bb
000001e0: bd56 ac39 4fce 5ebd 4bb1 083d 968d 963c
000001f0: 1c2d 98bd 4039 583c 470e 8bbd 4c59 023b
00000200: b4ed 163c b359 893d d357 d2bb be84 903d
00000210: 1814 2a3d 11f1 98bd 7e9f ce3c 429b 7abd
00000220: eb0f 8ebd b07f 31bd 791e 543d 5768 9f3c
00000230: 749d 03bd 0d25 80bb 7dcc 9d3d 23ee 6d3d
00000240: aeec 9ebc fb96 e73c 66d5 26bc 940b 553d
00000250: 7d6b 57bd 6dff 933d 4edd db3c 52f6 4abd
00000260: dbb1 b5bd b05f c83c 4ffb 97bc ff0f 5dbd
00000270: 823a f53c 1176 3a3c a526 353d c194 8c3d
00000280: 0020 1a3d be49 f73c ed04 453d 48f4 73bd
00000290: b6a6 a93d f3dd 08bc 090f 61bd 9271 b8bd
000002a0: 9daa f53c 6dd8 2d3d 2d87 cc3c c939 5abd
000002b0: d28f d63c a5d7 92bd e9d9 8dbd 593b 773d
000002c0: 90d8 90ba 40ee 2bbc a187 5abd 4dad c93c
000002d0: 553b a3bd 78a3 8cbd 2537 8ebc 53bd 7c3d
000002e0: 0dbc b2bd 4961 fc3c e796 a1bd b0ce 56bd
000002f0: ca6f 7cbd d809 673d c137 1b3d b109 293d
00000300: 696d 2dbd 01c2 b9bd 7ae0 80bd b802 893c
00000310: d2d6 1bbd 11f8 acbc ad9c e1bc e766 1a3d
00000320: 1362 933d 4771 19bd 7dea 3c3c e513 38bd
00000330: bdce 6a3c 0d08 ed3d 4873 a83c 15c6 273c
00000340: 6b82 833d b2fc b7bd 9109 8abc 6077 6cbd
00000350: 873c 93bd 6285 663d 0331 1abc b5bc 2bbd
00000360: 0997 943d bb51 063c 835c dd3c b48f a3bd
00000370: 050d 98bd 2110 a2bd 4a15 b7bc 43e4 783c
00000380: 1e1f 833d 5477 aa3d 728b 0dbe b877 a73c
00000390: 2ffa 153d 5529 8abd 4f22 73bd 6580 8b3d
000003a0: a0fd c1bc 5089 30bd 5e00 eebc 900d 983c
000003b0: a31b 853d 3a52 4dbd f3fb 7abd 5e7b c1bc
000003c0: 4237 be3c 8b38 ad3d c70b 123d 0c1d 693d
000003d0: 7b31 86bd 0f1f a5bd aaf7 803d a95d 8dbd
000003e0: 1580 0b3d 436d 54bc 98b4 47bd a7cb 0fbd
000003f0: 06b7 49bd f266 6f3d 5115 4bbd d5d3 a83c

bias f4 [128]
-0.015191704 -0.015171544 0.0090508945 -0.027999518 0.007754277 0.03966852 -0.039134216 0.10831224
0.065462835 0.07655301 -0.018220095 -0.031342454 0.07485255 0.069158085 0.017414311 0.019713098
-0.083722994 -0.021709204 -0.062752575 0.07365627 0.04481589 0.063199714 0.0641912 -0.039865393
-0.075911514 -0.013602684 -0.039469074 -0.04564691 -0.010959386 0.050139356 -0.060599465 0.0072094486
0.05704068 -0.045340806 -0.0026103156 -0.07274168 0.074882016 0.05488453 0.0916636 0.05997581
0.041517023 -0.009170136 -0.027575528 0.06911187 0.024271265 -0.039493524 0.0033231173 -0.0649421
0.01898285 0.08989148 -0.08141392 -0.0066301045 0.021594688 0.021168761 0.041116107 -0.035361677
0.04093494 0.05802804 0.02415458 -0.025066411 0.059179027 0.050965574 -0.011417786 0.09636284
-0.030271867 -0.013897785 0.009478297 0.032841276 0.047130823 -0.056187924 -0.052521564 -0.006069377
-0.03702479 0.10769693 -0.087528266 -0.026363801 -0.057577055 -0.052600592 0.028763639 -0.062242046
-0.031836916 -0.051352486 -0.02058894 -0.020676615 0.07473122 -0.046622634 0.03470772 -0.006211858
-0.05031218 -0.0008684322 0.038055412 -0.028820515 -0.021996973 -0.008025847 0.04552403 -0.04661537
0.0656749 0.06308544 -0.066352434 0.048643287 -0.033584617 -0.065113224 -0.023114735 -0.057066888
0.00790971 -0.04938324 0.07054802 -0.026240833 -0.06611481 -0.016510393 -0.054354575 -0.04175034
0.054988507 -0.038775112 -0.04780195 -0.051737536 -0.03064415 -0.025843807 0.0662228 -0.062863395
0.029417144 0.033056803 -0.03329495 0.013472934 0.042848114 0.022837725 0.053868443 -0.038127135
00000000: a0e6 78bc 1192 78bc 344a 143c 3f5f e5bc
00000010: 9717 fe3b 757b 223d 334b 20bd cfd2 dd3d
00000020: 6111 863d d3c7 9c3d 4f42 95bc f260 00bd
00000030: 4b4c 993d c1a2 8d3d 75a8 8e3c 5d7d a13c
00000040: f676 abbd 80d7 b1bc 6c84 80bd 19d9 963d
00000050: de90 373d da6e 813d ad76 833d e549 23bd
00000060: 7f77 9bbd cbdd 5ebc 53aa 21bd 41f8 3abd
00000070: ff8e 33bc ed5e 4d3d 2537 78bd 3d3d ec3b
00000080: 7da3 693d 48b7 39bd d411 2bbb 97f9 94bd
00000090: be5b 993d 9ace 603d 20ba bb3d 32a9 753d
000000a0: c10d 2a3d 573e 16bc 13e6 e1bc 868a 8d3d
000000b0: 88d4 c63c f6c3 21bd a8c8 593b 5d00 85bd
000000c0: ec81 9b3c 0619 b83d 57bc a6bd 5941 d9bb
000000d0: 58e7 b03c 1c6a ad3c 5d69 283d 68d7 10bd
000000e0: 65ab 273d cfae 6d3d d3df c53c 1358 cdbc
000000f0: b565 723d 47c1 503d aa11 3bbc e159 c53d
00000100: b5fc f7bc 89b3 63bc dc4a 1b3c 9384 063d
00000110: 400c 413d 4f25 66bd da20 57bd a0e1 c6bb
00000120: 4ea7 17bd 3590 dc3d 0542 b3bd e6f8 d7bc
00000130: ebd5 6bbd b873 57bd b9a1 eb3c 84f1 7ebd
00000140: 6d67 02bd fc56 52bd 23aa a8bc 0162 a9bc
00000150: af0c 993d 60f7 3ebd af29 0e3d d78c cbbb
00000160: 2514 4ebd 80a7 63ba fedf 1b3d 0019 ecbc
00000170: ff32 b4bc d87e 03bc 6877 3a3d c2ef 3ebd
00000180: 9080 863d f032 813d c9e3 87bd 2f3e 473d
00000190: 0690 09bd 155a 85bd 1d5b bdbc f8be 69bd
000001a0: ba97 013c 1546 4abd 7b7b 903d 04f7 d6bc
000001b0: 3467 87bd ce40 87bc e7a2 5ebd 6802 2bbd
000001c0: a13b 613d a7d2 1ebd facb 43bd bdea 53bd
000001d0: 7109 fbbc 64b6 d3bc d29f 873d 86be 80bd
000001e0: 39fc f03c 9266 073d 4960 08bd 95bd 5c3c
000001f0: 8181 2f3d 2e16 bb3c 28a5 5c3d 332b 1cbd

weight f4 [20, 128]
-0.049622063 -0.07127543 -0.034488637 0.026664685 0.066166416 0.04145874 -0.09244958 0.01473719
-0.04753856 0.11577184 -0.03632369 -0.0036193805 0.07378492 0.03918562 -0.047025453 0.0035258923
0.0036764375 -0.04677528 0.018451165 0.090160556 -0.021433273 0.0052117775 -0.019937001 -0.08577987
-0.0007509215 -0.0058963657 -0.010496883 0.03549848 -0.0034679784 -0.0650117 0.034877263 0.057748392
-0.08157756 0.025768178 -0.022280425 0.07630168 -0.029374734 -0.08572971 -0.0061933734 0.056388423
0.020023715 -0.020177068 0.054259732 0.031876497 -0.019722423 0.00029000588 -0.008464385 0.055262446
-0.008671586 0.013459391 0.08463227 0.07171155 0.06207568 -0.00902728 0.04762001 0.012933323
0.039058294 -0.0037617765 -0.073639944 0.023620777 0.06480727 0.0012898786 -0.010763533 0.033597924
-0.0102315 -0.00084046496 -0.08680681 -0.081012905 0.005161021 -0.047105107 -0.06523486 -0.0151684955
-0.04201226 -0.042882618 0.04098637 -0.08449226 -0.010578537 -0.014318236 -0.022145908 0.059199475
0.013596045 -0.06685692 0.018069452 -0.0044955057 0.02001204 -0.02494774 0.055692203 0.02305868
-0.040220894 0.035426617 0.03361107 -0.07135862 0.01996286 0.028334785 0.02024577 0.028414883
-0.07890708 0.0428386 -0.02778122 0.094218366 -0.0030337803 -0.024003351 0.029771592 0.05628665
-0.011692188 -0.06530387 -0.10462473 -0.05671301 0.062108908 0.010089131 -0.020142337 0.023789039
-0.019097542 -0.049287792 -0.02067824 0.050762013 0.06225286 -0.03104172 0.057207372 0.010098254
-0.009453385 0.05590903 0.07125392 0.093634814 -0.05930065 0.0009800651 0.0652313 -0.046746988
0.052690636 -0.037025314 -0.061234757 0.054147564 -0.0028786133 0.04569677 0.06571685 -0.01493411
-0.028031766 -0.09129166 0.008507668 0.070748106 -0.04573998 0.06027528 0.018412404 0.0055705146
0.0467661 -0.05724056 -0.040825885 -0.015147442 0.07031921 0.055577837 -0.005011884 0.008841128
0.03696546 0.050602343 -0.06313886 0.073284216 0.03358837 0.06434761 0.086306155 -0.07651883
-0.0013074528 -0.013517758 -0.052723743 0.050544146 0.09553073 0.038349308 -0.036332067 -0.052556105
0.05356676 -0.06673535 -0.077575006 0.014951449 -0.040918484 0.036722668 -0.06821579 0.012782983
-0.012728645 -0.015464094 0.041963264 0.061251905 0.07690196 0.077320606 0.028155847 0.053512663
-0.02157701 0.0046237255 0.025259662 -0.012222828 -0.07517873 -0.019816102 -0.0060721347 -0.01693762
-0.025304936 -0.051957082 0.0036671474 -0.07136898 -0.044297982 0.03245998 0.06939639 -0.042951714
-0.05185304 -0.012344914 -0.0788208 -0.058222905 -0.006256452 0.060073245 -0.07490587 0.010176274
-0.031136923 -0.027001765 -0.052898772 -0.06584819 0.07989106 0.056146484 0.052689068 0.033807814
0.043676257 -0.066282 -0.026639465 0.016341373 0.068087235 0.0042791488 0.035090875 -0.04633226
0.043216024 -0.05624592 -0.044776544 -0.095446825 -0.027718958 -0.018746624 -0.05007443 0.0477414
-0.044062287 -0.06164759 0.0012653333 -0.097791635 -0.05808336 -0.0086221 0.0067221993 0.019359328
0.020340972 -0.05668332 -0.06669095 0.014135822 -0.030271078 0.03705121 0.024166716 0.040296312
0.09007998 -0.072962984 0.08246352 -0.019082125 0.063122146 0.05195843 0.019430231 0.04952335
00000000: 8140 4bbd daf8 91bd f543 0dbd e66f da3c
00000010: 4282 873d a4d0 293d 3556 bdbd 4174 713c
00000020: cbb7 42bd c919 ed3d 26c8 14bd 2133 6dbb
00000030: 8c1c 973d 1a81 203d c39d 40bd a812 673b
00000040: 63f0 703b 7097 3fbd e626 973c 19a6 b83d
00000050: d594 afbc 8fc7 aa3b ec52 a3bc 5bad afbd
00000060: 7dd9 44ba 4d36 c1bb 1efb 2bbc db66 113d
00000070: 0647 63bb db24 85bd 76db 0e3d 9489 6c3d
00000080: 2312 a7bd c917 d33c 7085 b6bc 0e44 9c3d
00000090: 48a3 f0bc 0f93 afbd c8f1 cabb 8cf7 663d
000000a0: c608 a43c 614a a5bc 743f 5e3d ee90 023d
000000b0: eb90 a1bc ee0b 9839 34ae 0abc e05a 623d
000000c0: 4513 0ebc c784 5c3c af53 ad3d 81dd 923d
000000d0: 1143 7e3d 28e7 13bc 330d 433d 4ae6 533c
000000e0: 97fb 1f3d 2388 76bb 8ad0 96bd 5c80 c13c
000000f0: adb9 843d 2511 a93a 8859 30bc fa9d 093d
00000100: 05a2 27bc a652 5cba c5c7 b1bd 18ea a5bd
00000110: c81d a93b 49f1 40bd db99 85bd 4885 78bc
00000120: 0c15 2cbd afa5 2fbd 53e1 273d 470a adbd
00000130: 9a51 2dbc 0997 6abc 566b b5bc 267b 723d
00000140: f2c1 5e3c 48ec 88bd 6306 943c 094f 93bb
00000150: 4af0 a33c 345f ccbc 821d 643d 8fe5 bc3c
00000160: aabe 24bd 801b 113d c3ab 093d 7824 92bd
00000170: 2789 a33c 5a1e e83c 75da a53c 54c6 e83c
00000180: 099a a1bd 8777 2f3d 7195 e3bc 8ff5 c03d
00000190: 63d2 46bb ada2 c4bc 8ee3 f33c d58c 663d
000001a0: 9790 3fbc 09be 85bd 7e45 d6bd e74b 68bd
000001b0: e965 7e3d e24c 253c 8b01 a5bc 3be1 c23c
000001c0: 7372 9cbc ffe1 49bd 6a65 a9bc d4eb 4f3d
000001d0: dbfc 7e3d 354b febc 4752 6a3d 2673 253c
000001e0: 5fe2 1abc de00 653d 93ed 913d 9cc3 bf3d
000001f0: 3de5 72bd 8775 803a fd97 853d c579 3fbd
00000200: 23d2 573d dba7 17bd 4cd1 7abd d6c9 5d3d
00000210: 1ea7 3cbb 892c 3b3d 8e96 863d 33ae 74bc
00000220: e0a2 e5bc 1ff7 babd bf63 0b3c 62e4 903d
00000230: d859 3bbd 36e3 763d 9cd5 963c dd88 b63b
00000240: cf8d 3f3d 1475 6abd 0b39 27bd fa2c 78bc
00000250: 8503 903d 96a5 633d bb3a a4bb 61da 103c
00000260: 1869 173d 6744 4f3d f24e 81bd 0916 963d
00000270: f593 093d aec8 833d 48c1 b03d e8b5 9cbd
00000280: d65e abba 9679 5dbc daf4 57bd 6107 4f3d
00000290: 9ea5 c33d 2a14 1d3d efd0 14bd 1245 57bd
000002a0: d268 5b3d 8bac 88bd a5df 9ebd ecf6 743c
000002b0: 249a 27bd 826a 163d b8b4 8bbd b76f 513c
000002c0: ce8b 50bc 1c5d 7dbc ace1 2b3d 47e3 7a3d
000002d0: c67e 9d3d 445a 9e3d 17a7 e63c 1830 5b3d
000002e0: 45c2 b0bc 9f82 973b 5aed ce3c 4242 48bc
000002f0: 4ef7 99bd 6155 a2bc c2f8 c6bb c3c0 8abc
00000300: 4c4c cfbc f3d0 54bd 8654 703b e629 92bd
00000310: cd71 35bd c2f4 043d b21f 8e3d 23ee 2fbd
00000320: da63 54bd 5242 4abc cd6c a1bd 247b 6ebd
00000330: ec02 cdbb 5d0f 763d 4068 99bd 63ba 263c
00000340: dc12 ffbc ce32 ddbc 62ac 58bd 6adb 86bd
00000350: ed9d a33d dbf9 653d 7ed0 573d 107a 0a3d
00000360: e0e5 323d dbbe 87bd 023b dabc 58de 853c
00000370: 5271 8b3d 1a38 8c3b 73bb 0f3d e5c6 3dbd
00000380: 4903 313d 1f62 66bd 9c67 37bd a079 c3bd
00000390: de12 e3bc 8592 99bc d81a 4dbd 7c8c 433d
000003a0: a87a 34bd 2f82 7cbd 8ad9 a53a fb46 c8bd
000003b0: d1e8 6dbd b543 0dbc e545 dc3b 7497 9e3c
000003c0: 1ca2 a63c c52c 68bd 4495 88bd ef99 673c
000003d0: 0dfb f7bc 02c3 173d 47f9 c53c bf0d 253d
000003e0: da7b b83d 9e6d 95bd a2e2 a83d 1e52 9cbc
000003f0: 2f46 813d 5dd2 543d 262c 9f3c ffd8 4a3d

bias f4 [20]
-0.059550107 0.0053831646 0.05395924 0.00021141548 -0.05557727 0.060747195 -0.046559468 -0.05351095
0.05507533 -0.00094473193 -0.0679177 0.02182444 0.04723834 0.028861148 0.027899858 -0.013706732
0.011161007 0.046203587 0.024137242 -0.05497009
00000000: d0ea 73bd 4265 b03b 5d04 5d3d 69af 5d39
00000010: fea4 63bd 0dd2 783d 24b5 3ebd 4c2e 5bbd
00000020: ab96 613d e3a7 77ba 6f18 8bbd 2bc9 b23c
00000030: fd7c 413d 376e ec3c 3e8e e43c 3392 60bc
00000040: a8dc 363c f93f 3d3d 77bb c53c 5128 61bd
