abalone/abalone_sampling_fastSHAP.pt (torch, 86759 bytes, 6 tensors)

weight f4 [128, 12]
000000 ba 04 00 3e 73 9d a2 bd fd 39 4a bd 52 54 6d be
       0.12501803 -0.07940187 -0.04937171 -0.23176697
000010 50 78 42 3d 0e 2e 8d bc ce 36 1f 3d 79 95 fb 3d
       0.04747802 -0.017233875 0.038870625 0.12284369
000020 f0 3b c4 3d b3 85 39 be 44 69 ac be 75 80 0e 3e
       0.09581745 -0.18117408 -0.3367406 0.1391619
000030 ed 56 4c be 29 9d 97 bc 36 ca e5 3c 98 0f 1a 3e
       -0.19955035 -0.018507557 0.028050523 0.15045011
000040 a9 6c 6f 3e 9a 1f 21 3d 51 27 37 3e a4 fc e5 3d
       0.23381294 0.03933678 0.17886092 0.11229828
000050 2c 8a 72 bd 99 ec 37 be 0b 9a 97 3e da f3 30 be
       -0.059213802 -0.17961349 0.29609713 -0.17280522
000060 22 94 58 3e 8b 27 a6 3e 1e 10 c0 bd 5a 14 aa bd
       0.21150258 0.32452044 -0.09378074 -0.08304663
000070 ba 29 6f 3e 04 93 09 be 8c e5 d5 3d fe f8 ee bd
       0.23355761 -0.13434988 0.10444173 -0.11668585
000080 05 93 da 3d a6 b4 4b 3d 18 6e b2 be e8 02 9a 3e
       0.10672573 0.049732827 -0.3484962 0.30080342
000090 58 3a 08 3e 74 81 06 3e c6 65 90 3d dd cf 21 be
       0.13303506 0.1313532 0.07050662 -0.1580195
0000a0 06 30 2f 3e b0 d6 12 be 61 e2 a9 3c f0 8e d9 bd
       0.17108163 -0.1433971 0.020737829 -0.10622966
0000b0 69 1f 9a 3c 36 99 a2 3d ba 65 0a bd 53 90 63 bd
       0.018813806 0.07939379 -0.03378842 -0.05555756
0000c0 82 95 2e be 62 12 5b 3e aa 57 31 be 8b 99 3c 3e
       -0.1704922 0.21393731 -0.17318597 0.18417947
0000d0 e2 bc 4f 3d 7a 0a a6 be 78 fc 80 3e 13 7d dd 3d
       0.050717242 -0.32429868 0.25192618 0.10814872
0000e0 ff ed 50 be ac 48 6c bc bd de 46 3e 52 22 07 be
       -0.20403288 -0.014421623 0.19420905 -0.13196686
0000f0 21 f5 e7 3d c3 37 02 3c 62 61 bc 3b 6b 3c ea bc
       0.113260515 0.007947865 0.0057489136 -0.028593263
000100 b2 a8 32 3e c8 8a 1e bc a9 de 65 3e fc 62 4c be
       0.17447165 -0.009676643 0.2244822 -0.19959635
000110 ea 7c 33 be 61 84 63 3d f0 52 f8 3d ab 28 4f be
       -0.1752812 0.05554617 0.12125194 -0.20230357
000120 bf 34 17 3d 53 5c 13 be 98 32 fd bd 19 f0 83 3e
       0.036915537 -0.14390688 -0.123631656 0.25769117
000130 d7 1d 17 bd a1 72 ac bc 56 99 18 3e cc a5 3d 3e
       -0.036893692 -0.021050753 0.14902243 0.18520278
000140 ed 52 7f 3e 2f 4f 6b 3e c7 a3 65 3e 78 5b ae be
       0.24933977 0.22979425 0.22425757 -0.3405416
000150 00 8f a9 be c4 7e bb 3d e0 5c 9f bb c6 32 f2 bd
       -0.33116913 0.09155038 -0.0048633665 -0.118260905
000160 74 0d 80 3c 9d 9d c4 3d f5 0a 7d be f0 87 51 be
       0.015631415 0.09600375 -0.24711211 -0.20462012
000170 14 1e 26 3e 1f 46 21 be ad db 27 bc ca f5 b3 3d
       0.16222411 -0.15749405 -0.010245246 0.08787115
000180 db e8 a4 bb ee 9c 23 3e 01 5c 2f 3d a3 9c 43 bd
       -0.0050326413 0.15977833 0.04281235 -0.047756802
000190 ff 90 12 3d 71 57 8a 3d 31 b5 62 be 58 be c8 3c
       0.03578281 0.067549594 -0.22139432 0.024504825
0001a0 22 de bf 3d 6d 43 7b 3e 98 df 46 3e cb d2 03 be
       0.0936854 0.2453744 0.19421232 -0.1287338
0001b0 da cd 3f be 92 09 a0 3e 77 05 b6 bc fb 45 6d 3d
       -0.1873087 0.31257302 -0.022219403 0.057928067
0001c0 b2 fe b2 be 73 a8 79 3d ab d9 c2 3c dd b6 59 3e
       -0.34959942 0.06095166 0.023785433 0.21261163
0001d0 02 a0 d7 bd 62 ee 17 3d cf 34 97 be 1a 27 8b be
       -0.10528566 0.037092574 -0.29532477 -0.2717827
0001e0 cc 8f 2a 3e 6c fe dc 3d 1b f1 59 3d f1 f7 b5 bd
       0.16656417 0.107907146 0.05320845 -0.08885182
0001f0 a0 94 42 3d c7 65 8c bd 2f 3d e0 be b4 68 a1 3d
       0.04750502 -0.0685535 -0.4379668 0.07881299
000200 43 78 cd 3d c8 0b c2 bc 0d ae 25 3e f1 4e 07 3d
       0.10032704 -0.023687258 0.16179676 0.03303427
000210 bf 2d 04 be a4 5a 36 be 74 3d 2e bd 8d 4c 6e be
       -0.12908076 -0.17808014 -0.042539075 -0.2327139
000220 35 d4 68 be dd a0 1f be 8e 67 b9 3c fa fd 30 3e
       -0.227372 -0.15588708 0.022632387 0.17284384
000230 40 ab 00 3e a0 3c d1 3d 60 66 6a 3e 67 cf c0 3d
       0.12565327 0.102166414 0.22890615 0.09414559
000240 f2 99 54 bb a6 ad 4a be 48 86 19 3e 9f e2 14 be
       -0.0032440391 -0.19792804 0.1499263 -0.14539574
000250 f5 ca 05 be c7 b8 bf bd 6a 40 c3 bd b5 3c 41 3e
       -0.13065703 -0.09361415 -0.095337704 0.18870814
000260 a9 40 39 3e 70 d2 e4 bd 5f 9f f9 bd 03 98 7a be
       0.18091072 -0.1117295 -0.12188601 -0.2447205
000270 05 b5 6b be 09 e4 5d 3e 31 a8 43 3c f6 4a 13 be
       -0.23018272 0.2166902 0.011941955 -0.14384064
000280 1f 12 85 3e ec 90 9e 3d 0b df b4 3d 85 b9 2d bc
       0.25990388 0.077424854 0.088316046 -0.010603313
000290 00 30 da 3d 72 8f 2a 3e be 82 48 bd 96 96 30 3e
       0.106536865 0.16656283 -0.04895281 0.17244944
0002a0 a2 d7 b4 bd d0 c8 0b bd 5f 71 1a 3e c3 1e 05 3e
       -0.08830191 -0.034127057 0.1508231 0.13000016
0002b0 da c8 35 be e4 ae 7b 3d 2e 2d 6e be 61 6f 4b 3d
       -0.177524 0.061446086 -0.23259422 0.049666766
0002c0 07 9a c5 bd b8 9a ec bd c6 0c 68 be be 20 05 3d
       -0.09648519 -0.11552948 -0.22661123 0.03250193
0002d0 f0 22 27 3b 5f 0b d3 3c d3 9e e8 3c b9 55 b4 3d
       0.0025503002 0.025762258 0.028396046 0.08805413
0002e0 93 3f 41 3e b2 cf 91 be 17 b0 7f 3c a6 75 aa 3d
       0.18871908 -0.2847877 0.015605948 0.08323221
0002f0 8b 03 89 3e eb a9 96 3e ad c2 a8 bd bf fe d3 bd
       0.26760516 0.29426512 -0.082402565 -0.10351323
000300 81 b2 c3 bc e8 f8 5e 3e cf 67 b5 3b af 77 a6 be
       -0.023888828 0.21774638 0.0055360566 -0.32513186
000310 6d e7 19 bf 72 92 6a 3d 9b 44 49 3e 76 ff 5e 3e
       -0.6011875 0.057268567 0.19655077 0.21777138
000320 11 c6 56 3e a1 ff 14 be 01 6b 17 3d e0 bb 6f 3d
       0.20973994 -0.1455064 0.03696728 0.05852878
000330 b0 26 d7 bd ca 0b c2 bd ed 2a 30 3d cf 9e 88 3e
       -0.10505426 -0.09474905 0.043009687 0.2668366
000340 29 88 9b 3b 6d 13 36 3e a7 90 60 3c 81 a2 20 be
       0.004746456 0.17780848 0.013706363 -0.1568699
000350 e8 11 b8 ba a5 07 1c 3e 53 1a 6d 3d e6 a3 e6 bd
       -0.0014043422 0.15237291 0.057886433 -0.1126173
000360 0e da 3a be ea 0c 9d be 8f 27 3d be bd 96 92 3d
       -0.18247244 -0.30673915 -0.18472122 0.07157657
000370 4e 3c 52 bd ae 07 a1 3d ed 05 c6 3d 73 f1 b4 3d
       -0.051327042 0.07862793 0.09669099 0.08835115
000380 0f 4e 36 be c0 37 b0 bd 1b 74 2d 3e 65 4e 9e be
       -0.17803214 -0.086043835 0.16938822 -0.30919185
000390 cb 62 86 be 91 12 b9 be f1 6d 7b 3d a3 ee 1b 3d
       -0.26247248 -0.36146978 0.061384145 0.03806938
0003a0 38 49 e4 3d 77 9d d7 3c e1 b3 d5 3e c0 c1 3f 3e
       0.11146778 0.026320202 0.417388 0.18726254
0003b0 e7 d5 33 3e 8c 57 42 3e 64 08 22 be c9 a6 df bd
       0.17562066 0.18978709 -0.15823513 -0.109204836
0003c0 fd a2 24 3e 0f 13 99 3d b0 a2 73 3d 3f 88 1a bc
       0.160778 0.07474338 0.059481323 -0.009431898
0003d0 4d 4f 6a be 4d ff 86 be 04 f6 23 bd 42 ae d0 bb
       -0.22881813 -0.26366654 -0.04002954 -0.0063684294
0003e0 47 21 65 3e 89 35 e2 bd 0a c0 6a bd 58 fe 99 be
       0.22375976 -0.11045367 -0.05731205 -0.3007686
0003f0 dc ce 00 3e 4e 36 4a 3e 56 5a 5b be 1b 24 44 3e
       0.1257891 0.19747278 -0.21421179 0.19154398

bias f4 [128]
000000 e9 03 f4 3d b5 0b 5b be 5f 2f 87 bd 28 7e 7b bd
       0.11914808 -0.21391185 -0.06600832 -0.06139961
000010 9d ff 4f bd bb 55 25 be 91 e6 e6 3d c0 c8 61 be
       -0.05078088 -0.16145985 0.11274446 -0.22049236
000020 02 11 8b be cc 86 25 bd ff 28 d4 3d bc 3c 7a 3e
       -0.27161413 -0.040411755 0.10359382 0.24437231
000030 7f fd 54 3d 34 4b 6a 3e 25 bf 4f 3e 10 f9 f6 b9
       0.051999565 0.2288025 0.2028776 -0.00047106342
000040 c6 6b 54 be a9 e8 f6 3c e2 89 ce 3d b6 49 a6 3c
       -0.20744237 0.030140238 0.10084893 0.02029882
000050 2f 8c 93 be 41 4d 42 3e dc 1d 5f 3e 20 20 a0 bd
       -0.2881789 0.18974783 0.21788734 -0.07818627
000060 eb a5 e4 3d 4c 3d 48 3d 84 64 30 3e 73 bd 73 be
       0.11164459 0.048886582 0.17225844 -0.23802738
000070 ac d2 85 be 12 0a f3 3d 72 df a2 be 1a 63 14 bd
       -0.26137292 0.11867155 -0.318111 -0.036227323
000080 3c c1 89 be e4 1e 14 3e c8 f8 46 be c8 fd e2 bd
       -0.2690524 0.14464909 -0.1943084 -0.11083561
000090 58 91 46 be 96 93 b5 3c 07 87 2a 3e fb f7 ca bc
       -0.19391382 0.022165101 0.16653071 -0.02477645
0000a0 a6 90 0d be e5 ab 6f be 44 1e b5 bd 16 20 31 3e
       -0.1382471 -0.23405416 -0.08843663 0.17297396
0000b0 cf c2 0a 3e ac 95 32 3e 23 2d 10 bd 90 ca 48 3c
       0.13550876 0.17439908 -0.035199296 0.012255326
0000c0 88 74 d2 3d af 73 7e be 03 22 16 be 59 ea bd bd
       0.10276133 -0.24848817 -0.14661412 -0.09273214
0000d0 df 66 da 3d 40 a7 e1 3d 55 90 3a be c4 71 3b 3e
       0.10664152 0.110182285 -0.18219121 0.18305117
0000e0 99 dd 7b be a4 11 9e be 47 c4 13 3e 19 78 0f be
       -0.24596252 -0.30872834 0.14430343 -0.14010657
0000f0 9b 10 c3 3d 9e 60 b0 bd 2e 94 56 3e 56 0e 73 be
       0.095246516 -0.08612178 0.20954964 -0.23735937
000100 05 29 fc 3d 61 e3 54 be 0b e5 47 3e 52 11 01 3e
       0.12312511 -0.20789863 0.19520967 0.12604263
000110 b3 ba 14 3d d0 48 44 3d 95 9e bb be 71 e0 89 3e
       0.036310863 0.047921002 -0.36644426 0.26929048
000120 a4 40 29 3e 0a 96 b0 bd 3f df 22 bd 8a 88 79 be
       0.16528565 -0.08622368 -0.039763685 -0.24368492
000130 8d cb 8d 3a 54 4a b1 bd c3 75 80 be bd 51 fe 3d
       0.0010818109 -0.08656755 -0.25089845 0.12417934
000140 a2 7b b3 bc 10 21 de bd c9 56 66 be a0 4d 32 bc
       -0.021909539 -0.1084615 -0.22494043 -0.010882765
000150 56 4f e6 3d 61 b9 70 3e 93 a6 40 3e 85 5b ac bd
       0.11245601 0.23508216 0.18813543 -0.084158935
000160 17 b1 01 be a9 bd de bd 3e fb 12 be 1a b6 43 3e
       -0.1266521 -0.108760186 -0.14353654 0.19112435
000170 2a f0 0c bd e4 96 a8 bd b8 87 8c bc be 0d 8f 3e
       -0.034408726 -0.08231905 -0.01715456 0.27940172
000180 12 83 c4 3c 45 e7 09 be 9a 70 ce bc 88 97 7c be
       0.02398828 -0.13467129 -0.025200177 -0.2466718
000190 48 de 03 3d be 54 0e 3e 1a 12 f4 bd fd 2c 15 be
       0.032194406 0.13899514 -0.11917515 -0.14567943
0001a0 cc ca b1 be 43 6b 0b 3e eb a7 83 be e0 53 6a 3e
       -0.34725034 0.13615136 -0.2571405 0.22883558
0001b0 0a 1f 9d bd ea 0c 1a be 86 bf 14 3e 76 69 2f be
       -0.07671936 -0.15043989 0.14526185 -0.17130074
0001c0 47 e6 1e 3e aa 64 27 bd 43 e0 94 be aa 50 4b be
       0.15517531 -0.040867485 -0.29077348 -0.1985499
0001d0 be 51 3f 3e 6e 0f 7d 3e 97 34 58 bd 35 84 1b be
       0.18683526 0.24712917 -0.05278453 -0.15187152
0001e0 b7 64 76 3e 45 75 53 3e f3 5f 2f 3e 3c 1c 3a 3e
       0.24061857 0.20650204 0.17126445 0.18174833
0001f0 d4 c9 5c 3d 4c c9 74 3c 9d c4 91 3d 2b 75 9c 3d
       0.053903416 0.014940571 0.07117579 0.076395355

weight f4 [128, 128]
000000 e6 8f 28 bd fa ad 7e 3c ef 8d 7a 3c f3 66 e4 3c
       -0.041152857 0.015544409 0.015292629 0.027881121
000010 e8 b6 ba bd 70 99 aa bd cc d4 58 bc 76 03 ba bd
       -0.09116918 -0.08330047 -0.0132343285 -0.09082691
000020 f2 33 8d bc 93 4c db 3d 0a 42 96 3d 3c 05 68 3d
       -0.017236684 0.10707965 0.07336815 0.056645617
000030 61 1e f7 3d 51 74 1a be 81 bf 20 bd f1 2c 80 3d
       0.12066341 -0.15083434 -0.039245132 0.06258572
000040 92 7d 02 bc 59 43 dc bd 56 00 33 3d 69 2b b1 3b
       -0.007964509 -0.10755033 0.043701492 0.005406786
000050 18 c6 a4 39 74 8a c4 bd 62 8a 4d 3b e5 47 53 bc
       0.0003142811 -0.0959672 0.0031363 -0.012895559
000060 f6 80 a6 3c d2 ef 00 be b2 bb 9a bb a7 18 16 3c
       0.020325165 -0.12591484 -0.004722082 0.009161151
000070 38 ff 5d 3d a7 2f b2 bd c8 6c e9 3d 82 6f 2c 3c
       0.054198474 -0.08700495 0.113977015 0.010524632
000080 09 d7 e9 3c 76 4f 23 bc f1 f8 ec 3c 04 65 ad 3d
       0.02854492 -0.009967675 0.028927298 0.08466533
000090 21 16 81 3d 87 e1 72 3d a3 ff 02 be a0 35 40 bd
       0.06303049 0.05929711 -0.1279283 -0.04692614
0000a0 27 06 a9 bc 29 ba 00 3b c4 cb 46 3c d7 dd 2d bd
       -0.020632816 0.001964221 0.012133542 -0.04244789
0000b0 cd 11 e6 bd 32 c4 cc 3d 3d 9a f2 bd fd d4 76 be
       -0.11233864 0.09998359 -0.11845825 -0.24104686
0000c0 8b dd 5b bd de 50 a1 3c b1 17 30 3d 6b d8 6f bc
       -0.053678077 0.01969188 0.042991344 -0.014639
0000d0 2a b5 32 3d b0 2f d3 3d a1 e3 59 bd 97 34 81 3d
       0.043629803 0.1031183 -0.0531956 0.06308859
0000e0 e3 f7 26 bd e3 19 11 be d6 28 02 be 20 e4 33 be
       -0.040763747 -0.14170031 -0.1271089 -0.17567492
0000f0 68 28 ea bd eb 64 b8 3c f2 cf 86 bc de 10 ff 3c
       -0.11433488 0.022509059 -0.016456578 0.031135973
000100 a5 1b a6 3c 06 20 71 bc 43 59 e5 bd 06 e9 44 bd
       0.020276854 -0.014717108 -0.11198666 -0.04807379
000110 c5 8b 27 bd 17 01 fd 3d f9 b3 75 bc 94 68 2a be
       -0.04090478 0.123537235 -0.014996522 -0.16641456
000120 a7 cb cc 3c 05 a2 83 3d 26 69 6b 3a 8d 18 17 3d
       0.024999453 0.06427387 0.0008980207 0.036888648
000130 60 c0 22 3c 80 76 00 be 6f 11 b6 bd 80 16 62 3d
       0.009933561 -0.12545204 -0.08890044 0.05519724
000140 8a 17 21 3c d2 64 d0 3d 59 21 8b 3c 0d 17 0e 3d
       0.009832272 0.1017548 0.016983675 0.03468995
000150 91 cd 8e bd 82 de 51 bd 23 6e d3 3d 35 8c 20 be
       -0.069728024 -0.05123759 0.10323741 -0.15678485
000160 7c 72 96 3d b7 3c 88 3d 47 bd af 3c 8f 2b 6f bd
       0.07346055 0.066522054 0.02145256 -0.05839115
000170 be 4b 8c 3d a6 c5 72 3d 69 79 db bd be a4 6e bd
       0.06850384 0.059270523 -0.107165165 -0.05826258
000180 28 e9 0b be d3 10 d4 bd df d9 e8 bd 53 c7 35 be
       -0.13663161 -0.103547715 -0.113696806 -0.17751817
000190 80 cf 40 3d 9d 9f 9e 3d c1 3c 6f be d9 71 1f be
       0.047072887 0.077452876 -0.2336302 -0.15570773
0001a0 2a 85 68 bb 9b 7b 94 3c e9 b3 4d 3d 9e ce 37 be
       -0.0035479763 0.018125346 0.050220404 -0.17949912
0001b0 4a 5a 3e bc 48 b4 a1 bc 81 08 cc bd e4 7c 7c 3d
       -0.011618206 -0.019739285 -0.099625595 0.061642542
0001c0 2d fb fa bc 63 17 96 3d 3a 00 a2 3d e0 ad d1 bd
       -0.030637348 0.073286794 0.079101995 -0.10238242
0001d0 47 00 a7 3c 8e ca 8a bd 6c 08 09 be aa 82 d2 bc
       0.020385874 -0.067769155 -0.13382119 -0.025697071
0001e0 da 76 d1 bd 1b 70 25 3e 73 ae 95 3d 0f c2 ad 3d
       -0.10227747 0.16156046 0.07308664 0.08484279
0001f0 23 d0 19 3e 1e 1c ce 3d 6c 13 8e bd 02 54 ab bd
       0.15020804 0.10063957 -0.06937298 -0.083656326
000200 27 9d a4 bd a3 85 1d bd f3 c9 93 bd f2 6f 8b bd
       -0.08037787 -0.038457524 -0.07216253 -0.06808461
000210 b2 a7 9e bc 85 ec d3 bd 43 2a cb 3b c7 1c 8f bd
       -0.019367073 -0.10347847 0.0062001063 -0.06987911
000220 3b 9b 54 3c e6 7d 15 3d b5 93 29 3d 8b 0c ef 3c
       0.012976463 0.03649702 0.04140063 0.029180786
000230 d0 81 3f 3c 34 2d 90 3c 9b 34 4c b9 0e b8 d6 bb
       0.011688665 0.01759968 -0.00019474553 -0.0065527027
000240 2c 2d 81 bc a9 e1 5c bd c0 35 7e 3d 93 5f 03 3d
       -0.01576861 -0.053926144 0.06206298 0.03207357
000250 b9 02 9b 3d 34 10 8a bd d7 2a c8 bc ed 7e 0c 3d
       0.07568879 -0.06741372 -0.02443449 0.034300733
000260 f0 21 cc 3c bf f2 d6 bc 1d 1d cd bb ad 51 8e bd
       0.024918526 -0.026238797 -0.006259574 -0.06949172
000270 a7 af 2b 3c 6d b7 8c bd 1b f3 9e 3c bf 93 9b bd
       0.0104788905 -0.06870923 0.019403031 -0.0759654
000280 ae bc 4f 3c d7 0d fe bc ed 45 48 bd 20 41 3f bd
       0.012679262 -0.031012459 -0.04889481 -0.046692967
000290 aa 6d 66 bc ce bf d0 bc dc 8b 55 bd e6 a5 50 3d
       -0.014064232 -0.025482085 -0.052135333 0.050939463
0002a0 c2 d3 58 ba 4b c5 d4 3c 47 ad 7d bc f7 86 54 bd
       -0.00082713005 0.025972983 -0.015483207 -0.051886525
0002b0 60 eb 16 3d 76 7f 46 3c 36 dd 88 3c db 42 6f 3c
       0.036845565 0.01211535 0.016707044 0.014603342
0002c0 da 78 bb bb 07 81 18 bd d1 48 70 bd db 3e 99 bd
       -0.0057211937 -0.037232425 -0.058663193 -0.07482692
0002d0 27 62 25 bd c8 f1 0c bc 58 0a 61 bd e6 cb 6a 3d
       -0.04037681 -0.008602567 -0.054941505 0.05732336
0002e0 7d 9c f9 39 b3 07 89 bd d7 ea 85 3d 44 fe b8 3c
       0.00047609574 -0.06690922 0.06538933 0.02258218
0002f0 72 53 21 3d 7a db aa 3c 77 09 04 bd ce ba 3c 3d
       0.03938622 0.020856608 -0.03223559 0.04607659
000300 f3 2f b7 39 a8 9e 18 bd 04 d0 23 bc ca 05 52 3d
       0.00034940205 -0.03726068 -0.009998325 0.051275052
000310 fa 3b 1a bd 31 43 93 3d db bb 8a 3d 4f c8 67 b8
       -0.037654854 0.0719055 0.06774112 -5.5261244e-05
000320 35 1e c6 3c 63 63 50 3b ee 9b c5 3c 89 e3 92 bd
       0.024184326 0.003179752 0.024122205 -0.07172305
000330 a8 f5 89 bd 6d a4 0c 3d d4 cf f8 3c 7d b5 31 3c
       -0.06736308 0.034336496 0.030372538 0.010846493
000340 ea 38 5b bd 35 bf 13 3d 9c 9e 6f bd 2f 16 0e 3c
       -0.053521074 0.03607102 -0.05850087 0.008672281
000350 a9 28 a3 bd f9 1b a7 bd 0d dd 93 bc 46 a0 b3 bd
       -0.0796674 -0.08159632 -0.018049741 -0.08770804
000360 78 50 54 bd 54 1a 13 bc fc 12 11 bd 48 f8 9d 3c
       -0.051834553 -0.008978445 -0.035418496 0.019283429
000370 71 b0 40 3d ff 33 f0 bc 5c 94 25 bd f1 63 d6 bd
       0.047043268 -0.029321669 -0.04042469 -0.10468281
000380 3a c3 68 3d e2 d7 4e bd 8b 8c 94 bd 85 3b 18 3d
       0.056826808 -0.05049885 -0.07253369 0.037166137
000390 df 8c 63 3d 37 f6 74 3a 41 10 f7 b7 bf fb 67 bd
       0.055554267 0.000934455 -2.9452263e-05 -0.05663657
0003a0 fb df 87 bc 93 21 5f bd 5e 31 7e bd d0 2d 18 bd
       -0.016586294 -0.05447538 -0.0620588 -0.037153065
0003b0 b0 7f 98 bd 82 43 bf 3d a3 03 44 3d a3 ad 70 bd
       -0.074462295 0.09339048 0.04785503 -0.058759343
0003c0 d3 7e 9f 3c a4 a8 cf bd d4 42 9d 3c 5f 18 b9 bd
       0.019469654 -0.101395875 0.019196905 -0.090378515
0003d0 27 8b be bc 90 ab bd 3b ad 00 9f bd fe 13 68 3d
       -0.023259712 0.005788274 -0.07763801 0.05665969
0003e0 ef 23 71 bd 45 7b 85 bd 98 cf c1 bd 51 9b 88 bc
       -0.05887216 -0.065176524 -0.094634235 -0.016675623
0003f0 7f 72 a8 bd 85 2a 85 bd 5c ef 30 bc 6c 01 b4 bb
       -0.082249634 -0.065022506 -0.010799255 -0.0054933336

bias f4 [128]
000000 e9 d7 74 ba ce ca 2d bc b0 cd 82 bb fa 1e d8 3c
       -0.00093400344 -0.010607434 -0.003991805 0.026381958
000010 03 d3 98 b9 e5 21 22 3c 47 b9 b1 bd aa d8 05 bc
       -0.00029148915 0.009895776 -0.08677917 -0.0081693325
000020 ff 93 33 bd 4f 6d a8 3d cc e3 11 3d eb e4 a2 bc
       -0.043842312 0.08223974 0.035617635 -0.019884547
000030 ba 32 e1 3c 1d b3 10 3d 59 8d f6 bc 81 31 08 bd
       0.027490009 0.035327066 -0.030096697 -0.033250336
000040 19 75 f1 bc 5f 0e 35 bd d1 12 d7 3c b4 78 47 3d
       -0.029474782 -0.04420316 0.02625409 0.048699096
000050 4f aa 9d 3d ed e4 ba 3c 3d bf e8 3b 85 9e dd 3b
       0.076984994 0.022814238 0.0071028755 0.0067632818
000060 2c 10 04 3a 2d 47 54 bd 46 cc c7 3b 77 ad ab bd
       0.000503781 -0.05182569 0.0060973493 -0.08382695
000070 9b eb 59 bd 10 72 96 bd ba 27 fd 3c 03 d1 ff ba
       -0.053203207 -0.073459744 0.030902732 -0.0019517246
000080 f4 e0 13 bd 6d 3e 28 3d 67 f7 f0 bb f4 7f 34 3d
       -0.036103204 0.04107516 -0.0073537114 0.044067338
000090 8d fc b5 3d 06 0a 26 3d cb 49 ed bc ab 56 b3 bd
       0.08886061 0.040536903 -0.028965851 -0.08756765
0000a0 20 05 43 bd 2e 09 40 3d 36 7d fa 3c dc 2c ae 3c
       -0.04761231 0.046883754 0.030577283 0.021261625
0000b0 54 8f 2c bd b6 6c 6e bd ad 20 e9 bc c7 cd 00 3d
       -0.042128876 -0.058209144 -0.028457964 0.031446245
0000c0 70 e2 98 3d bf 54 a0 bd da e4 ae bd b8 40 38 bc
       0.074650645 -0.07828664 -0.08539744 -0.011245899
0000d0 2f 29 59 bb 09 3e 5c 3d e1 4b 9a bd fb 9e 0b bd
       -0.003313612 0.0537701 -0.07534004 -0.034087162
0000e0 0e c8 46 bd ad c1 3e bc c3 4b db bd 76 72 93 bd
       -0.04853063 -0.011642856 -0.1070781 -0.07199566
0000f0 d0 fa 55 bc f8 e7 b6 3c f5 ff ae 3c 5b 68 f5 bc
       -0.013060287 0.022327408 0.021362284 -0.029956987
000100 f1 c7 4d 3d d4 1f 22 bc 70 21 33 bd 13 45 8b 3d
       0.050239507 -0.009895284 -0.04373306 0.06800284
000110 92 c2 a0 bd be 37 dd bd 8a 69 42 bd e5 37 5d 3b
       -0.07849611 -0.108016476 -0.04746393 0.003375524
000120 2a 21 62 bc 63 91 51 bd df 74 f3 bd fa 4d 8a bd
       -0.013801852 -0.051164042 -0.11887526 -0.06753154
000130 ae a0 09 bd 19 2d 29 bd ad de 43 bd 41 12 35 3d
       -0.0336005 -0.041302774 -0.047819782 0.04420686
000140 dd 2b 7f 3d 8e 75 2b bb 83 cc fe 3a 75 42 a0 bd
       0.06229769 -0.0026162597 0.0019439611 -0.07825176
000150 69 ad fa 3c 22 5a 87 bc 8d ed 8f 3c f8 37 53 bc
       0.030600267 -0.01652247 0.017569328 -0.012891762
000160 cf 5a 90 3d fa da 51 3d f9 99 52 bd a8 8e 38 3d
       0.0704857 0.051234223 -0.05141637 0.045057923
000170 6b f0 91 3d 07 5e 96 bd db cc 1e bd 56 d0 07 3d
       0.07125934 -0.07342153 -0.038769584 0.03315767
000180 be 4c 38 3d e6 f9 2e 3d 70 2c ec 3c 2d 39 9c 3d
       0.044995062 0.04271879 0.028829783 0.07628093
000190 b8 e2 34 bc 3d 89 5b bd 02 9a 44 bd 36 ce 10 bc
       -0.011040382 -0.053597677 -0.047998436 -0.008838227
0001a0 9d 58 86 3d ed 4b 19 bd e2 95 8d 3d 1e a0 13 bd
       0.065598704 -0.037425924 0.069133535 -0.03604137
0001b0 00 41 92 bd 2d 74 d6 3c 08 c7 15 3d b0 a7 86 bd
       -0.07141304 0.026178444 0.036566764 -0.065749526
0001c0 46 11 9b 3d 33 55 0d 3d 13 89 dd bd 78 c0 44 3d
       0.07571654 0.03450508 -0.108171605 0.048035115
0001d0 3d 43 12 bd 38 22 23 bd 64 61 38 3d cb ad b0 bd
       -0.035708655 -0.039827555 0.045014754 -0.086268984
0001e0 4d 27 02 3b 75 95 2b bd fe a6 e0 3c 88 e3 9f bd
       0.001985985 -0.04189058 0.027423378 -0.0780707
0001f0 4f 87 02 bd 3f af 13 3c 36 71 72 3d 30 54 55 3d
       -0.03186732 0.00901395 0.059189998 0.05208224

weight f4 [20, 128]
000000 2a 0a 33 bd 77 65 86 3c 94 15 6b 3d d8 19 2f bd
       -0.043710865 0.016405804 0.057393625 -0.042749256
000010 af ed 05 3d 42 9f 1b bd 0c 23 90 bd 29 49 d9 3d
       0.032697376 -0.037993677 -0.07037935 0.10609657
000020 30 1c 41 bc 0e 41 04 bc 45 b3 87 bd 27 67 cf 3d
       -0.011786506 -0.008072151 -0.0662599 0.101270966
000030 34 00 01 3c 6d 36 2c 3d 49 30 1b bd 97 4e f6 3c
       0.007873584 0.042044092 -0.037887845 0.030066771
000040 25 b3 82 bd 24 64 bb 3d 81 fa 32 3d a4 33 93 bc
       -0.06381825 0.0914996 0.04369593 -0.01796896
000050 61 6e ac 3d 8a 54 99 3d 94 8c 7b bc 2c 35 bf bd
       0.084194906 0.07486828 -0.015353341 -0.093363136
000060 f1 ce c3 3c c4 b2 92 bd 7b 40 11 3d 99 e7 35 3d
       0.023902388 -0.07163003 0.035461884 0.04441032
000070 37 31 db bc 20 4a 5f bd c4 f0 3b bd 23 72 7f 3b
       -0.026756866 -0.05451405 -0.04588391 0.0038977943
000080 a5 4e 54 bd 5a 23 3c 3c aa f1 d4 3c eb 7f 50 3d
       -0.051832814 0.011483038 0.02599414 0.050903242
000090 de a4 15 3d ac 60 6e 3c 25 b0 ab 3c 65 9c 72 3c
       0.036534183 0.014549416 0.020958016 0.014807795
0000a0 a6 cf bc bc fb 49 65 bd 2b be 23 3d 03 54 17 bd
       -0.023048233 -0.055978756 0.03997628 -0.036945354
0000b0 d5 b1 a0 bc 96 c6 2f 3d 90 9d 3a 3d 4f 90 e2 3c
       -0.019616047 0.042913996 0.04556042 0.027656702
0000c0 09 cc ef bc 4a 27 92 bc e2 5f 54 3d 46 8a 05 3d
       -0.029272096 -0.017841 0.051849253 0.03260257
0000d0 84 73 94 3d b7 4d 8f 3c fc d5 e2 bc 55 d8 ba 3b
       0.07248595 0.017493112 -0.027689926 0.0057020583
0000e0 0d 1d 95 bc ff 82 2e 3d ce 63 bf 3c 6a e1 64 3c
       -0.018202329 0.042605396 0.02336302 0.0139697585
0000f0 de 7d 7e bd 09 2d 5c bd ee 20 04 3e 4c 50 85 3d
       -0.062131755 -0.053753886 0.12903187 0.06509456
000100 cc 18 a8 bd 8e 95 58 bb 2c b1 80 bc 50 43 5b 3d
       -0.08207855 -0.0033048126 -0.015709482 0.05353099
000110 8e 6b 92 bb ea 8f 19 bc 6b b0 a8 3d f0 28 b0 bc
       -0.004468388 -0.009372691 0.08236774 -0.021503896
000120 87 db 7b 3d 9e 42 08 3d c6 f7 1c bd 4f 2f 09 3e
       0.061488654 0.033266656 -0.038322233 0.13396953
000130 6f f4 e3 bc 6e b3 08 3b 66 20 51 bd 2c c9 a1 bc
       -0.027826516 0.0020858902 -0.05105629 -0.019749247
000140 29 2c 9b 3c 41 51 5a bc 9a 82 8d bd a9 7d 83 3d
       0.018941956 -0.0133250365 -0.06909676 0.06420452
000150 56 e7 d3 3b ef 01 d4 bc b5 fb db bc 9a 2f ab 3d
       0.0064667864 -0.025879828 -0.026853422 0.08358689
000160 de 1f 58 3d 64 c7 9f 3d 60 30 22 3b e9 70 06 3d
       0.052764766 0.078017026 0.0024748072 0.032822523
000170 bb e4 3c bd a9 0a 16 bd e1 f3 1d bd 44 76 13 bd
       -0.046116572 -0.03663126 -0.03856266 -0.03600146
000180 84 68 f2 bc 2f a9 6e bd a8 4c 8d bd 69 ce 37 3c
       -0.029590853 -0.058266815 -0.06899387 0.011218646
000190 4b 1d d4 bc d1 07 27 bd f1 b2 1a bc 8c 10 19 bd
       -0.025892874 -0.04077894 -0.009442077 -0.037369296
0001a0 90 c0 8b bd 95 db e8 bb 36 04 ae bb aa 8e 5a bd
       -0.06823838 -0.0071062543 -0.0053105606 -0.05335871
0001b0 b3 31 ad 3d ab cd df bd 20 71 10 3d ae 02 84 3d
       0.08456745 -0.109279 0.035264134 0.064458236
0001c0 db 9b 41 3b 92 97 d7 3c 2c 07 0e bd 89 fd f0 3c
       0.002954236 0.026317392 -0.03467481 0.02941777
0001d0 cb ac 09 3c 21 ed 6e 3d 00 cd 1e bd 8b 18 f7 3d
       0.008403013 0.058331612 -0.038769722 0.12065228
0001e0 80 65 89 bc 72 a2 e6 3c 2d 88 fe 3c e9 17 a1 3c
       -0.016772032 0.028153632 0.031070793 0.019664722
0001f0 ec 7f 9b bc 6d 09 51 3d d6 5b 2d 3d 37 88 39 bd
       -0.018981896 0.05103438 0.04232391 -0.04529592
000200 34 d7 c0 3c 22 18 a8 3d c5 88 1d bc 79 03 24 3d
       0.023540117 0.08207728 -0.009615128 0.040042374
000210 04 fa bb bb 54 b1 96 3d 21 31 e7 3d f0 3f 5e bd
       -0.0057365913 0.073580414 0.112886675 -0.054260194
000220 94 eb 8d 3d 34 be f6 b9 76 c7 43 bd 27 ab 43 bd
       0.069296986 -0.0004706249 -0.047797643 -0.047770645
000230 6d d0 22 3b e5 de 8f bd 2e 68 6b 3d f8 01 08 bd
       0.002484347 -0.07024936 0.0574724 -0.033205003
000240 be 29 a9 3d 49 1e 7e 3d bc 89 ed bc fc 51 3d 3d
       0.08259915 0.0620406 -0.02899634 0.046220765
000250 66 14 09 bd af a1 c7 bd b1 2b 88 3d 23 cb 83 bd
       -0.03346672 -0.097476356 0.066489585 -0.0643523
000260 11 cd 27 3c b1 92 7c 3d 4a d9 4b bd 38 89 a4 3d
       0.010241763 0.061663333 -0.04976777 0.08033985
000270 6d a3 c6 3c 73 6e 7b bd f2 2a aa 3d b5 da dc 3c
       0.02424785 -0.06138463 0.083089724 0.026959756
000280 7d b2 02 3d 2b bf 91 39 15 f1 ec 3c 26 fa a6 3a
       0.0319085 0.00027798986 0.02892355 0.0012739345
000290 5c a9 26 3b 99 7d cd bc 9e 54 3f bd d4 16 ab bb
       0.0025430536 -0.025084304 -0.046711557 -0.005221227
0002a0 5b 9a 66 3d bb 9b d4 3d a6 69 6a bc 0e a7 09 bc
       0.05629955 0.10381266 -0.014307415 -0.008401645
0002b0 52 1c 31 3d a4 7c 92 bd dd 1d 11 3b 8d 94 39 bd
       0.0432399 -0.071526796 0.0022143044 -0.045307685
0002c0 de 7b 8e 3c 36 44 91 3c 92 66 a1 bd 26 eb 7c bd
       0.017393049 0.01773272 -0.07880892 -0.061747693
0002d0 18 5f fa bc 1a 49 5e 3c 7c ff 6d 3c 60 96 04 bd
       -0.030562922 0.013567233 0.014526244 -0.03236997
0002e0 d3 51 3f bd f1 e3 66 3d 78 1f 81 3b 7f 10 b8 3c
       -0.046708893 0.056369726 0.003940519 0.022468803
0002f0 9c 85 64 bd b2 82 8d 3c 7d f7 e6 bd 3f 37 32 bd
       -0.055791482 0.017274234 -0.112776734 -0.043509718
000300 97 cc 66 bd 59 ff 06 3d 5d 85 5a 3d aa 4c b0 3b
       -0.056347456 0.032958362 0.05334984 0.005380233
000310 26 46 ba 3a b8 2b ac 3c 3d 36 b6 bd c3 75 a9 bc
       0.001421158 0.02101694 -0.08897064 -0.020686036
000320 eb 03 de 3b 12 d8 0d bd 26 50 6d 3d 30 78 c4 bd
       0.0067753694 -0.03462989 0.057937764 -0.095932364
000330 fb 93 39 3c 32 82 92 3c 07 c4 09 3d 97 ee 5b bd
       0.011326785 0.017884348 0.033634212 -0.053694334
000340 dc eb b0 bc 24 d2 46 3d 4a 9d 89 3d e7 9b 8f bc
       -0.021596842 0.04854025 0.06719454 -0.017530395
000350 4d 66 c5 3b 9d 36 19 3d 3b a9 55 3a a7 d1 01 bd
       0.006024158 0.0374056 0.00081505225 -0.03169408
000360 39 97 e5 bc fa 15 73 3d e0 70 88 3b 60 31 aa bd
       -0.02802621 0.05934713 0.0041638464 -0.08310199
000370 74 b0 85 3d cc 2c 25 3d 92 cc 9c 3c 38 2f 69 3d
       0.065277964 0.040325925 0.019140515 0.056929797
000380 a1 08 9a 3d 0a ef ad 3d 0b 1f 8a bb bc 93 02 bd
       0.07521177 0.08492859 -0.0042151264 -0.03187917
000390 cc f9 0a bc 65 38 8d 3b 02 cc 2a 3d 63 e0 1c 3d
       -0.008482408 0.0043097013 0.041698463 0.03829993
0003a0 de c8 25 bd 72 9c 91 bb 59 20 33 3c c5 7f ba 3b
       -0.040474765 -0.0044436986 0.010933005 0.005691501
0003b0 27 e0 94 bd 49 9f ae 3d c1 28 c4 bc b2 db 7a 3d
       -0.07269316 0.08526475 -0.023945214 0.061244674
0003c0 e4 29 9c 3b 24 60 38 bd d2 09 39 bc 33 f7 5e bd
       0.004765736 -0.04501356 -0.011293845 -0.054434966
0003d0 31 c2 7a bb 17 ec 9b bd 1a 93 31 3d d1 bf 6f bd
       -0.003826272 -0.0761339 0.043353178 -0.05853254
0003e0 0c c8 2b bd 77 60 11 3d 18 09 33 3d 4c 18 01 3d
       -0.041938826 0.035492387 0.043709844 0.031517312
0003f0 31 e9 3b 3d 28 c9 20 bd e7 c0 94 3c 09 d6 2c 3d
       0.045876686 -0.039254338 0.01815839 0.042196307

bias f4 [20]
000000 5a 7d 25 bd 1b c8 c8 3c e0 f5 bf bb 5d 6f 11 bd
       -0.040402748 0.02450948 -0.005858168 -0.035506595
000010 e2 dd 5f bc 25 22 9f 3c 35 ca 9f bc f9 df e5 b9
       -0.013663741 0.019425461 -0.0195056 -0.00043845156
000020 2d 82 02 bd e7 ab c6 bc 0f af 35 bd 1b 92 13 3d
       -0.031862427 -0.024251891 -0.044356402 0.03602801
000030 97 8a 9d 3c 3b 9f cb bc a6 2c 21 bc 44 8c ec 3b
       0.019231124 -0.0248562 -0.009837305 0.0072188694
000040 ea 1e 95 bc 87 24 cb 3c 45 ad 1f bd 40 49 8b 3c
       -0.018203218 0.024797691 -0.038983602 0.017002702
